{"format": "graph-model", "generatedBy": "2.3.0", "convertedBy": "TensorFlow.js Converter v2.7.0", "userDefinedMetadata": {"signature": {"inputs": {"input_1:0": {"name": "input_1:0", "dtype": "DT_FLOAT", "tensorShape": {"dim": [{"size": "-1"}, {"size": "256"}, {"size": "256"}, {"size": "3"}]}}}, "outputs": {"Identity:0": {"name": "Identity:0", "dtype": "DT_INT32", "tensorShape": {"dim": [{"size": "1"}]}}, "Identity_1:0": {"name": "Identity_1:0", "dtype": "DT_INT32", "tensorShape": {"dim": [{"size": "10"}, {"size": "5"}]}}}}}, "modelTopology": {"node": [{"name": "StatefulPartitionedCall/functional_1/tf_op_layer_ExpandDims_1/ExpandDims_1/dim", "op": "Const", "attr": {"dtype": {"type": "DT_INT32"}, "value": {"tensor": {"dtype": "DT_INT32", "tensorShape": {}}}}}, {"name": "StatefulPartitionedCall/functional_1/tf_op_layer_GatherV2/GatherV2/axis", "op": "Const", "attr": {"dtype": {"type": "DT_INT32"}, "value": {"tensor": {"dtype": "DT_INT32", "tensorShape": {}}}}}, {"name": "StatefulPartitionedCall/functional_1/tf_op_layer_Mul_4/Mul_4/x", "op": "Const", "attr": {"value": {"tensor": {"dtype": "DT_FLOAT", "tensorShape": {}}}, "dtype": {"type": "DT_FLOAT"}}}, {"name": "StatefulPartitionedCall/functional_1/tf_op_layer_Mul_5/Mul_5/x", "op": "Const", "attr": {"dtype": {"type": "DT_FLOAT"}, "value": {"tensor": {"dtype": "DT_FLOAT", "tensorShape": {}}}}}, {"name": "StatefulPartitionedCall/functional_1/tf_op_layer_strided_slice_1/strided_slice_1/begin", "op": "Const", "attr": {"value": {"tensor": {"dtype": "DT_INT32", "tensorShape": {"dim": [{"size": "2"}]}}}, "dtype": {"type": "DT_INT32"}}}, {"name": "StatefulPartitionedCall/functional_1/tf_op_layer_strided_slice_1/strided_slice_1/end", "op": "Const", "attr": {"value": {"tensor": {"dtype": "DT_INT32", "tensorShape": {"dim": [{"size": "2"}]}}}, "dtype": {"type": "DT_INT32"}}}, {"name": "StatefulPartitionedCall/functional_1/tf_op_layer_strided_slice_1/strided_slice_1/strides", "op": "Const", "attr": {"value": {"tensor": {"dtype": "DT_INT32", "tensorShape": {"dim": [{"size": "2"}]}}}, "dtype": {"type": "DT_INT32"}}}, {"name": "StatefulPartitionedCall/functional_1/tf_op_layer_Mul/Mul/y", "op": "Const", "attr": {"value": {"tensor": {"dtype": "DT_FLOAT", "tensorShape": {"dim": [{"size": "5376"}, {"size": "1"}]}}}, "dtype": {"type": "DT_FLOAT"}}}, {"name": "StatefulPartitionedCall/functional_1/tf_op_layer_AddV2/AddV2/y", "op": "Const", "attr": {"dtype": {"type": "DT_FLOAT"}, "value": {"tensor": {"dtype": "DT_FLOAT", "tensorShape": {"dim": [{"size": "5376"}, {"size": "1"}]}}}}}, {"name": "StatefulPartitionedCall/functional_1/tf_op_layer_Mul_6/Mul_6/x", "op": "Const", "attr": {"dtype": {"type": "DT_FLOAT"}, "value": {"tensor": {"dtype": "DT_FLOAT", "tensorShape": {}}}}}, {"name": "StatefulPartitionedCall/functional_1/tf_op_layer_Pow/Pow/x", "op": "Const", "attr": {"value": {"tensor": {"dtype": "DT_FLOAT", "tensorShape": {}}}, "dtype": {"type": "DT_FLOAT"}}}, {"name": "StatefulPartitionedCall/functional_1/tf_op_layer_strided_slice_3/strided_slice_3/begin", "op": "Const", "attr": {"value": {"tensor": {"dtype": "DT_INT32", "tensorShape": {"dim": [{"size": "2"}]}}}, "dtype": {"type": "DT_INT32"}}}, {"name": "StatefulPartitionedCall/functional_1/tf_op_layer_strided_slice_3/strided_slice_3/end", "op": "Const", "attr": {"value": {"tensor": {"dtype": "DT_INT32", "tensorShape": {"dim": [{"size": "2"}]}}}, "dtype": {"type": "DT_INT32"}}}, {"name": "StatefulPartitionedCall/functional_1/tf_op_layer_strided_slice_3/strided_slice_3/strides", "op": "Const", "attr": {"value": {"tensor": {"dtype": "DT_INT32", "tensorShape": {"dim": [{"size": "2"}]}}}, "dtype": {"type": "DT_INT32"}}}, {"name": "StatefulPartitionedCall/functional_1/tf_op_layer_Mul_2/Mul/y", "op": "Const", "attr": {"value": {"tensor": {"dtype": "DT_FLOAT", "tensorShape": {"dim": [{"size": "5376"}, {"size": "1"}]}}}, "dtype": {"type": "DT_FLOAT"}}}, {"name": "StatefulPartitionedCall/functional_1/tf_op_layer_strided_slice_2/strided_slice_2/begin", "op": "Const", "attr": {"dtype": {"type": "DT_INT32"}, "value": {"tensor": {"dtype": "DT_INT32", "tensorShape": {"dim": [{"size": "2"}]}}}}}, {"name": "StatefulPartitionedCall/functional_1/tf_op_layer_strided_slice_2/strided_slice_2/end", "op": "Const", "attr": {"value": {"tensor": {"dtype": "DT_INT32", "tensorShape": {"dim": [{"size": "2"}]}}}, "dtype": {"type": "DT_INT32"}}}, {"name": "StatefulPartitionedCall/functional_1/tf_op_layer_strided_slice_2/strided_slice_2/strides", "op": "Const", "attr": {"dtype": {"type": "DT_INT32"}, "value": {"tensor": {"dtype": "DT_INT32", "tensorShape": {"dim": [{"size": "2"}]}}}}}, {"name": "StatefulPartitionedCall/functional_1/tf_op_layer_Mul_1/Mul_1/y", "op": "Const", "attr": {"dtype": {"type": "DT_FLOAT"}, "value": {"tensor": {"dtype": "DT_FLOAT", "tensorShape": {"dim": [{"size": "5376"}, {"size": "1"}]}}}}}, {"name": "StatefulPartitionedCall/functional_1/tf_op_layer_AddV2_1/AddV2_1/y", "op": "Const", "attr": {"dtype": {"type": "DT_FLOAT"}, "value": {"tensor": {"dtype": "DT_FLOAT", "tensorShape": {"dim": [{"size": "5376"}, {"size": "1"}]}}}}}, {"name": "StatefulPartitionedCall/functional_1/tf_op_layer_Mul_7/Mul_7/x", "op": "Const", "attr": {"value": {"tensor": {"dtype": "DT_FLOAT", "tensorShape": {}}}, "dtype": {"type": "DT_FLOAT"}}}, {"name": "StatefulPartitionedCall/functional_1/tf_op_layer_Pow_1/Pow_1/x", "op": "Const", "attr": {"value": {"tensor": {"dtype": "DT_FLOAT", "tensorShape": {}}}, "dtype": {"type": "DT_FLOAT"}}}, {"name": "StatefulPartitionedCall/functional_1/tf_op_layer_strided_slice/strided_slice/begin", "op": "Const", "attr": {"value": {"tensor": {"dtype": "DT_INT32", "tensorShape": {"dim": [{"size": "2"}]}}}, "dtype": {"type": "DT_INT32"}}}, {"name": "StatefulPartitionedCall/functional_1/tf_op_layer_strided_slice/strided_slice/end", "op": "Const", "attr": {"dtype": {"type": "DT_INT32"}, "value": {"tensor": {"dtype": "DT_INT32", "tensorShape": {"dim": [{"size": "2"}]}}}}}, {"name": "StatefulPartitionedCall/functional_1/tf_op_layer_strided_slice/strided_slice/strides", "op": "Const", "attr": {"dtype": {"type": "DT_INT32"}, "value": {"tensor": {"dtype": "DT_INT32", "tensorShape": {"dim": [{"size": "2"}]}}}}}, {"name": "StatefulPartitionedCall/functional_1/tf_op_layer_strided_slice_4/strided_slice_4/begin", "op": "Const", "attr": {"dtype": {"type": "DT_INT32"}, "value": {"tensor": {"dtype": "DT_INT32", "tensorShape": {"dim": [{"size": "2"}]}}}}}, {"name": "StatefulPartitionedCall/functional_1/tf_op_layer_strided_slice_4/strided_slice_4/end", "op": "Const", "attr": {"dtype": {"type": "DT_INT32"}, "value": {"tensor": {"dtype": "DT_INT32", "tensorShape": {"dim": [{"size": "2"}]}}}}}, {"name": "StatefulPartitionedCall/functional_1/tf_op_layer_strided_slice_4/strided_slice_4/strides", "op": "Const", "attr": {"dtype": {"type": "DT_INT32"}, "value": {"tensor": {"dtype": "DT_INT32", "tensorShape": {"dim": [{"size": "2"}]}}}}}, {"name": "StatefulPartitionedCall/functional_1/tf_op_layer_Mul_3/Mul_1/y", "op": "Const", "attr": {"dtype": {"type": "DT_FLOAT"}, "value": {"tensor": {"dtype": "DT_FLOAT", "tensorShape": {"dim": [{"size": "5376"}, {"size": "1"}]}}}}}, {"name": "StatefulPartitionedCall/functional_1/tf_op_layer_concat_12/concat_12/axis", "op": "Const", "attr": {"value": {"tensor": {"dtype": "DT_INT32", "tensorShape": {}}}, "dtype": {"type": "DT_INT32"}}}, {"name": "StatefulPartitionedCall/functional_1/tf_op_layer_Max/Max/reduction_indices", "op": "Const", "attr": {"dtype": {"type": "DT_INT32"}, "value": {"tensor": {"dtype": "DT_INT32", "tensorShape": {}}}}}, {"name": "StatefulPartitionedCall/functional_1/tf_op_layer_concat_8/concat_8/axis", "op": "Const", "attr": {"dtype": {"type": "DT_INT32"}, "value": {"tensor": {"dtype": "DT_INT32", "tensorShape": {}}}}}, {"name": "StatefulPartitionedCall/functional_1/up_sampling2d/strided_slice/stack", "op": "Const", "attr": {"value": {"tensor": {"dtype": "DT_INT32", "tensorShape": {"dim": [{"size": "1"}]}}}, "dtype": {"type": "DT_INT32"}}}, {"name": "StatefulPartitionedCall/functional_1/up_sampling2d/strided_slice/stack_1", "op": "Const", "attr": {"dtype": {"type": "DT_INT32"}, "value": {"tensor": {"dtype": "DT_INT32", "tensorShape": {"dim": [{"size": "1"}]}}}}}, {"name": "StatefulPartitionedCall/functional_1/up_sampling2d/strided_slice/stack_2", "op": "Const", "attr": {"value": {"tensor": {"dtype": "DT_INT32", "tensorShape": {"dim": [{"size": "1"}]}}}, "dtype": {"type": "DT_INT32"}}}, {"name": "StatefulPartitionedCall/functional_1/up_sampling2d/Const", "op": "Const", "attr": {"dtype": {"type": "DT_INT32"}, "value": {"tensor": {"dtype": "DT_INT32", "tensorShape": {"dim": [{"size": "2"}]}}}}}, {"name": "unknown_783", "op": "Const", "attr": {"value": {"tensor": {"dtype": "DT_FLOAT", "tensorShape": {"dim": [{"size": "1"}, {"size": "1"}, {"size": "20"}, {"size": "6"}]}}}, "dtype": {"type": "DT_FLOAT"}}}, {"name": "unknown_784", "op": "Const", "attr": {"dtype": {"type": "DT_FLOAT"}, "value": {"tensor": {"dtype": "DT_FLOAT", "tensorShape": {"dim": [{"size": "6"}]}}}}}, {"name": "StatefulPartitionedCall/functional_1/tf_op_layer_Reshape_2/Reshape_2/shape", "op": "Const", "attr": {"value": {"tensor": {"dtype": "DT_INT32", "tensorShape": {"dim": [{"size": "2"}]}}}, "dtype": {"type": "DT_INT32"}}}, {"name": "StatefulPartitionedCall/functional_1/tf_op_layer_split_2/split_2/size_splits", "op": "Const", "attr": {"dtype": {"type": "DT_INT32"}, "value": {"tensor": {"dtype": "DT_INT32", "tensorShape": {"dim": [{"size": "2"}]}}}}}, {"name": "StatefulPartitionedCall/functional_1/tf_op_layer_split_2/split_2/split_dim", "op": "Const", "attr": {"value": {"tensor": {"dtype": "DT_INT32", "tensorShape": {}}}, "dtype": {"type": "DT_INT32"}}}, {"name": "StatefulPartitionedCall/functional_1/tf_op_layer_concat_10/concat_10/axis", "op": "Const", "attr": {"value": {"tensor": {"dtype": "DT_INT32", "tensorShape": {}}}, "dtype": {"type": "DT_INT32"}}}, {"name": "StatefulPartitionedCall/functional_1/tf_op_layer_concat/concat/axis", "op": "Const", "attr": {"value": {"tensor": {"dtype": "DT_INT32", "tensorShape": {}}}, "dtype": {"type": "DT_INT32"}}}, {"name": "StatefulPartitionedCall/functional_1/up_sampling2d_1/strided_slice/stack", "op": "Const", "attr": {"dtype": {"type": "DT_INT32"}, "value": {"tensor": {"dtype": "DT_INT32", "tensorShape": {"dim": [{"size": "1"}]}}}}}, {"name": "StatefulPartitionedCall/functional_1/up_sampling2d_1/strided_slice/stack_1", "op": "Const", "attr": {"dtype": {"type": "DT_INT32"}, "value": {"tensor": {"dtype": "DT_INT32", "tensorShape": {"dim": [{"size": "1"}]}}}}}, {"name": "StatefulPartitionedCall/functional_1/up_sampling2d_1/strided_slice/stack_2", "op": "Const", "attr": {"dtype": {"type": "DT_INT32"}, "value": {"tensor": {"dtype": "DT_INT32", "tensorShape": {"dim": [{"size": "1"}]}}}}}, {"name": "StatefulPartitionedCall/functional_1/up_sampling2d_1/Const", "op": "Const", "attr": {"value": {"tensor": {"dtype": "DT_INT32", "tensorShape": {"dim": [{"size": "2"}]}}}, "dtype": {"type": "DT_INT32"}}}, {"name": "unknown_781", "op": "Const", "attr": {"dtype": {"type": "DT_FLOAT"}, "value": {"tensor": {"dtype": "DT_FLOAT", "tensorShape": {"dim": [{"size": "1"}, {"size": "1"}, {"size": "20"}, {"size": "6"}]}}}}}, {"name": "unknown_782", "op": "Const", "attr": {"value": {"tensor": {"dtype": "DT_FLOAT", "tensorShape": {"dim": [{"size": "6"}]}}}, "dtype": {"type": "DT_FLOAT"}}}, {"name": "StatefulPartitionedCall/functional_1/tf_op_layer_Reshape/Reshape/shape", "op": "Const", "attr": {"value": {"tensor": {"dtype": "DT_INT32", "tensorShape": {"dim": [{"size": "2"}]}}}, "dtype": {"type": "DT_INT32"}}}, {"name": "StatefulPartitionedCall/functional_1/tf_op_layer_split/split/size_splits", "op": "Const", "attr": {"dtype": {"type": "DT_INT32"}, "value": {"tensor": {"dtype": "DT_INT32", "tensorShape": {"dim": [{"size": "2"}]}}}}}, {"name": "StatefulPartitionedCall/functional_1/tf_op_layer_split/split/split_dim", "op": "Const", "attr": {"value": {"tensor": {"dtype": "DT_INT32", "tensorShape": {}}}, "dtype": {"type": "DT_INT32"}}}, {"name": "StatefulPartitionedCall/functional_1/tf_op_layer_concat_2/concat_2/axis", "op": "Const", "attr": {"dtype": {"type": "DT_INT32"}, "value": {"tensor": {"dtype": "DT_INT32", "tensorShape": {}}}}}, {"name": "StatefulPartitionedCall/functional_1/tf_op_layer_concat_4/concat_4/axis", "op": "Const", "attr": {"dtype": {"type": "DT_INT32"}, "value": {"tensor": {"dtype": "DT_INT32", "tensorShape": {}}}}}, {"name": "unknown_779", "op": "Const", "attr": {"value": {"tensor": {"dtype": "DT_FLOAT", "tensorShape": {"dim": [{"size": "1"}, {"size": "1"}, {"size": "20"}, {"size": "6"}]}}}, "dtype": {"type": "DT_FLOAT"}}}, {"name": "unknown_780", "op": "Const", "attr": {"dtype": {"type": "DT_FLOAT"}, "value": {"tensor": {"dtype": "DT_FLOAT", "tensorShape": {"dim": [{"size": "6"}]}}}}}, {"name": "StatefulPartitionedCall/functional_1/tf_op_layer_Reshape_1/Reshape_1/shape", "op": "Const", "attr": {"value": {"tensor": {"dtype": "DT_INT32", "tensorShape": {"dim": [{"size": "2"}]}}}, "dtype": {"type": "DT_INT32"}}}, {"name": "StatefulPartitionedCall/functional_1/tf_op_layer_split_1/split_1/size_splits", "op": "Const", "attr": {"value": {"tensor": {"dtype": "DT_INT32", "tensorShape": {"dim": [{"size": "2"}]}}}, "dtype": {"type": "DT_INT32"}}}, {"name": "StatefulPartitionedCall/functional_1/tf_op_layer_split_1/split_1/split_dim", "op": "Const", "attr": {"value": {"tensor": {"dtype": "DT_INT32", "tensorShape": {}}}, "dtype": {"type": "DT_INT32"}}}, {"name": "StatefulPartitionedCall/functional_1/tf_op_layer_concat_6/concat_6/axis", "op": "Const", "attr": {"dtype": {"type": "DT_INT32"}, "value": {"tensor": {"dtype": "DT_INT32", "tensorShape": {}}}}}, {"name": "StatefulPartitionedCall/functional_1/tf_op_layer_concat_11/concat_11/axis", "op": "Const", "attr": {"dtype": {"type": "DT_INT32"}, "value": {"tensor": {"dtype": "DT_INT32", "tensorShape": {}}}}}, {"name": "StatefulPartitionedCall/functional_1/tf_op_layer_strided_slice_5/strided_slice_5/begin", "op": "Const", "attr": {"value": {"tensor": {"dtype": "DT_INT32", "tensorShape": {"dim": [{"size": "2"}]}}}, "dtype": {"type": "DT_INT32"}}}, {"name": "StatefulPartitionedCall/functional_1/tf_op_layer_strided_slice_5/strided_slice_5/end", "op": "Const", "attr": {"dtype": {"type": "DT_INT32"}, "value": {"tensor": {"dtype": "DT_INT32", "tensorShape": {"dim": [{"size": "2"}]}}}}}, {"name": "StatefulPartitionedCall/functional_1/tf_op_layer_strided_slice_5/strided_slice_5/strides", "op": "Const", "attr": {"value": {"tensor": {"dtype": "DT_INT32", "tensorShape": {"dim": [{"size": "2"}]}}}, "dtype": {"type": "DT_INT32"}}}, {"name": "StatefulPartitionedCall/functional_1/tf_op_layer_ArgMax/ArgMax/dimension", "op": "Const", "attr": {"value": {"tensor": {"dtype": "DT_INT32", "tensorShape": {}}}, "dtype": {"type": "DT_INT32"}}}, {"name": "StatefulPartitionedCall/functional_1/tf_op_layer_Less/Less/y", "op": "Const", "attr": {"dtype": {"type": "DT_INT64"}, "value": {"tensor": {"dtype": "DT_INT64", "tensorShape": {"dim": [{"size": "5376"}]}}}}}, {"name": "StatefulPartitionedCall/functional_1/tf_op_layer_SelectV2/SelectV2/t", "op": "Const", "attr": {"value": {"tensor": {"dtype": "DT_FLOAT", "tensorShape": {"dim": [{"size": "5376"}]}}}, "dtype": {"type": "DT_FLOAT"}}}, {"name": "StatefulPartitionedCall/functional_1/tf_op_layer_SelectV2/SelectV2/e", "op": "Const", "attr": {"dtype": {"type": "DT_FLOAT"}, "value": {"tensor": {"dtype": "DT_FLOAT", "tensorShape": {"dim": [{"size": "5376"}]}}}}}, {"name": "StatefulPartitionedCall/functional_1/tf_op_layer_NonMaxSuppressionV4/NonMaxSuppressionV4/max_output_size", "op": "Const", "attr": {"value": {"tensor": {"dtype": "DT_INT32", "tensorShape": {}}}, "dtype": {"type": "DT_INT32"}}}, {"name": "StatefulPartitionedCall/functional_1/tf_op_layer_NonMaxSuppressionV4/NonMaxSuppressionV4/iou_threshold", "op": "Const", "attr": {"value": {"tensor": {"dtype": "DT_FLOAT", "tensorShape": {}}}, "dtype": {"type": "DT_FLOAT"}}}, {"name": "StatefulPartitionedCall/functional_1/tf_op_layer_NonMaxSuppressionV4/NonMaxSuppressionV4/score_threshold", "op": "Const", "attr": {"dtype": {"type": "DT_FLOAT"}, "value": {"tensor": {"dtype": "DT_FLOAT", "tensorShape": {}}}}}, {"name": "StatefulPartitionedCall/functional_1/tf_op_layer_GatherV2_1/GatherV2_1/axis", "op": "Const", "attr": {"dtype": {"type": "DT_INT32"}, "value": {"tensor": {"dtype": "DT_INT32", "tensorShape": {}}}}}, {"name": "StatefulPartitionedCall/functional_1/tf_op_layer_ExpandDims/ExpandDims/dim", "op": "Const", "attr": {"dtype": {"type": "DT_INT32"}, "value": {"tensor": {"dtype": "DT_INT32", "tensorShape": {}}}}}, {"name": "StatefulPartitionedCall/functional_1/tf_op_layer_concat_13/concat_13/axis", "op": "Const", "attr": {"dtype": {"type": "DT_INT32"}, "value": {"tensor": {"dtype": "DT_INT32", "tensorShape": {}}}}}, {"name": "input_1", "op": "Placeholder", "attr": {"shape": {"shape": {"dim": [{"size": "-1"}, {"size": "256"}, {"size": "256"}, {"size": "3"}]}}, "dtype": {"type": "DT_FLOAT"}}}, {"name": "StatefulPartitionedCall/functional_1/CONV2D_BLOCK0_0_conv/Conv2D_weights", "op": "Const", "attr": {"dtype": {"type": "DT_FLOAT"}, "value": {"tensor": {"dtype": "DT_FLOAT", "tensorShape": {"dim": [{"size": "7"}, {"size": "7"}, {"size": "3"}, {"size": "10"}]}}}}}, {"name": "StatefulPartitionedCall/functional_1/RFE_BLOCK2_conv3_3/Conv2D_bn_offset", "op": "Const", "attr": {"dtype": {"type": "DT_FLOAT"}, "value": {"tensor": {"dtype": "DT_FLOAT", "tensorShape": {"dim": [{"size": "5"}]}}}}}, {"name": "StatefulPartitionedCall/functional_1/CONV2D_BLOCK0_0_conv/Conv2D_bn_offset", "op": "Const", "attr": {"value": {"tensor": {"dtype": "DT_FLOAT", "tensorShape": {"dim": [{"size": "10"}]}}}, "dtype": {"type": "DT_FLOAT"}}}, {"name": "StatefulPartitionedCall/functional_1/RESNET_IDENTITY_BLOCK2_12__conv3/Conv2D_bn_offset", "op": "Const", "attr": {"value": {"tensor": {"dtype": "DT_FLOAT", "tensorShape": {"dim": [{"size": "160"}]}}}, "dtype": {"type": "DT_FLOAT"}}}, {"name": "StatefulPartitionedCall/functional_1/RESNET_SIDENTITY_BLOCK0_conv1/Conv2D_weights", "op": "Const", "attr": {"dtype": {"type": "DT_FLOAT"}, "value": {"tensor": {"dtype": "DT_FLOAT", "tensorShape": {"dim": [{"size": "1"}, {"size": "1"}, {"size": "10"}, {"size": "10"}]}}}}}, {"name": "StatefulPartitionedCall/functional_1/RESNET_SIDENTITY_BLOCK0_conv1/Conv2D_bn_offset", "op": "Const", "attr": {"dtype": {"type": "DT_FLOAT"}, "value": {"tensor": {"dtype": "DT_FLOAT", "tensorShape": {"dim": [{"size": "10"}]}}}}}, {"name": "StatefulPartitionedCall/functional_1/RESNET_SIDENTITY_BLOCK0_conv4/Conv2D_weights", "op": "Const", "attr": {"value": {"tensor": {"dtype": "DT_FLOAT", "tensorShape": {"dim": [{"size": "1"}, {"size": "1"}, {"size": "10"}, {"size": "40"}]}}}, "dtype": {"type": "DT_FLOAT"}}}, {"name": "StatefulPartitionedCall/functional_1/RESNET_SIDENTITY_BLOCK0_conv4/Conv2D_bn_offset", "op": "Const", "attr": {"value": {"tensor": {"dtype": "DT_FLOAT", "tensorShape": {"dim": [{"size": "40"}]}}}, "dtype": {"type": "DT_FLOAT"}}}, {"name": "StatefulPartitionedCall/functional_1/RESNET_SIDENTITY_BLOCK0_conv2/Conv2D_weights", "op": "Const", "attr": {"dtype": {"type": "DT_FLOAT"}, "value": {"tensor": {"dtype": "DT_FLOAT", "tensorShape": {"dim": [{"size": "3"}, {"size": "3"}, {"size": "10"}, {"size": "10"}]}}}}}, {"name": "StatefulPartitionedCall/functional_1/RESNET_IDENTITY_BLOCK2_13__conv1/Conv2D_weights", "op": "Const", "attr": {"dtype": {"type": "DT_FLOAT"}, "value": {"tensor": {"dtype": "DT_FLOAT", "tensorShape": {"dim": [{"size": "1"}, {"size": "1"}, {"size": "160"}, {"size": "40"}]}}}}}, {"name": "StatefulPartitionedCall/functional_1/RESNET_SIDENTITY_BLOCK0_conv2/Conv2D_bn_offset", "op": "Const", "attr": {"dtype": {"type": "DT_FLOAT"}, "value": {"tensor": {"dtype": "DT_FLOAT", "tensorShape": {"dim": [{"size": "10"}]}}}}}, {"name": "StatefulPartitionedCall/functional_1/RESNET_SIDENTITY_BLOCK0_conv3/Conv2D_weights", "op": "Const", "attr": {"dtype": {"type": "DT_FLOAT"}, "value": {"tensor": {"dtype": "DT_FLOAT", "tensorShape": {"dim": [{"size": "1"}, {"size": "1"}, {"size": "10"}, {"size": "40"}]}}}}}, {"name": "StatefulPartitionedCall/functional_1/RESNET_IDENTITY_BLOCK2_13__conv1/Conv2D_bn_offset", "op": "Const", "attr": {"dtype": {"type": "DT_FLOAT"}, "value": {"tensor": {"dtype": "DT_FLOAT", "tensorShape": {"dim": [{"size": "40"}]}}}}}, {"name": "StatefulPartitionedCall/functional_1/RESNET_SIDENTITY_BLOCK0_conv3/Conv2D_bn_offset", "op": "Const", "attr": {"value": {"tensor": {"dtype": "DT_FLOAT", "tensorShape": {"dim": [{"size": "40"}]}}}, "dtype": {"type": "DT_FLOAT"}}}, {"name": "StatefulPartitionedCall/functional_1/RESNET_IDENTITY_BLOCK0_0__conv1/Conv2D_weights", "op": "Const", "attr": {"dtype": {"type": "DT_FLOAT"}, "value": {"tensor": {"dtype": "DT_FLOAT", "tensorShape": {"dim": [{"size": "1"}, {"size": "1"}, {"size": "40"}, {"size": "10"}]}}}}}, {"name": "StatefulPartitionedCall/functional_1/RESNET_IDENTITY_BLOCK0_0__conv1/Conv2D_bn_offset", "op": "Const", "attr": {"dtype": {"type": "DT_FLOAT"}, "value": {"tensor": {"dtype": "DT_FLOAT", "tensorShape": {"dim": [{"size": "10"}]}}}}}, {"name": "StatefulPartitionedCall/functional_1/RESNET_IDENTITY_BLOCK0_0__conv2/Conv2D_weights", "op": "Const", "attr": {"value": {"tensor": {"dtype": "DT_FLOAT", "tensorShape": {"dim": [{"size": "3"}, {"size": "3"}, {"size": "10"}, {"size": "10"}]}}}, "dtype": {"type": "DT_FLOAT"}}}, {"name": "StatefulPartitionedCall/functional_1/RESNET_IDENTITY_BLOCK2_13__conv2/Conv2D_weights", "op": "Const", "attr": {"value": {"tensor": {"dtype": "DT_FLOAT", "tensorShape": {"dim": [{"size": "3"}, {"size": "3"}, {"size": "40"}, {"size": "40"}]}}}, "dtype": {"type": "DT_FLOAT"}}}, {"name": "StatefulPartitionedCall/functional_1/RESNET_IDENTITY_BLOCK0_0__conv2/Conv2D_bn_offset", "op": "Const", "attr": {"value": {"tensor": {"dtype": "DT_FLOAT", "tensorShape": {"dim": [{"size": "10"}]}}}, "dtype": {"type": "DT_FLOAT"}}}, {"name": "StatefulPartitionedCall/functional_1/RESNET_IDENTITY_BLOCK0_0__conv3/Conv2D_weights", "op": "Const", "attr": {"value": {"tensor": {"dtype": "DT_FLOAT", "tensorShape": {"dim": [{"size": "1"}, {"size": "1"}, {"size": "10"}, {"size": "40"}]}}}, "dtype": {"type": "DT_FLOAT"}}}, {"name": "StatefulPartitionedCall/functional_1/RESNET_IDENTITY_BLOCK2_13__conv2/Conv2D_bn_offset", "op": "Const", "attr": {"dtype": {"type": "DT_FLOAT"}, "value": {"tensor": {"dtype": "DT_FLOAT", "tensorShape": {"dim": [{"size": "40"}]}}}}}, {"name": "StatefulPartitionedCall/functional_1/RESNET_IDENTITY_BLOCK0_0__conv3/Conv2D_bn_offset", "op": "Const", "attr": {"dtype": {"type": "DT_FLOAT"}, "value": {"tensor": {"dtype": "DT_FLOAT", "tensorShape": {"dim": [{"size": "40"}]}}}}}, {"name": "StatefulPartitionedCall/functional_1/RESNET_IDENTITY_BLOCK0_1__conv1/Conv2D_weights", "op": "Const", "attr": {"dtype": {"type": "DT_FLOAT"}, "value": {"tensor": {"dtype": "DT_FLOAT", "tensorShape": {"dim": [{"size": "1"}, {"size": "1"}, {"size": "40"}, {"size": "10"}]}}}}}, {"name": "StatefulPartitionedCall/functional_1/RFE_BLOCK1rfe_conv4/Conv2D_weights", "op": "Const", "attr": {"value": {"tensor": {"dtype": "DT_FLOAT", "tensorShape": {"dim": [{"size": "1"}, {"size": "1"}, {"size": "20"}, {"size": "20"}]}}}, "dtype": {"type": "DT_FLOAT"}}}, {"name": "StatefulPartitionedCall/functional_1/RESNET_IDENTITY_BLOCK0_1__conv1/Conv2D_bn_offset", "op": "Const", "attr": {"value": {"tensor": {"dtype": "DT_FLOAT", "tensorShape": {"dim": [{"size": "10"}]}}}, "dtype": {"type": "DT_FLOAT"}}}, {"name": "StatefulPartitionedCall/functional_1/RESNET_IDENTITY_BLOCK0_1__conv2/Conv2D_weights", "op": "Const", "attr": {"value": {"tensor": {"dtype": "DT_FLOAT", "tensorShape": {"dim": [{"size": "3"}, {"size": "3"}, {"size": "10"}, {"size": "10"}]}}}, "dtype": {"type": "DT_FLOAT"}}}, {"name": "StatefulPartitionedCall/functional_1/RESNET_IDENTITY_BLOCK2_13__conv3/Conv2D_weights", "op": "Const", "attr": {"dtype": {"type": "DT_FLOAT"}, "value": {"tensor": {"dtype": "DT_FLOAT", "tensorShape": {"dim": [{"size": "1"}, {"size": "1"}, {"size": "40"}, {"size": "160"}]}}}}}, {"name": "StatefulPartitionedCall/functional_1/RESNET_IDENTITY_BLOCK0_1__conv2/Conv2D_bn_offset", "op": "Const", "attr": {"value": {"tensor": {"dtype": "DT_FLOAT", "tensorShape": {"dim": [{"size": "10"}]}}}, "dtype": {"type": "DT_FLOAT"}}}, {"name": "StatefulPartitionedCall/functional_1/RESNET_IDENTITY_BLOCK0_1__conv3/Conv2D_weights", "op": "Const", "attr": {"value": {"tensor": {"dtype": "DT_FLOAT", "tensorShape": {"dim": [{"size": "1"}, {"size": "1"}, {"size": "10"}, {"size": "40"}]}}}, "dtype": {"type": "DT_FLOAT"}}}, {"name": "StatefulPartitionedCall/functional_1/RESNET_IDENTITY_BLOCK2_13__conv3/Conv2D_bn_offset", "op": "Const", "attr": {"dtype": {"type": "DT_FLOAT"}, "value": {"tensor": {"dtype": "DT_FLOAT", "tensorShape": {"dim": [{"size": "160"}]}}}}}, {"name": "StatefulPartitionedCall/functional_1/RESNET_IDENTITY_BLOCK0_1__conv3/Conv2D_bn_offset", "op": "Const", "attr": {"value": {"tensor": {"dtype": "DT_FLOAT", "tensorShape": {"dim": [{"size": "40"}]}}}, "dtype": {"type": "DT_FLOAT"}}}, {"name": "StatefulPartitionedCall/functional_1/RESNET_IDENTITY_BLOCK0_2__conv1/Conv2D_weights", "op": "Const", "attr": {"dtype": {"type": "DT_FLOAT"}, "value": {"tensor": {"dtype": "DT_FLOAT", "tensorShape": {"dim": [{"size": "1"}, {"size": "1"}, {"size": "40"}, {"size": "10"}]}}}}}, {"name": "StatefulPartitionedCall/functional_1/RESNET_IDENTITY_BLOCK0_2__conv1/Conv2D_bn_offset", "op": "Const", "attr": {"dtype": {"type": "DT_FLOAT"}, "value": {"tensor": {"dtype": "DT_FLOAT", "tensorShape": {"dim": [{"size": "10"}]}}}}}, {"name": "StatefulPartitionedCall/functional_1/RESNET_IDENTITY_BLOCK0_2__conv2/Conv2D_weights", "op": "Const", "attr": {"dtype": {"type": "DT_FLOAT"}, "value": {"tensor": {"dtype": "DT_FLOAT", "tensorShape": {"dim": [{"size": "3"}, {"size": "3"}, {"size": "10"}, {"size": "10"}]}}}}}, {"name": "StatefulPartitionedCall/functional_1/RESNET_IDENTITY_BLOCK0_2__conv2/Conv2D_bn_offset", "op": "Const", "attr": {"dtype": {"type": "DT_FLOAT"}, "value": {"tensor": {"dtype": "DT_FLOAT", "tensorShape": {"dim": [{"size": "10"}]}}}}}, {"name": "StatefulPartitionedCall/functional_1/RESNET_IDENTITY_BLOCK2_14__conv1/Conv2D_weights", "op": "Const", "attr": {"value": {"tensor": {"dtype": "DT_FLOAT", "tensorShape": {"dim": [{"size": "1"}, {"size": "1"}, {"size": "160"}, {"size": "40"}]}}}, "dtype": {"type": "DT_FLOAT"}}}, {"name": "StatefulPartitionedCall/functional_1/RESNET_IDENTITY_BLOCK0_2__conv3/Conv2D_weights", "op": "Const", "attr": {"dtype": {"type": "DT_FLOAT"}, "value": {"tensor": {"dtype": "DT_FLOAT", "tensorShape": {"dim": [{"size": "1"}, {"size": "1"}, {"size": "10"}, {"size": "40"}]}}}}}, {"name": "StatefulPartitionedCall/functional_1/RFE_BLOCK1rfe_conv4/Conv2D_bn_offset", "op": "Const", "attr": {"value": {"tensor": {"dtype": "DT_FLOAT", "tensorShape": {"dim": [{"size": "20"}]}}}, "dtype": {"type": "DT_FLOAT"}}}, {"name": "StatefulPartitionedCall/functional_1/RESNET_IDENTITY_BLOCK0_2__conv3/Conv2D_bn_offset", "op": "Const", "attr": {"value": {"tensor": {"dtype": "DT_FLOAT", "tensorShape": {"dim": [{"size": "40"}]}}}, "dtype": {"type": "DT_FLOAT"}}}, {"name": "StatefulPartitionedCall/functional_1/CONV2D_BLOCK2_0_conv/Conv2D_weights", "op": "Const", "attr": {"dtype": {"type": "DT_FLOAT"}, "value": {"tensor": {"dtype": "DT_FLOAT", "tensorShape": {"dim": [{"size": "3"}, {"size": "3"}, {"size": "40"}, {"size": "20"}]}}}}}, {"name": "StatefulPartitionedCall/functional_1/RESNET_IDENTITY_BLOCK2_14__conv1/Conv2D_bn_offset", "op": "Const", "attr": {"value": {"tensor": {"dtype": "DT_FLOAT", "tensorShape": {"dim": [{"size": "40"}]}}}, "dtype": {"type": "DT_FLOAT"}}}, {"name": "StatefulPartitionedCall/functional_1/CONV2D_BLOCK2_0_conv/Conv2D_bn_offset", "op": "Const", "attr": {"value": {"tensor": {"dtype": "DT_FLOAT", "tensorShape": {"dim": [{"size": "20"}]}}}, "dtype": {"type": "DT_FLOAT"}}}, {"name": "StatefulPartitionedCall/functional_1/RESNET_SIDENTITY_BLOCK1_conv1/Conv2D_weights", "op": "Const", "attr": {"value": {"tensor": {"dtype": "DT_FLOAT", "tensorShape": {"dim": [{"size": "1"}, {"size": "1"}, {"size": "40"}, {"size": "20"}]}}}, "dtype": {"type": "DT_FLOAT"}}}, {"name": "StatefulPartitionedCall/functional_1/RESNET_SIDENTITY_BLOCK1_conv1/Conv2D_bn_offset", "op": "Const", "attr": {"dtype": {"type": "DT_FLOAT"}, "value": {"tensor": {"dtype": "DT_FLOAT", "tensorShape": {"dim": [{"size": "20"}]}}}}}, {"name": "StatefulPartitionedCall/functional_1/RESNET_IDENTITY_BLOCK2_14__conv2/Conv2D_weights", "op": "Const", "attr": {"dtype": {"type": "DT_FLOAT"}, "value": {"tensor": {"dtype": "DT_FLOAT", "tensorShape": {"dim": [{"size": "3"}, {"size": "3"}, {"size": "40"}, {"size": "40"}]}}}}}, {"name": "StatefulPartitionedCall/functional_1/RESNET_SIDENTITY_BLOCK1_conv4/Conv2D_weights", "op": "Const", "attr": {"dtype": {"type": "DT_FLOAT"}, "value": {"tensor": {"dtype": "DT_FLOAT", "tensorShape": {"dim": [{"size": "1"}, {"size": "1"}, {"size": "40"}, {"size": "80"}]}}}}}, {"name": "StatefulPartitionedCall/functional_1/RESNET_SIDENTITY_BLOCK1_conv4/Conv2D_bn_offset", "op": "Const", "attr": {"value": {"tensor": {"dtype": "DT_FLOAT", "tensorShape": {"dim": [{"size": "80"}]}}}, "dtype": {"type": "DT_FLOAT"}}}, {"name": "StatefulPartitionedCall/functional_1/RESNET_SIDENTITY_BLOCK1_conv2/Conv2D_weights", "op": "Const", "attr": {"value": {"tensor": {"dtype": "DT_FLOAT", "tensorShape": {"dim": [{"size": "3"}, {"size": "3"}, {"size": "20"}, {"size": "20"}]}}}, "dtype": {"type": "DT_FLOAT"}}}, {"name": "StatefulPartitionedCall/functional_1/RESNET_IDENTITY_BLOCK2_14__conv2/Conv2D_bn_offset", "op": "Const", "attr": {"value": {"tensor": {"dtype": "DT_FLOAT", "tensorShape": {"dim": [{"size": "40"}]}}}, "dtype": {"type": "DT_FLOAT"}}}, {"name": "StatefulPartitionedCall/functional_1/RESNET_SIDENTITY_BLOCK1_conv2/Conv2D_bn_offset", "op": "Const", "attr": {"value": {"tensor": {"dtype": "DT_FLOAT", "tensorShape": {"dim": [{"size": "20"}]}}}, "dtype": {"type": "DT_FLOAT"}}}, {"name": "StatefulPartitionedCall/functional_1/RESNET_SIDENTITY_BLOCK1_conv3/Conv2D_weights", "op": "Const", "attr": {"value": {"tensor": {"dtype": "DT_FLOAT", "tensorShape": {"dim": [{"size": "1"}, {"size": "1"}, {"size": "20"}, {"size": "80"}]}}}, "dtype": {"type": "DT_FLOAT"}}}, {"name": "StatefulPartitionedCall/functional_1/RESNET_SIDENTITY_BLOCK1_conv3/Conv2D_bn_offset", "op": "Const", "attr": {"dtype": {"type": "DT_FLOAT"}, "value": {"tensor": {"dtype": "DT_FLOAT", "tensorShape": {"dim": [{"size": "80"}]}}}}}, {"name": "StatefulPartitionedCall/functional_1/RESNET_IDENTITY_BLOCK1_0__conv1/Conv2D_weights", "op": "Const", "attr": {"value": {"tensor": {"dtype": "DT_FLOAT", "tensorShape": {"dim": [{"size": "1"}, {"size": "1"}, {"size": "80"}, {"size": "20"}]}}}, "dtype": {"type": "DT_FLOAT"}}}, {"name": "StatefulPartitionedCall/functional_1/RESNET_IDENTITY_BLOCK2_14__conv3/Conv2D_weights", "op": "Const", "attr": {"dtype": {"type": "DT_FLOAT"}, "value": {"tensor": {"dtype": "DT_FLOAT", "tensorShape": {"dim": [{"size": "1"}, {"size": "1"}, {"size": "40"}, {"size": "160"}]}}}}}, {"name": "StatefulPartitionedCall/functional_1/RESNET_IDENTITY_BLOCK1_0__conv1/Conv2D_bn_offset", "op": "Const", "attr": {"value": {"tensor": {"dtype": "DT_FLOAT", "tensorShape": {"dim": [{"size": "20"}]}}}, "dtype": {"type": "DT_FLOAT"}}}, {"name": "StatefulPartitionedCall/functional_1/RESNET_IDENTITY_BLOCK1_0__conv2/Conv2D_weights", "op": "Const", "attr": {"dtype": {"type": "DT_FLOAT"}, "value": {"tensor": {"dtype": "DT_FLOAT", "tensorShape": {"dim": [{"size": "3"}, {"size": "3"}, {"size": "20"}, {"size": "20"}]}}}}}, {"name": "StatefulPartitionedCall/functional_1/RESNET_IDENTITY_BLOCK2_14__conv3/Conv2D_bn_offset", "op": "Const", "attr": {"value": {"tensor": {"dtype": "DT_FLOAT", "tensorShape": {"dim": [{"size": "160"}]}}}, "dtype": {"type": "DT_FLOAT"}}}, {"name": "StatefulPartitionedCall/functional_1/RESNET_IDENTITY_BLOCK1_0__conv2/Conv2D_bn_offset", "op": "Const", "attr": {"value": {"tensor": {"dtype": "DT_FLOAT", "tensorShape": {"dim": [{"size": "20"}]}}}, "dtype": {"type": "DT_FLOAT"}}}, {"name": "StatefulPartitionedCall/functional_1/RESNET_IDENTITY_BLOCK1_0__conv3/Conv2D_weights", "op": "Const", "attr": {"dtype": {"type": "DT_FLOAT"}, "value": {"tensor": {"dtype": "DT_FLOAT", "tensorShape": {"dim": [{"size": "1"}, {"size": "1"}, {"size": "20"}, {"size": "80"}]}}}}}, {"name": "StatefulPartitionedCall/functional_1/RESNET_IDENTITY_BLOCK1_0__conv3/Conv2D_bn_offset", "op": "Const", "attr": {"value": {"tensor": {"dtype": "DT_FLOAT", "tensorShape": {"dim": [{"size": "80"}]}}}, "dtype": {"type": "DT_FLOAT"}}}, {"name": "StatefulPartitionedCall/functional_1/RESNET_IDENTITY_BLOCK1_1__conv1/Conv2D_weights", "op": "Const", "attr": {"dtype": {"type": "DT_FLOAT"}, "value": {"tensor": {"dtype": "DT_FLOAT", "tensorShape": {"dim": [{"size": "1"}, {"size": "1"}, {"size": "80"}, {"size": "20"}]}}}}}, {"name": "StatefulPartitionedCall/functional_1/RESNET_IDENTITY_BLOCK1_1__conv1/Conv2D_bn_offset", "op": "Const", "attr": {"value": {"tensor": {"dtype": "DT_FLOAT", "tensorShape": {"dim": [{"size": "20"}]}}}, "dtype": {"type": "DT_FLOAT"}}}, {"name": "StatefulPartitionedCall/functional_1/CONV2D_BLOCK5_0_conv/Conv2D_weights", "op": "Const", "attr": {"value": {"tensor": {"dtype": "DT_FLOAT", "tensorShape": {"dim": [{"size": "3"}, {"size": "3"}, {"size": "160"}, {"size": "20"}]}}}, "dtype": {"type": "DT_FLOAT"}}}, {"name": "StatefulPartitionedCall/functional_1/RESNET_IDENTITY_BLOCK1_1__conv2/Conv2D_weights", "op": "Const", "attr": {"value": {"tensor": {"dtype": "DT_FLOAT", "tensorShape": {"dim": [{"size": "3"}, {"size": "3"}, {"size": "20"}, {"size": "20"}]}}}, "dtype": {"type": "DT_FLOAT"}}}, {"name": "StatefulPartitionedCall/functional_1/RESNET_IDENTITY_BLOCK1_1__conv2/Conv2D_bn_offset", "op": "Const", "attr": {"value": {"tensor": {"dtype": "DT_FLOAT", "tensorShape": {"dim": [{"size": "20"}]}}}, "dtype": {"type": "DT_FLOAT"}}}, {"name": "StatefulPartitionedCall/functional_1/CONV2D_BLOCK5_0_conv/Conv2D_bn_offset", "op": "Const", "attr": {"value": {"tensor": {"dtype": "DT_FLOAT", "tensorShape": {"dim": [{"size": "20"}]}}}, "dtype": {"type": "DT_FLOAT"}}}, {"name": "StatefulPartitionedCall/functional_1/RESNET_IDENTITY_BLOCK1_1__conv3/Conv2D_weights", "op": "Const", "attr": {"dtype": {"type": "DT_FLOAT"}, "value": {"tensor": {"dtype": "DT_FLOAT", "tensorShape": {"dim": [{"size": "1"}, {"size": "1"}, {"size": "20"}, {"size": "80"}]}}}}}, {"name": "StatefulPartitionedCall/functional_1/RESNET_IDENTITY_BLOCK1_1__conv3/Conv2D_bn_offset", "op": "Const", "attr": {"dtype": {"type": "DT_FLOAT"}, "value": {"tensor": {"dtype": "DT_FLOAT", "tensorShape": {"dim": [{"size": "80"}]}}}}}, {"name": "StatefulPartitionedCall/functional_1/RESNET_IDENTITY_BLOCK1_2__conv1/Conv2D_weights", "op": "Const", "attr": {"dtype": {"type": "DT_FLOAT"}, "value": {"tensor": {"dtype": "DT_FLOAT", "tensorShape": {"dim": [{"size": "1"}, {"size": "1"}, {"size": "80"}, {"size": "20"}]}}}}}, {"name": "StatefulPartitionedCall/functional_1/RESNET_IDENTITY_BLOCK1_2__conv1/Conv2D_bn_offset", "op": "Const", "attr": {"dtype": {"type": "DT_FLOAT"}, "value": {"tensor": {"dtype": "DT_FLOAT", "tensorShape": {"dim": [{"size": "20"}]}}}}}, {"name": "StatefulPartitionedCall/functional_1/RESNET_IDENTITY_BLOCK1_2__conv2/Conv2D_weights", "op": "Const", "attr": {"value": {"tensor": {"dtype": "DT_FLOAT", "tensorShape": {"dim": [{"size": "3"}, {"size": "3"}, {"size": "20"}, {"size": "20"}]}}}, "dtype": {"type": "DT_FLOAT"}}}, {"name": "StatefulPartitionedCall/functional_1/RESNET_IDENTITY_BLOCK1_2__conv2/Conv2D_bn_offset", "op": "Const", "attr": {"dtype": {"type": "DT_FLOAT"}, "value": {"tensor": {"dtype": "DT_FLOAT", "tensorShape": {"dim": [{"size": "20"}]}}}}}, {"name": "StatefulPartitionedCall/functional_1/RESNET_IDENTITY_BLOCK1_2__conv3/Conv2D_weights", "op": "Const", "attr": {"dtype": {"type": "DT_FLOAT"}, "value": {"tensor": {"dtype": "DT_FLOAT", "tensorShape": {"dim": [{"size": "1"}, {"size": "1"}, {"size": "20"}, {"size": "80"}]}}}}}, {"name": "StatefulPartitionedCall/functional_1/RESNET_IDENTITY_BLOCK1_2__conv3/Conv2D_bn_offset", "op": "Const", "attr": {"dtype": {"type": "DT_FLOAT"}, "value": {"tensor": {"dtype": "DT_FLOAT", "tensorShape": {"dim": [{"size": "80"}]}}}}}, {"name": "StatefulPartitionedCall/functional_1/RESNET_IDENTITY_BLOCK1_3__conv1/Conv2D_weights", "op": "Const", "attr": {"dtype": {"type": "DT_FLOAT"}, "value": {"tensor": {"dtype": "DT_FLOAT", "tensorShape": {"dim": [{"size": "1"}, {"size": "1"}, {"size": "80"}, {"size": "20"}]}}}}}, {"name": "StatefulPartitionedCall/functional_1/RESNET_IDENTITY_BLOCK1_3__conv1/Conv2D_bn_offset", "op": "Const", "attr": {"value": {"tensor": {"dtype": "DT_FLOAT", "tensorShape": {"dim": [{"size": "20"}]}}}, "dtype": {"type": "DT_FLOAT"}}}, {"name": "StatefulPartitionedCall/functional_1/RFE_BLOCK1_conv1_0/Conv2D_weights", "op": "Const", "attr": {"value": {"tensor": {"dtype": "DT_FLOAT", "tensorShape": {"dim": [{"size": "1"}, {"size": "1"}, {"size": "20"}, {"size": "5"}]}}}, "dtype": {"type": "DT_FLOAT"}}}, {"name": "StatefulPartitionedCall/functional_1/RESNET_IDENTITY_BLOCK1_3__conv2/Conv2D_weights", "op": "Const", "attr": {"dtype": {"type": "DT_FLOAT"}, "value": {"tensor": {"dtype": "DT_FLOAT", "tensorShape": {"dim": [{"size": "3"}, {"size": "3"}, {"size": "20"}, {"size": "20"}]}}}}}, {"name": "StatefulPartitionedCall/functional_1/RESNET_IDENTITY_BLOCK1_3__conv2/Conv2D_bn_offset", "op": "Const", "attr": {"value": {"tensor": {"dtype": "DT_FLOAT", "tensorShape": {"dim": [{"size": "20"}]}}}, "dtype": {"type": "DT_FLOAT"}}}, {"name": "StatefulPartitionedCall/functional_1/RFE_BLOCK1_conv1_0/Conv2D_bn_offset", "op": "Const", "attr": {"value": {"tensor": {"dtype": "DT_FLOAT", "tensorShape": {"dim": [{"size": "5"}]}}}, "dtype": {"type": "DT_FLOAT"}}}, {"name": "StatefulPartitionedCall/functional_1/RESNET_IDENTITY_BLOCK1_3__conv3/Conv2D_weights", "op": "Const", "attr": {"value": {"tensor": {"dtype": "DT_FLOAT", "tensorShape": {"dim": [{"size": "1"}, {"size": "1"}, {"size": "20"}, {"size": "80"}]}}}, "dtype": {"type": "DT_FLOAT"}}}, {"name": "StatefulPartitionedCall/functional_1/RESNET_IDENTITY_BLOCK1_3__conv3/Conv2D_bn_offset", "op": "Const", "attr": {"value": {"tensor": {"dtype": "DT_FLOAT", "tensorShape": {"dim": [{"size": "80"}]}}}, "dtype": {"type": "DT_FLOAT"}}}, {"name": "StatefulPartitionedCall/functional_1/RESNET_IDENTITY_BLOCK1_4__conv1/Conv2D_weights", "op": "Const", "attr": {"value": {"tensor": {"dtype": "DT_FLOAT", "tensorShape": {"dim": [{"size": "1"}, {"size": "1"}, {"size": "80"}, {"size": "20"}]}}}, "dtype": {"type": "DT_FLOAT"}}}, {"name": "StatefulPartitionedCall/functional_1/RESNET_IDENTITY_BLOCK1_4__conv1/Conv2D_bn_offset", "op": "Const", "attr": {"dtype": {"type": "DT_FLOAT"}, "value": {"tensor": {"dtype": "DT_FLOAT", "tensorShape": {"dim": [{"size": "20"}]}}}}}, {"name": "StatefulPartitionedCall/functional_1/RFE_BLOCK1_conv1_1/Conv2D_weights", "op": "Const", "attr": {"value": {"tensor": {"dtype": "DT_FLOAT", "tensorShape": {"dim": [{"size": "1"}, {"size": "1"}, {"size": "20"}, {"size": "5"}]}}}, "dtype": {"type": "DT_FLOAT"}}}, {"name": "StatefulPartitionedCall/functional_1/RESNET_IDENTITY_BLOCK1_4__conv2/Conv2D_weights", "op": "Const", "attr": {"value": {"tensor": {"dtype": "DT_FLOAT", "tensorShape": {"dim": [{"size": "3"}, {"size": "3"}, {"size": "20"}, {"size": "20"}]}}}, "dtype": {"type": "DT_FLOAT"}}}, {"name": "StatefulPartitionedCall/functional_1/RESNET_IDENTITY_BLOCK1_4__conv2/Conv2D_bn_offset", "op": "Const", "attr": {"dtype": {"type": "DT_FLOAT"}, "value": {"tensor": {"dtype": "DT_FLOAT", "tensorShape": {"dim": [{"size": "20"}]}}}}}, {"name": "StatefulPartitionedCall/functional_1/RFE_BLOCK1_conv1_1/Conv2D_bn_offset", "op": "Const", "attr": {"dtype": {"type": "DT_FLOAT"}, "value": {"tensor": {"dtype": "DT_FLOAT", "tensorShape": {"dim": [{"size": "5"}]}}}}}, {"name": "StatefulPartitionedCall/functional_1/RESNET_IDENTITY_BLOCK1_4__conv3/Conv2D_weights", "op": "Const", "attr": {"value": {"tensor": {"dtype": "DT_FLOAT", "tensorShape": {"dim": [{"size": "1"}, {"size": "1"}, {"size": "20"}, {"size": "80"}]}}}, "dtype": {"type": "DT_FLOAT"}}}, {"name": "StatefulPartitionedCall/functional_1/RFE_BLOCK2rfe_conv4/Conv2D_weights", "op": "Const", "attr": {"dtype": {"type": "DT_FLOAT"}, "value": {"tensor": {"dtype": "DT_FLOAT", "tensorShape": {"dim": [{"size": "1"}, {"size": "1"}, {"size": "20"}, {"size": "20"}]}}}}}, {"name": "StatefulPartitionedCall/functional_1/RESNET_IDENTITY_BLOCK1_4__conv3/Conv2D_bn_offset", "op": "Const", "attr": {"value": {"tensor": {"dtype": "DT_FLOAT", "tensorShape": {"dim": [{"size": "80"}]}}}, "dtype": {"type": "DT_FLOAT"}}}, {"name": "StatefulPartitionedCall/functional_1/RESNET_IDENTITY_BLOCK1_5__conv1/Conv2D_weights", "op": "Const", "attr": {"value": {"tensor": {"dtype": "DT_FLOAT", "tensorShape": {"dim": [{"size": "1"}, {"size": "1"}, {"size": "80"}, {"size": "20"}]}}}, "dtype": {"type": "DT_FLOAT"}}}, {"name": "StatefulPartitionedCall/functional_1/RESNET_IDENTITY_BLOCK1_5__conv1/Conv2D_bn_offset", "op": "Const", "attr": {"value": {"tensor": {"dtype": "DT_FLOAT", "tensorShape": {"dim": [{"size": "20"}]}}}, "dtype": {"type": "DT_FLOAT"}}}, {"name": "StatefulPartitionedCall/functional_1/RFE_BLOCK1_conv1_2/Conv2D_weights", "op": "Const", "attr": {"value": {"tensor": {"dtype": "DT_FLOAT", "tensorShape": {"dim": [{"size": "1"}, {"size": "1"}, {"size": "20"}, {"size": "5"}]}}}, "dtype": {"type": "DT_FLOAT"}}}, {"name": "StatefulPartitionedCall/functional_1/RESNET_IDENTITY_BLOCK1_5__conv2/Conv2D_weights", "op": "Const", "attr": {"value": {"tensor": {"dtype": "DT_FLOAT", "tensorShape": {"dim": [{"size": "3"}, {"size": "3"}, {"size": "20"}, {"size": "20"}]}}}, "dtype": {"type": "DT_FLOAT"}}}, {"name": "StatefulPartitionedCall/functional_1/RESNET_IDENTITY_BLOCK1_5__conv2/Conv2D_bn_offset", "op": "Const", "attr": {"value": {"tensor": {"dtype": "DT_FLOAT", "tensorShape": {"dim": [{"size": "20"}]}}}, "dtype": {"type": "DT_FLOAT"}}}, {"name": "StatefulPartitionedCall/functional_1/RFE_BLOCK1_conv1_2/Conv2D_bn_offset", "op": "Const", "attr": {"value": {"tensor": {"dtype": "DT_FLOAT", "tensorShape": {"dim": [{"size": "5"}]}}}, "dtype": {"type": "DT_FLOAT"}}}, {"name": "StatefulPartitionedCall/functional_1/RESNET_IDENTITY_BLOCK1_5__conv3/Conv2D_weights", "op": "Const", "attr": {"value": {"tensor": {"dtype": "DT_FLOAT", "tensorShape": {"dim": [{"size": "1"}, {"size": "1"}, {"size": "20"}, {"size": "80"}]}}}, "dtype": {"type": "DT_FLOAT"}}}, {"name": "StatefulPartitionedCall/functional_1/RFE_BLOCK2rfe_conv4/Conv2D_bn_offset", "op": "Const", "attr": {"dtype": {"type": "DT_FLOAT"}, "value": {"tensor": {"dtype": "DT_FLOAT", "tensorShape": {"dim": [{"size": "20"}]}}}}}, {"name": "StatefulPartitionedCall/functional_1/RESNET_IDENTITY_BLOCK1_5__conv3/Conv2D_bn_offset", "op": "Const", "attr": {"value": {"tensor": {"dtype": "DT_FLOAT", "tensorShape": {"dim": [{"size": "80"}]}}}, "dtype": {"type": "DT_FLOAT"}}}, {"name": "StatefulPartitionedCall/functional_1/RESNET_IDENTITY_BLOCK1_6__conv1/Conv2D_weights", "op": "Const", "attr": {"value": {"tensor": {"dtype": "DT_FLOAT", "tensorShape": {"dim": [{"size": "1"}, {"size": "1"}, {"size": "80"}, {"size": "20"}]}}}, "dtype": {"type": "DT_FLOAT"}}}, {"name": "StatefulPartitionedCall/functional_1/RESNET_IDENTITY_BLOCK1_6__conv1/Conv2D_bn_offset", "op": "Const", "attr": {"value": {"tensor": {"dtype": "DT_FLOAT", "tensorShape": {"dim": [{"size": "20"}]}}}, "dtype": {"type": "DT_FLOAT"}}}, {"name": "StatefulPartitionedCall/functional_1/RFE_BLOCK1_conv1_3/Conv2D_weights", "op": "Const", "attr": {"dtype": {"type": "DT_FLOAT"}, "value": {"tensor": {"dtype": "DT_FLOAT", "tensorShape": {"dim": [{"size": "1"}, {"size": "1"}, {"size": "20"}, {"size": "5"}]}}}}}, {"name": "StatefulPartitionedCall/functional_1/RESNET_IDENTITY_BLOCK1_6__conv2/Conv2D_weights", "op": "Const", "attr": {"dtype": {"type": "DT_FLOAT"}, "value": {"tensor": {"dtype": "DT_FLOAT", "tensorShape": {"dim": [{"size": "3"}, {"size": "3"}, {"size": "20"}, {"size": "20"}]}}}}}, {"name": "StatefulPartitionedCall/functional_1/RESNET_IDENTITY_BLOCK1_6__conv2/Conv2D_bn_offset", "op": "Const", "attr": {"value": {"tensor": {"dtype": "DT_FLOAT", "tensorShape": {"dim": [{"size": "20"}]}}}, "dtype": {"type": "DT_FLOAT"}}}, {"name": "StatefulPartitionedCall/functional_1/RFE_BLOCK1_conv1_3/Conv2D_bn_offset", "op": "Const", "attr": {"value": {"tensor": {"dtype": "DT_FLOAT", "tensorShape": {"dim": [{"size": "5"}]}}}, "dtype": {"type": "DT_FLOAT"}}}, {"name": "StatefulPartitionedCall/functional_1/RESNET_IDENTITY_BLOCK1_6__conv3/Conv2D_weights", "op": "Const", "attr": {"dtype": {"type": "DT_FLOAT"}, "value": {"tensor": {"dtype": "DT_FLOAT", "tensorShape": {"dim": [{"size": "1"}, {"size": "1"}, {"size": "20"}, {"size": "80"}]}}}}}, {"name": "StatefulPartitionedCall/functional_1/RESNET_IDENTITY_BLOCK1_6__conv3/Conv2D_bn_offset", "op": "Const", "attr": {"dtype": {"type": "DT_FLOAT"}, "value": {"tensor": {"dtype": "DT_FLOAT", "tensorShape": {"dim": [{"size": "80"}]}}}}}, {"name": "StatefulPartitionedCall/functional_1/CONV2D_BLOCK1_0_conv/Conv2D_weights", "op": "Const", "attr": {"dtype": {"type": "DT_FLOAT"}, "value": {"tensor": {"dtype": "DT_FLOAT", "tensorShape": {"dim": [{"size": "3"}, {"size": "3"}, {"size": "80"}, {"size": "20"}]}}}}}, {"name": "StatefulPartitionedCall/functional_1/CONV2D_BLOCK1_0_conv/Conv2D_bn_offset", "op": "Const", "attr": {"dtype": {"type": "DT_FLOAT"}, "value": {"tensor": {"dtype": "DT_FLOAT", "tensorShape": {"dim": [{"size": "20"}]}}}}}, {"name": "StatefulPartitionedCall/functional_1/RFE_BLOCK1_conv2_0/Conv2D_weights", "op": "Const", "attr": {"value": {"tensor": {"dtype": "DT_FLOAT", "tensorShape": {"dim": [{"size": "1"}, {"size": "3"}, {"size": "5"}, {"size": "5"}]}}}, "dtype": {"type": "DT_FLOAT"}}}, {"name": "StatefulPartitionedCall/functional_1/RESNET_SIDENTITY_BLOCK2_conv1/Conv2D_weights", "op": "Const", "attr": {"value": {"tensor": {"dtype": "DT_FLOAT", "tensorShape": {"dim": [{"size": "1"}, {"size": "1"}, {"size": "80"}, {"size": "40"}]}}}, "dtype": {"type": "DT_FLOAT"}}}, {"name": "StatefulPartitionedCall/functional_1/RESNET_SIDENTITY_BLOCK2_conv1/Conv2D_bn_offset", "op": "Const", "attr": {"value": {"tensor": {"dtype": "DT_FLOAT", "tensorShape": {"dim": [{"size": "40"}]}}}, "dtype": {"type": "DT_FLOAT"}}}, {"name": "StatefulPartitionedCall/functional_1/RFE_BLOCK1_conv2_0/Conv2D_bn_offset", "op": "Const", "attr": {"dtype": {"type": "DT_FLOAT"}, "value": {"tensor": {"dtype": "DT_FLOAT", "tensorShape": {"dim": [{"size": "5"}]}}}}}, {"name": "StatefulPartitionedCall/functional_1/RESNET_SIDENTITY_BLOCK2_conv4/Conv2D_weights", "op": "Const", "attr": {"dtype": {"type": "DT_FLOAT"}, "value": {"tensor": {"dtype": "DT_FLOAT", "tensorShape": {"dim": [{"size": "1"}, {"size": "1"}, {"size": "80"}, {"size": "160"}]}}}}}, {"name": "StatefulPartitionedCall/functional_1/RESNET_SIDENTITY_BLOCK2_conv4/Conv2D_bn_offset", "op": "Const", "attr": {"value": {"tensor": {"dtype": "DT_FLOAT", "tensorShape": {"dim": [{"size": "160"}]}}}, "dtype": {"type": "DT_FLOAT"}}}, {"name": "StatefulPartitionedCall/functional_1/RESNET_SIDENTITY_BLOCK2_conv2/Conv2D_weights", "op": "Const", "attr": {"value": {"tensor": {"dtype": "DT_FLOAT", "tensorShape": {"dim": [{"size": "3"}, {"size": "3"}, {"size": "40"}, {"size": "40"}]}}}, "dtype": {"type": "DT_FLOAT"}}}, {"name": "StatefulPartitionedCall/functional_1/RESNET_SIDENTITY_BLOCK2_conv2/Conv2D_bn_offset", "op": "Const", "attr": {"dtype": {"type": "DT_FLOAT"}, "value": {"tensor": {"dtype": "DT_FLOAT", "tensorShape": {"dim": [{"size": "40"}]}}}}}, {"name": "StatefulPartitionedCall/functional_1/RFE_BLOCK1_conv2_1/Conv2D_weights", "op": "Const", "attr": {"value": {"tensor": {"dtype": "DT_FLOAT", "tensorShape": {"dim": [{"size": "1"}, {"size": "5"}, {"size": "5"}, {"size": "5"}]}}}, "dtype": {"type": "DT_FLOAT"}}}, {"name": "StatefulPartitionedCall/functional_1/RESNET_SIDENTITY_BLOCK2_conv3/Conv2D_weights", "op": "Const", "attr": {"dtype": {"type": "DT_FLOAT"}, "value": {"tensor": {"dtype": "DT_FLOAT", "tensorShape": {"dim": [{"size": "1"}, {"size": "1"}, {"size": "40"}, {"size": "160"}]}}}}}, {"name": "StatefulPartitionedCall/functional_1/RESNET_SIDENTITY_BLOCK2_conv3/Conv2D_bn_offset", "op": "Const", "attr": {"value": {"tensor": {"dtype": "DT_FLOAT", "tensorShape": {"dim": [{"size": "160"}]}}}, "dtype": {"type": "DT_FLOAT"}}}, {"name": "StatefulPartitionedCall/functional_1/rfe_conv1_0/Conv2D_weights", "op": "Const", "attr": {"value": {"tensor": {"dtype": "DT_FLOAT", "tensorShape": {"dim": [{"size": "1"}, {"size": "1"}, {"size": "20"}, {"size": "5"}]}}}, "dtype": {"type": "DT_FLOAT"}}}, {"name": "StatefulPartitionedCall/functional_1/RFE_BLOCK1_conv2_1/Conv2D_bn_offset", "op": "Const", "attr": {"dtype": {"type": "DT_FLOAT"}, "value": {"tensor": {"dtype": "DT_FLOAT", "tensorShape": {"dim": [{"size": "5"}]}}}}}, {"name": "StatefulPartitionedCall/functional_1/rfe_conv1_0/Conv2D_bn_offset", "op": "Const", "attr": {"value": {"tensor": {"dtype": "DT_FLOAT", "tensorShape": {"dim": [{"size": "5"}]}}}, "dtype": {"type": "DT_FLOAT"}}}, {"name": "StatefulPartitionedCall/functional_1/rfe_conv1_1/Conv2D_weights", "op": "Const", "attr": {"dtype": {"type": "DT_FLOAT"}, "value": {"tensor": {"dtype": "DT_FLOAT", "tensorShape": {"dim": [{"size": "1"}, {"size": "1"}, {"size": "20"}, {"size": "5"}]}}}}}, {"name": "StatefulPartitionedCall/functional_1/rfe_conv1_1/Conv2D_bn_offset", "op": "Const", "attr": {"dtype": {"type": "DT_FLOAT"}, "value": {"tensor": {"dtype": "DT_FLOAT", "tensorShape": {"dim": [{"size": "5"}]}}}}}, {"name": "StatefulPartitionedCall/functional_1/RFE_BLOCK1_conv2_2/Conv2D_weights", "op": "Const", "attr": {"dtype": {"type": "DT_FLOAT"}, "value": {"tensor": {"dtype": "DT_FLOAT", "tensorShape": {"dim": [{"size": "3"}, {"size": "1"}, {"size": "5"}, {"size": "5"}]}}}}}, {"name": "StatefulPartitionedCall/functional_1/rfe_conv1_2/Conv2D_weights", "op": "Const", "attr": {"dtype": {"type": "DT_FLOAT"}, "value": {"tensor": {"dtype": "DT_FLOAT", "tensorShape": {"dim": [{"size": "1"}, {"size": "1"}, {"size": "20"}, {"size": "5"}]}}}}}, {"name": "StatefulPartitionedCall/functional_1/rfe_conv1_2/Conv2D_bn_offset", "op": "Const", "attr": {"dtype": {"type": "DT_FLOAT"}, "value": {"tensor": {"dtype": "DT_FLOAT", "tensorShape": {"dim": [{"size": "5"}]}}}}}, {"name": "StatefulPartitionedCall/functional_1/RFE_BLOCK1_conv2_2/Conv2D_bn_offset", "op": "Const", "attr": {"dtype": {"type": "DT_FLOAT"}, "value": {"tensor": {"dtype": "DT_FLOAT", "tensorShape": {"dim": [{"size": "5"}]}}}}}, {"name": "StatefulPartitionedCall/functional_1/rfe_conv1_3/Conv2D_weights", "op": "Const", "attr": {"value": {"tensor": {"dtype": "DT_FLOAT", "tensorShape": {"dim": [{"size": "1"}, {"size": "1"}, {"size": "20"}, {"size": "5"}]}}}, "dtype": {"type": "DT_FLOAT"}}}, {"name": "StatefulPartitionedCall/functional_1/rfe_conv1_3/Conv2D_bn_offset", "op": "Const", "attr": {"dtype": {"type": "DT_FLOAT"}, "value": {"tensor": {"dtype": "DT_FLOAT", "tensorShape": {"dim": [{"size": "5"}]}}}}}, {"name": "StatefulPartitionedCall/functional_1/rfe_conv2_0/Conv2D_weights", "op": "Const", "attr": {"dtype": {"type": "DT_FLOAT"}, "value": {"tensor": {"dtype": "DT_FLOAT", "tensorShape": {"dim": [{"size": "1"}, {"size": "3"}, {"size": "5"}, {"size": "5"}]}}}}}, {"name": "StatefulPartitionedCall/functional_1/RFE_BLOCK1_conv2_3/Conv2D_weights", "op": "Const", "attr": {"dtype": {"type": "DT_FLOAT"}, "value": {"tensor": {"dtype": "DT_FLOAT", "tensorShape": {"dim": [{"size": "5"}, {"size": "1"}, {"size": "5"}, {"size": "5"}]}}}}}, {"name": "StatefulPartitionedCall/functional_1/rfe_conv2_0/Conv2D_bn_offset", "op": "Const", "attr": {"dtype": {"type": "DT_FLOAT"}, "value": {"tensor": {"dtype": "DT_FLOAT", "tensorShape": {"dim": [{"size": "5"}]}}}}}, {"name": "StatefulPartitionedCall/functional_1/rfe_conv2_1/Conv2D_weights", "op": "Const", "attr": {"dtype": {"type": "DT_FLOAT"}, "value": {"tensor": {"dtype": "DT_FLOAT", "tensorShape": {"dim": [{"size": "1"}, {"size": "5"}, {"size": "5"}, {"size": "5"}]}}}}}, {"name": "StatefulPartitionedCall/functional_1/RFE_BLOCK1_conv2_3/Conv2D_bn_offset", "op": "Const", "attr": {"dtype": {"type": "DT_FLOAT"}, "value": {"tensor": {"dtype": "DT_FLOAT", "tensorShape": {"dim": [{"size": "5"}]}}}}}, {"name": "StatefulPartitionedCall/functional_1/rfe_conv2_1/Conv2D_bn_offset", "op": "Const", "attr": {"value": {"tensor": {"dtype": "DT_FLOAT", "tensorShape": {"dim": [{"size": "5"}]}}}, "dtype": {"type": "DT_FLOAT"}}}, {"name": "StatefulPartitionedCall/functional_1/rfe_conv2_2/Conv2D_weights", "op": "Const", "attr": {"dtype": {"type": "DT_FLOAT"}, "value": {"tensor": {"dtype": "DT_FLOAT", "tensorShape": {"dim": [{"size": "3"}, {"size": "1"}, {"size": "5"}, {"size": "5"}]}}}}}, {"name": "StatefulPartitionedCall/functional_1/rfe_conv2_2/Conv2D_bn_offset", "op": "Const", "attr": {"value": {"tensor": {"dtype": "DT_FLOAT", "tensorShape": {"dim": [{"size": "5"}]}}}, "dtype": {"type": "DT_FLOAT"}}}, {"name": "StatefulPartitionedCall/functional_1/RFE_BLOCK2_conv1_0/Conv2D_weights", "op": "Const", "attr": {"value": {"tensor": {"dtype": "DT_FLOAT", "tensorShape": {"dim": [{"size": "1"}, {"size": "1"}, {"size": "20"}, {"size": "5"}]}}}, "dtype": {"type": "DT_FLOAT"}}}, {"name": "StatefulPartitionedCall/functional_1/rfe_conv2_3/Conv2D_weights", "op": "Const", "attr": {"value": {"tensor": {"dtype": "DT_FLOAT", "tensorShape": {"dim": [{"size": "5"}, {"size": "1"}, {"size": "5"}, {"size": "5"}]}}}, "dtype": {"type": "DT_FLOAT"}}}, {"name": "StatefulPartitionedCall/functional_1/rfe_conv2_3/Conv2D_bn_offset", "op": "Const", "attr": {"value": {"tensor": {"dtype": "DT_FLOAT", "tensorShape": {"dim": [{"size": "5"}]}}}, "dtype": {"type": "DT_FLOAT"}}}, {"name": "StatefulPartitionedCall/functional_1/RFE_BLOCK2_conv1_0/Conv2D_bn_offset", "op": "Const", "attr": {"value": {"tensor": {"dtype": "DT_FLOAT", "tensorShape": {"dim": [{"size": "5"}]}}}, "dtype": {"type": "DT_FLOAT"}}}, {"name": "StatefulPartitionedCall/functional_1/RESNET_IDENTITY_BLOCK2_0__conv1/Conv2D_weights", "op": "Const", "attr": {"value": {"tensor": {"dtype": "DT_FLOAT", "tensorShape": {"dim": [{"size": "1"}, {"size": "1"}, {"size": "160"}, {"size": "40"}]}}}, "dtype": {"type": "DT_FLOAT"}}}, {"name": "StatefulPartitionedCall/functional_1/RESNET_IDENTITY_BLOCK2_0__conv1/Conv2D_bn_offset", "op": "Const", "attr": {"value": {"tensor": {"dtype": "DT_FLOAT", "tensorShape": {"dim": [{"size": "40"}]}}}, "dtype": {"type": "DT_FLOAT"}}}, {"name": "StatefulPartitionedCall/functional_1/rfe_conv3_0/Conv2D_weights", "op": "Const", "attr": {"value": {"tensor": {"dtype": "DT_FLOAT", "tensorShape": {"dim": [{"size": "1"}, {"size": "1"}, {"size": "5"}, {"size": "5"}]}}}, "dtype": {"type": "DT_FLOAT"}}}, {"name": "StatefulPartitionedCall/functional_1/RFE_BLOCK2_conv1_1/Conv2D_weights", "op": "Const", "attr": {"dtype": {"type": "DT_FLOAT"}, "value": {"tensor": {"dtype": "DT_FLOAT", "tensorShape": {"dim": [{"size": "1"}, {"size": "1"}, {"size": "20"}, {"size": "5"}]}}}}}, {"name": "StatefulPartitionedCall/functional_1/rfe_conv3_0/Conv2D_bn_offset", "op": "Const", "attr": {"dtype": {"type": "DT_FLOAT"}, "value": {"tensor": {"dtype": "DT_FLOAT", "tensorShape": {"dim": [{"size": "5"}]}}}}}, {"name": "StatefulPartitionedCall/functional_1/rfe_conv3_1/Conv2D_weights", "op": "Const", "attr": {"value": {"tensor": {"dtype": "DT_FLOAT", "tensorShape": {"dim": [{"size": "1"}, {"size": "1"}, {"size": "5"}, {"size": "5"}]}}}, "dtype": {"type": "DT_FLOAT"}}}, {"name": "StatefulPartitionedCall/functional_1/RFE_BLOCK2_conv1_1/Conv2D_bn_offset", "op": "Const", "attr": {"value": {"tensor": {"dtype": "DT_FLOAT", "tensorShape": {"dim": [{"size": "5"}]}}}, "dtype": {"type": "DT_FLOAT"}}}, {"name": "StatefulPartitionedCall/functional_1/rfe_conv3_1/Conv2D_bn_offset", "op": "Const", "attr": {"value": {"tensor": {"dtype": "DT_FLOAT", "tensorShape": {"dim": [{"size": "5"}]}}}, "dtype": {"type": "DT_FLOAT"}}}, {"name": "StatefulPartitionedCall/functional_1/rfe_conv3_2/Conv2D_weights", "op": "Const", "attr": {"value": {"tensor": {"dtype": "DT_FLOAT", "tensorShape": {"dim": [{"size": "1"}, {"size": "1"}, {"size": "5"}, {"size": "5"}]}}}, "dtype": {"type": "DT_FLOAT"}}}, {"name": "StatefulPartitionedCall/functional_1/rfe_conv3_2/Conv2D_bn_offset", "op": "Const", "attr": {"dtype": {"type": "DT_FLOAT"}, "value": {"tensor": {"dtype": "DT_FLOAT", "tensorShape": {"dim": [{"size": "5"}]}}}}}, {"name": "StatefulPartitionedCall/functional_1/RFE_BLOCK2_conv1_2/Conv2D_weights", "op": "Const", "attr": {"dtype": {"type": "DT_FLOAT"}, "value": {"tensor": {"dtype": "DT_FLOAT", "tensorShape": {"dim": [{"size": "1"}, {"size": "1"}, {"size": "20"}, {"size": "5"}]}}}}}, {"name": "StatefulPartitionedCall/functional_1/rfe_conv3_3/Conv2D_weights", "op": "Const", "attr": {"value": {"tensor": {"dtype": "DT_FLOAT", "tensorShape": {"dim": [{"size": "1"}, {"size": "1"}, {"size": "5"}, {"size": "5"}]}}}, "dtype": {"type": "DT_FLOAT"}}}, {"name": "StatefulPartitionedCall/functional_1/rfe_conv3_3/Conv2D_bn_offset", "op": "Const", "attr": {"dtype": {"type": "DT_FLOAT"}, "value": {"tensor": {"dtype": "DT_FLOAT", "tensorShape": {"dim": [{"size": "5"}]}}}}}, {"name": "StatefulPartitionedCall/functional_1/RFE_BLOCK2_conv1_2/Conv2D_bn_offset", "op": "Const", "attr": {"value": {"tensor": {"dtype": "DT_FLOAT", "tensorShape": {"dim": [{"size": "5"}]}}}, "dtype": {"type": "DT_FLOAT"}}}, {"name": "StatefulPartitionedCall/functional_1/RESNET_IDENTITY_BLOCK2_0__conv2/Conv2D_weights", "op": "Const", "attr": {"dtype": {"type": "DT_FLOAT"}, "value": {"tensor": {"dtype": "DT_FLOAT", "tensorShape": {"dim": [{"size": "3"}, {"size": "3"}, {"size": "40"}, {"size": "40"}]}}}}}, {"name": "StatefulPartitionedCall/functional_1/RESNET_IDENTITY_BLOCK2_0__conv2/Conv2D_bn_offset", "op": "Const", "attr": {"value": {"tensor": {"dtype": "DT_FLOAT", "tensorShape": {"dim": [{"size": "40"}]}}}, "dtype": {"type": "DT_FLOAT"}}}, {"name": "StatefulPartitionedCall/functional_1/RESNET_IDENTITY_BLOCK2_0__conv3/Conv2D_weights", "op": "Const", "attr": {"dtype": {"type": "DT_FLOAT"}, "value": {"tensor": {"dtype": "DT_FLOAT", "tensorShape": {"dim": [{"size": "1"}, {"size": "1"}, {"size": "40"}, {"size": "160"}]}}}}}, {"name": "StatefulPartitionedCall/functional_1/RFE_BLOCK2_conv1_3/Conv2D_weights", "op": "Const", "attr": {"value": {"tensor": {"dtype": "DT_FLOAT", "tensorShape": {"dim": [{"size": "1"}, {"size": "1"}, {"size": "20"}, {"size": "5"}]}}}, "dtype": {"type": "DT_FLOAT"}}}, {"name": "StatefulPartitionedCall/functional_1/RESNET_IDENTITY_BLOCK2_0__conv3/Conv2D_bn_offset", "op": "Const", "attr": {"value": {"tensor": {"dtype": "DT_FLOAT", "tensorShape": {"dim": [{"size": "160"}]}}}, "dtype": {"type": "DT_FLOAT"}}}, {"name": "StatefulPartitionedCall/functional_1/rferfe_conv4/Conv2D_weights", "op": "Const", "attr": {"value": {"tensor": {"dtype": "DT_FLOAT", "tensorShape": {"dim": [{"size": "1"}, {"size": "1"}, {"size": "20"}, {"size": "20"}]}}}, "dtype": {"type": "DT_FLOAT"}}}, {"name": "StatefulPartitionedCall/functional_1/rferfe_conv4/Conv2D_bn_offset", "op": "Const", "attr": {"value": {"tensor": {"dtype": "DT_FLOAT", "tensorShape": {"dim": [{"size": "20"}]}}}, "dtype": {"type": "DT_FLOAT"}}}, {"name": "StatefulPartitionedCall/functional_1/RFE_BLOCK2_conv1_3/Conv2D_bn_offset", "op": "Const", "attr": {"dtype": {"type": "DT_FLOAT"}, "value": {"tensor": {"dtype": "DT_FLOAT", "tensorShape": {"dim": [{"size": "5"}]}}}}}, {"name": "StatefulPartitionedCall/functional_1/RESNET_IDENTITY_BLOCK2_1__conv1/Conv2D_weights", "op": "Const", "attr": {"value": {"tensor": {"dtype": "DT_FLOAT", "tensorShape": {"dim": [{"size": "1"}, {"size": "1"}, {"size": "160"}, {"size": "40"}]}}}, "dtype": {"type": "DT_FLOAT"}}}, {"name": "StatefulPartitionedCall/functional_1/RESNET_IDENTITY_BLOCK2_1__conv1/Conv2D_bn_offset", "op": "Const", "attr": {"value": {"tensor": {"dtype": "DT_FLOAT", "tensorShape": {"dim": [{"size": "40"}]}}}, "dtype": {"type": "DT_FLOAT"}}}, {"name": "StatefulPartitionedCall/functional_1/RFE_BLOCK1_conv3_0/Conv2D_weights", "op": "Const", "attr": {"value": {"tensor": {"dtype": "DT_FLOAT", "tensorShape": {"dim": [{"size": "1"}, {"size": "1"}, {"size": "5"}, {"size": "5"}]}}}, "dtype": {"type": "DT_FLOAT"}}}, {"name": "StatefulPartitionedCall/functional_1/RESNET_IDENTITY_BLOCK2_1__conv2/Conv2D_weights", "op": "Const", "attr": {"dtype": {"type": "DT_FLOAT"}, "value": {"tensor": {"dtype": "DT_FLOAT", "tensorShape": {"dim": [{"size": "3"}, {"size": "3"}, {"size": "40"}, {"size": "40"}]}}}}}, {"name": "StatefulPartitionedCall/functional_1/RESNET_IDENTITY_BLOCK2_1__conv2/Conv2D_bn_offset", "op": "Const", "attr": {"value": {"tensor": {"dtype": "DT_FLOAT", "tensorShape": {"dim": [{"size": "40"}]}}}, "dtype": {"type": "DT_FLOAT"}}}, {"name": "StatefulPartitionedCall/functional_1/RFE_BLOCK1_conv3_0/Conv2D_bn_offset", "op": "Const", "attr": {"value": {"tensor": {"dtype": "DT_FLOAT", "tensorShape": {"dim": [{"size": "5"}]}}}, "dtype": {"type": "DT_FLOAT"}}}, {"name": "StatefulPartitionedCall/functional_1/RESNET_IDENTITY_BLOCK2_1__conv3/Conv2D_weights", "op": "Const", "attr": {"value": {"tensor": {"dtype": "DT_FLOAT", "tensorShape": {"dim": [{"size": "1"}, {"size": "1"}, {"size": "40"}, {"size": "160"}]}}}, "dtype": {"type": "DT_FLOAT"}}}, {"name": "StatefulPartitionedCall/functional_1/RESNET_IDENTITY_BLOCK2_1__conv3/Conv2D_bn_offset", "op": "Const", "attr": {"dtype": {"type": "DT_FLOAT"}, "value": {"tensor": {"dtype": "DT_FLOAT", "tensorShape": {"dim": [{"size": "160"}]}}}}}, {"name": "StatefulPartitionedCall/functional_1/RESNET_IDENTITY_BLOCK2_2__conv1/Conv2D_weights", "op": "Const", "attr": {"dtype": {"type": "DT_FLOAT"}, "value": {"tensor": {"dtype": "DT_FLOAT", "tensorShape": {"dim": [{"size": "1"}, {"size": "1"}, {"size": "160"}, {"size": "40"}]}}}}}, {"name": "StatefulPartitionedCall/functional_1/RESNET_IDENTITY_BLOCK2_2__conv1/Conv2D_bn_offset", "op": "Const", "attr": {"dtype": {"type": "DT_FLOAT"}, "value": {"tensor": {"dtype": "DT_FLOAT", "tensorShape": {"dim": [{"size": "40"}]}}}}}, {"name": "StatefulPartitionedCall/functional_1/RFE_BLOCK1_conv3_1/Conv2D_weights", "op": "Const", "attr": {"dtype": {"type": "DT_FLOAT"}, "value": {"tensor": {"dtype": "DT_FLOAT", "tensorShape": {"dim": [{"size": "1"}, {"size": "1"}, {"size": "5"}, {"size": "5"}]}}}}}, {"name": "StatefulPartitionedCall/functional_1/RESNET_IDENTITY_BLOCK2_2__conv2/Conv2D_weights", "op": "Const", "attr": {"value": {"tensor": {"dtype": "DT_FLOAT", "tensorShape": {"dim": [{"size": "3"}, {"size": "3"}, {"size": "40"}, {"size": "40"}]}}}, "dtype": {"type": "DT_FLOAT"}}}, {"name": "StatefulPartitionedCall/functional_1/RESNET_IDENTITY_BLOCK2_2__conv2/Conv2D_bn_offset", "op": "Const", "attr": {"dtype": {"type": "DT_FLOAT"}, "value": {"tensor": {"dtype": "DT_FLOAT", "tensorShape": {"dim": [{"size": "40"}]}}}}}, {"name": "StatefulPartitionedCall/functional_1/RFE_BLOCK1_conv3_1/Conv2D_bn_offset", "op": "Const", "attr": {"value": {"tensor": {"dtype": "DT_FLOAT", "tensorShape": {"dim": [{"size": "5"}]}}}, "dtype": {"type": "DT_FLOAT"}}}, {"name": "StatefulPartitionedCall/functional_1/RESNET_IDENTITY_BLOCK2_2__conv3/Conv2D_weights", "op": "Const", "attr": {"value": {"tensor": {"dtype": "DT_FLOAT", "tensorShape": {"dim": [{"size": "1"}, {"size": "1"}, {"size": "40"}, {"size": "160"}]}}}, "dtype": {"type": "DT_FLOAT"}}}, {"name": "StatefulPartitionedCall/functional_1/RESNET_IDENTITY_BLOCK2_2__conv3/Conv2D_bn_offset", "op": "Const", "attr": {"value": {"tensor": {"dtype": "DT_FLOAT", "tensorShape": {"dim": [{"size": "160"}]}}}, "dtype": {"type": "DT_FLOAT"}}}, {"name": "StatefulPartitionedCall/functional_1/RESNET_IDENTITY_BLOCK2_3__conv1/Conv2D_weights", "op": "Const", "attr": {"dtype": {"type": "DT_FLOAT"}, "value": {"tensor": {"dtype": "DT_FLOAT", "tensorShape": {"dim": [{"size": "1"}, {"size": "1"}, {"size": "160"}, {"size": "40"}]}}}}}, {"name": "StatefulPartitionedCall/functional_1/RESNET_IDENTITY_BLOCK2_3__conv1/Conv2D_bn_offset", "op": "Const", "attr": {"dtype": {"type": "DT_FLOAT"}, "value": {"tensor": {"dtype": "DT_FLOAT", "tensorShape": {"dim": [{"size": "40"}]}}}}}, {"name": "StatefulPartitionedCall/functional_1/RFE_BLOCK1_conv3_2/Conv2D_weights", "op": "Const", "attr": {"dtype": {"type": "DT_FLOAT"}, "value": {"tensor": {"dtype": "DT_FLOAT", "tensorShape": {"dim": [{"size": "1"}, {"size": "1"}, {"size": "5"}, {"size": "5"}]}}}}}, {"name": "StatefulPartitionedCall/functional_1/RESNET_IDENTITY_BLOCK2_3__conv2/Conv2D_weights", "op": "Const", "attr": {"value": {"tensor": {"dtype": "DT_FLOAT", "tensorShape": {"dim": [{"size": "3"}, {"size": "3"}, {"size": "40"}, {"size": "40"}]}}}, "dtype": {"type": "DT_FLOAT"}}}, {"name": "StatefulPartitionedCall/functional_1/RESNET_IDENTITY_BLOCK2_3__conv2/Conv2D_bn_offset", "op": "Const", "attr": {"value": {"tensor": {"dtype": "DT_FLOAT", "tensorShape": {"dim": [{"size": "40"}]}}}, "dtype": {"type": "DT_FLOAT"}}}, {"name": "StatefulPartitionedCall/functional_1/RFE_BLOCK1_conv3_2/Conv2D_bn_offset", "op": "Const", "attr": {"dtype": {"type": "DT_FLOAT"}, "value": {"tensor": {"dtype": "DT_FLOAT", "tensorShape": {"dim": [{"size": "5"}]}}}}}, {"name": "StatefulPartitionedCall/functional_1/RESNET_IDENTITY_BLOCK2_3__conv3/Conv2D_weights", "op": "Const", "attr": {"dtype": {"type": "DT_FLOAT"}, "value": {"tensor": {"dtype": "DT_FLOAT", "tensorShape": {"dim": [{"size": "1"}, {"size": "1"}, {"size": "40"}, {"size": "160"}]}}}}}, {"name": "StatefulPartitionedCall/functional_1/RESNET_IDENTITY_BLOCK2_3__conv3/Conv2D_bn_offset", "op": "Const", "attr": {"value": {"tensor": {"dtype": "DT_FLOAT", "tensorShape": {"dim": [{"size": "160"}]}}}, "dtype": {"type": "DT_FLOAT"}}}, {"name": "StatefulPartitionedCall/functional_1/RESNET_IDENTITY_BLOCK2_4__conv1/Conv2D_weights", "op": "Const", "attr": {"dtype": {"type": "DT_FLOAT"}, "value": {"tensor": {"dtype": "DT_FLOAT", "tensorShape": {"dim": [{"size": "1"}, {"size": "1"}, {"size": "160"}, {"size": "40"}]}}}}}, {"name": "StatefulPartitionedCall/functional_1/RESNET_IDENTITY_BLOCK2_4__conv1/Conv2D_bn_offset", "op": "Const", "attr": {"dtype": {"type": "DT_FLOAT"}, "value": {"tensor": {"dtype": "DT_FLOAT", "tensorShape": {"dim": [{"size": "40"}]}}}}}, {"name": "StatefulPartitionedCall/functional_1/RFE_BLOCK1_conv3_3/Conv2D_weights", "op": "Const", "attr": {"value": {"tensor": {"dtype": "DT_FLOAT", "tensorShape": {"dim": [{"size": "1"}, {"size": "1"}, {"size": "5"}, {"size": "5"}]}}}, "dtype": {"type": "DT_FLOAT"}}}, {"name": "StatefulPartitionedCall/functional_1/RESNET_IDENTITY_BLOCK2_4__conv2/Conv2D_weights", "op": "Const", "attr": {"value": {"tensor": {"dtype": "DT_FLOAT", "tensorShape": {"dim": [{"size": "3"}, {"size": "3"}, {"size": "40"}, {"size": "40"}]}}}, "dtype": {"type": "DT_FLOAT"}}}, {"name": "StatefulPartitionedCall/functional_1/RESNET_IDENTITY_BLOCK2_4__conv2/Conv2D_bn_offset", "op": "Const", "attr": {"dtype": {"type": "DT_FLOAT"}, "value": {"tensor": {"dtype": "DT_FLOAT", "tensorShape": {"dim": [{"size": "40"}]}}}}}, {"name": "StatefulPartitionedCall/functional_1/RFE_BLOCK1_conv3_3/Conv2D_bn_offset", "op": "Const", "attr": {"value": {"tensor": {"dtype": "DT_FLOAT", "tensorShape": {"dim": [{"size": "5"}]}}}, "dtype": {"type": "DT_FLOAT"}}}, {"name": "StatefulPartitionedCall/functional_1/RESNET_IDENTITY_BLOCK2_4__conv3/Conv2D_weights", "op": "Const", "attr": {"dtype": {"type": "DT_FLOAT"}, "value": {"tensor": {"dtype": "DT_FLOAT", "tensorShape": {"dim": [{"size": "1"}, {"size": "1"}, {"size": "40"}, {"size": "160"}]}}}}}, {"name": "StatefulPartitionedCall/functional_1/RESNET_IDENTITY_BLOCK2_4__conv3/Conv2D_bn_offset", "op": "Const", "attr": {"dtype": {"type": "DT_FLOAT"}, "value": {"tensor": {"dtype": "DT_FLOAT", "tensorShape": {"dim": [{"size": "160"}]}}}}}, {"name": "StatefulPartitionedCall/functional_1/RESNET_IDENTITY_BLOCK2_5__conv1/Conv2D_weights", "op": "Const", "attr": {"value": {"tensor": {"dtype": "DT_FLOAT", "tensorShape": {"dim": [{"size": "1"}, {"size": "1"}, {"size": "160"}, {"size": "40"}]}}}, "dtype": {"type": "DT_FLOAT"}}}, {"name": "StatefulPartitionedCall/functional_1/RESNET_IDENTITY_BLOCK2_5__conv1/Conv2D_bn_offset", "op": "Const", "attr": {"value": {"tensor": {"dtype": "DT_FLOAT", "tensorShape": {"dim": [{"size": "40"}]}}}, "dtype": {"type": "DT_FLOAT"}}}, {"name": "StatefulPartitionedCall/functional_1/RESNET_IDENTITY_BLOCK2_5__conv2/Conv2D_weights", "op": "Const", "attr": {"value": {"tensor": {"dtype": "DT_FLOAT", "tensorShape": {"dim": [{"size": "3"}, {"size": "3"}, {"size": "40"}, {"size": "40"}]}}}, "dtype": {"type": "DT_FLOAT"}}}, {"name": "StatefulPartitionedCall/functional_1/RFE_BLOCK2_conv2_0/Conv2D_weights", "op": "Const", "attr": {"value": {"tensor": {"dtype": "DT_FLOAT", "tensorShape": {"dim": [{"size": "1"}, {"size": "3"}, {"size": "5"}, {"size": "5"}]}}}, "dtype": {"type": "DT_FLOAT"}}}, {"name": "StatefulPartitionedCall/functional_1/RESNET_IDENTITY_BLOCK2_5__conv2/Conv2D_bn_offset", "op": "Const", "attr": {"dtype": {"type": "DT_FLOAT"}, "value": {"tensor": {"dtype": "DT_FLOAT", "tensorShape": {"dim": [{"size": "40"}]}}}}}, {"name": "StatefulPartitionedCall/functional_1/RESNET_IDENTITY_BLOCK2_5__conv3/Conv2D_weights", "op": "Const", "attr": {"dtype": {"type": "DT_FLOAT"}, "value": {"tensor": {"dtype": "DT_FLOAT", "tensorShape": {"dim": [{"size": "1"}, {"size": "1"}, {"size": "40"}, {"size": "160"}]}}}}}, {"name": "StatefulPartitionedCall/functional_1/RFE_BLOCK2_conv2_0/Conv2D_bn_offset", "op": "Const", "attr": {"value": {"tensor": {"dtype": "DT_FLOAT", "tensorShape": {"dim": [{"size": "5"}]}}}, "dtype": {"type": "DT_FLOAT"}}}, {"name": "StatefulPartitionedCall/functional_1/RESNET_IDENTITY_BLOCK2_5__conv3/Conv2D_bn_offset", "op": "Const", "attr": {"dtype": {"type": "DT_FLOAT"}, "value": {"tensor": {"dtype": "DT_FLOAT", "tensorShape": {"dim": [{"size": "160"}]}}}}}, {"name": "StatefulPartitionedCall/functional_1/RESNET_IDENTITY_BLOCK2_6__conv1/Conv2D_weights", "op": "Const", "attr": {"dtype": {"type": "DT_FLOAT"}, "value": {"tensor": {"dtype": "DT_FLOAT", "tensorShape": {"dim": [{"size": "1"}, {"size": "1"}, {"size": "160"}, {"size": "40"}]}}}}}, {"name": "StatefulPartitionedCall/functional_1/RESNET_IDENTITY_BLOCK2_6__conv1/Conv2D_bn_offset", "op": "Const", "attr": {"dtype": {"type": "DT_FLOAT"}, "value": {"tensor": {"dtype": "DT_FLOAT", "tensorShape": {"dim": [{"size": "40"}]}}}}}, {"name": "StatefulPartitionedCall/functional_1/RESNET_IDENTITY_BLOCK2_6__conv2/Conv2D_weights", "op": "Const", "attr": {"dtype": {"type": "DT_FLOAT"}, "value": {"tensor": {"dtype": "DT_FLOAT", "tensorShape": {"dim": [{"size": "3"}, {"size": "3"}, {"size": "40"}, {"size": "40"}]}}}}}, {"name": "StatefulPartitionedCall/functional_1/RFE_BLOCK2_conv2_1/Conv2D_weights", "op": "Const", "attr": {"dtype": {"type": "DT_FLOAT"}, "value": {"tensor": {"dtype": "DT_FLOAT", "tensorShape": {"dim": [{"size": "1"}, {"size": "5"}, {"size": "5"}, {"size": "5"}]}}}}}, {"name": "StatefulPartitionedCall/functional_1/RESNET_IDENTITY_BLOCK2_6__conv2/Conv2D_bn_offset", "op": "Const", "attr": {"value": {"tensor": {"dtype": "DT_FLOAT", "tensorShape": {"dim": [{"size": "40"}]}}}, "dtype": {"type": "DT_FLOAT"}}}, {"name": "StatefulPartitionedCall/functional_1/RESNET_IDENTITY_BLOCK2_6__conv3/Conv2D_weights", "op": "Const", "attr": {"value": {"tensor": {"dtype": "DT_FLOAT", "tensorShape": {"dim": [{"size": "1"}, {"size": "1"}, {"size": "40"}, {"size": "160"}]}}}, "dtype": {"type": "DT_FLOAT"}}}, {"name": "StatefulPartitionedCall/functional_1/RFE_BLOCK2_conv2_1/Conv2D_bn_offset", "op": "Const", "attr": {"dtype": {"type": "DT_FLOAT"}, "value": {"tensor": {"dtype": "DT_FLOAT", "tensorShape": {"dim": [{"size": "5"}]}}}}}, {"name": "StatefulPartitionedCall/functional_1/RESNET_IDENTITY_BLOCK2_6__conv3/Conv2D_bn_offset", "op": "Const", "attr": {"value": {"tensor": {"dtype": "DT_FLOAT", "tensorShape": {"dim": [{"size": "160"}]}}}, "dtype": {"type": "DT_FLOAT"}}}, {"name": "StatefulPartitionedCall/functional_1/RESNET_IDENTITY_BLOCK2_7__conv1/Conv2D_weights", "op": "Const", "attr": {"value": {"tensor": {"dtype": "DT_FLOAT", "tensorShape": {"dim": [{"size": "1"}, {"size": "1"}, {"size": "160"}, {"size": "40"}]}}}, "dtype": {"type": "DT_FLOAT"}}}, {"name": "StatefulPartitionedCall/functional_1/RESNET_IDENTITY_BLOCK2_7__conv1/Conv2D_bn_offset", "op": "Const", "attr": {"dtype": {"type": "DT_FLOAT"}, "value": {"tensor": {"dtype": "DT_FLOAT", "tensorShape": {"dim": [{"size": "40"}]}}}}}, {"name": "StatefulPartitionedCall/functional_1/RESNET_IDENTITY_BLOCK2_7__conv2/Conv2D_weights", "op": "Const", "attr": {"value": {"tensor": {"dtype": "DT_FLOAT", "tensorShape": {"dim": [{"size": "3"}, {"size": "3"}, {"size": "40"}, {"size": "40"}]}}}, "dtype": {"type": "DT_FLOAT"}}}, {"name": "StatefulPartitionedCall/functional_1/RFE_BLOCK2_conv2_2/Conv2D_weights", "op": "Const", "attr": {"value": {"tensor": {"dtype": "DT_FLOAT", "tensorShape": {"dim": [{"size": "3"}, {"size": "1"}, {"size": "5"}, {"size": "5"}]}}}, "dtype": {"type": "DT_FLOAT"}}}, {"name": "StatefulPartitionedCall/functional_1/RESNET_IDENTITY_BLOCK2_7__conv2/Conv2D_bn_offset", "op": "Const", "attr": {"value": {"tensor": {"dtype": "DT_FLOAT", "tensorShape": {"dim": [{"size": "40"}]}}}, "dtype": {"type": "DT_FLOAT"}}}, {"name": "StatefulPartitionedCall/functional_1/RESNET_IDENTITY_BLOCK2_7__conv3/Conv2D_weights", "op": "Const", "attr": {"value": {"tensor": {"dtype": "DT_FLOAT", "tensorShape": {"dim": [{"size": "1"}, {"size": "1"}, {"size": "40"}, {"size": "160"}]}}}, "dtype": {"type": "DT_FLOAT"}}}, {"name": "StatefulPartitionedCall/functional_1/RFE_BLOCK2_conv2_2/Conv2D_bn_offset", "op": "Const", "attr": {"value": {"tensor": {"dtype": "DT_FLOAT", "tensorShape": {"dim": [{"size": "5"}]}}}, "dtype": {"type": "DT_FLOAT"}}}, {"name": "StatefulPartitionedCall/functional_1/RESNET_IDENTITY_BLOCK2_7__conv3/Conv2D_bn_offset", "op": "Const", "attr": {"value": {"tensor": {"dtype": "DT_FLOAT", "tensorShape": {"dim": [{"size": "160"}]}}}, "dtype": {"type": "DT_FLOAT"}}}, {"name": "StatefulPartitionedCall/functional_1/RESNET_IDENTITY_BLOCK2_8__conv1/Conv2D_weights", "op": "Const", "attr": {"value": {"tensor": {"dtype": "DT_FLOAT", "tensorShape": {"dim": [{"size": "1"}, {"size": "1"}, {"size": "160"}, {"size": "40"}]}}}, "dtype": {"type": "DT_FLOAT"}}}, {"name": "StatefulPartitionedCall/functional_1/RESNET_IDENTITY_BLOCK2_8__conv1/Conv2D_bn_offset", "op": "Const", "attr": {"dtype": {"type": "DT_FLOAT"}, "value": {"tensor": {"dtype": "DT_FLOAT", "tensorShape": {"dim": [{"size": "40"}]}}}}}, {"name": "StatefulPartitionedCall/functional_1/RESNET_IDENTITY_BLOCK2_8__conv2/Conv2D_weights", "op": "Const", "attr": {"value": {"tensor": {"dtype": "DT_FLOAT", "tensorShape": {"dim": [{"size": "3"}, {"size": "3"}, {"size": "40"}, {"size": "40"}]}}}, "dtype": {"type": "DT_FLOAT"}}}, {"name": "StatefulPartitionedCall/functional_1/RFE_BLOCK2_conv2_3/Conv2D_weights", "op": "Const", "attr": {"dtype": {"type": "DT_FLOAT"}, "value": {"tensor": {"dtype": "DT_FLOAT", "tensorShape": {"dim": [{"size": "5"}, {"size": "1"}, {"size": "5"}, {"size": "5"}]}}}}}, {"name": "StatefulPartitionedCall/functional_1/RESNET_IDENTITY_BLOCK2_8__conv2/Conv2D_bn_offset", "op": "Const", "attr": {"dtype": {"type": "DT_FLOAT"}, "value": {"tensor": {"dtype": "DT_FLOAT", "tensorShape": {"dim": [{"size": "40"}]}}}}}, {"name": "StatefulPartitionedCall/functional_1/RESNET_IDENTITY_BLOCK2_8__conv3/Conv2D_weights", "op": "Const", "attr": {"value": {"tensor": {"dtype": "DT_FLOAT", "tensorShape": {"dim": [{"size": "1"}, {"size": "1"}, {"size": "40"}, {"size": "160"}]}}}, "dtype": {"type": "DT_FLOAT"}}}, {"name": "StatefulPartitionedCall/functional_1/RFE_BLOCK2_conv2_3/Conv2D_bn_offset", "op": "Const", "attr": {"value": {"tensor": {"dtype": "DT_FLOAT", "tensorShape": {"dim": [{"size": "5"}]}}}, "dtype": {"type": "DT_FLOAT"}}}, {"name": "StatefulPartitionedCall/functional_1/RESNET_IDENTITY_BLOCK2_8__conv3/Conv2D_bn_offset", "op": "Const", "attr": {"dtype": {"type": "DT_FLOAT"}, "value": {"tensor": {"dtype": "DT_FLOAT", "tensorShape": {"dim": [{"size": "160"}]}}}}}, {"name": "StatefulPartitionedCall/functional_1/RESNET_IDENTITY_BLOCK2_9__conv1/Conv2D_weights", "op": "Const", "attr": {"value": {"tensor": {"dtype": "DT_FLOAT", "tensorShape": {"dim": [{"size": "1"}, {"size": "1"}, {"size": "160"}, {"size": "40"}]}}}, "dtype": {"type": "DT_FLOAT"}}}, {"name": "StatefulPartitionedCall/functional_1/RESNET_IDENTITY_BLOCK2_9__conv1/Conv2D_bn_offset", "op": "Const", "attr": {"value": {"tensor": {"dtype": "DT_FLOAT", "tensorShape": {"dim": [{"size": "40"}]}}}, "dtype": {"type": "DT_FLOAT"}}}, {"name": "StatefulPartitionedCall/functional_1/RESNET_IDENTITY_BLOCK2_9__conv2/Conv2D_weights", "op": "Const", "attr": {"dtype": {"type": "DT_FLOAT"}, "value": {"tensor": {"dtype": "DT_FLOAT", "tensorShape": {"dim": [{"size": "3"}, {"size": "3"}, {"size": "40"}, {"size": "40"}]}}}}}, {"name": "StatefulPartitionedCall/functional_1/RFE_BLOCK2_conv3_0/Conv2D_weights", "op": "Const", "attr": {"dtype": {"type": "DT_FLOAT"}, "value": {"tensor": {"dtype": "DT_FLOAT", "tensorShape": {"dim": [{"size": "1"}, {"size": "1"}, {"size": "5"}, {"size": "5"}]}}}}}, {"name": "StatefulPartitionedCall/functional_1/RESNET_IDENTITY_BLOCK2_9__conv2/Conv2D_bn_offset", "op": "Const", "attr": {"dtype": {"type": "DT_FLOAT"}, "value": {"tensor": {"dtype": "DT_FLOAT", "tensorShape": {"dim": [{"size": "40"}]}}}}}, {"name": "StatefulPartitionedCall/functional_1/RESNET_IDENTITY_BLOCK2_9__conv3/Conv2D_weights", "op": "Const", "attr": {"dtype": {"type": "DT_FLOAT"}, "value": {"tensor": {"dtype": "DT_FLOAT", "tensorShape": {"dim": [{"size": "1"}, {"size": "1"}, {"size": "40"}, {"size": "160"}]}}}}}, {"name": "StatefulPartitionedCall/functional_1/RFE_BLOCK2_conv3_0/Conv2D_bn_offset", "op": "Const", "attr": {"dtype": {"type": "DT_FLOAT"}, "value": {"tensor": {"dtype": "DT_FLOAT", "tensorShape": {"dim": [{"size": "5"}]}}}}}, {"name": "StatefulPartitionedCall/functional_1/RESNET_IDENTITY_BLOCK2_9__conv3/Conv2D_bn_offset", "op": "Const", "attr": {"dtype": {"type": "DT_FLOAT"}, "value": {"tensor": {"dtype": "DT_FLOAT", "tensorShape": {"dim": [{"size": "160"}]}}}}}, {"name": "StatefulPartitionedCall/functional_1/RESNET_IDENTITY_BLOCK2_10__conv1/Conv2D_weights", "op": "Const", "attr": {"value": {"tensor": {"dtype": "DT_FLOAT", "tensorShape": {"dim": [{"size": "1"}, {"size": "1"}, {"size": "160"}, {"size": "40"}]}}}, "dtype": {"type": "DT_FLOAT"}}}, {"name": "StatefulPartitionedCall/functional_1/RESNET_IDENTITY_BLOCK2_10__conv1/Conv2D_bn_offset", "op": "Const", "attr": {"value": {"tensor": {"dtype": "DT_FLOAT", "tensorShape": {"dim": [{"size": "40"}]}}}, "dtype": {"type": "DT_FLOAT"}}}, {"name": "StatefulPartitionedCall/functional_1/RESNET_IDENTITY_BLOCK2_10__conv2/Conv2D_weights", "op": "Const", "attr": {"dtype": {"type": "DT_FLOAT"}, "value": {"tensor": {"dtype": "DT_FLOAT", "tensorShape": {"dim": [{"size": "3"}, {"size": "3"}, {"size": "40"}, {"size": "40"}]}}}}}, {"name": "StatefulPartitionedCall/functional_1/RFE_BLOCK2_conv3_1/Conv2D_weights", "op": "Const", "attr": {"value": {"tensor": {"dtype": "DT_FLOAT", "tensorShape": {"dim": [{"size": "1"}, {"size": "1"}, {"size": "5"}, {"size": "5"}]}}}, "dtype": {"type": "DT_FLOAT"}}}, {"name": "StatefulPartitionedCall/functional_1/RESNET_IDENTITY_BLOCK2_10__conv2/Conv2D_bn_offset", "op": "Const", "attr": {"value": {"tensor": {"dtype": "DT_FLOAT", "tensorShape": {"dim": [{"size": "40"}]}}}, "dtype": {"type": "DT_FLOAT"}}}, {"name": "StatefulPartitionedCall/functional_1/RESNET_IDENTITY_BLOCK2_10__conv3/Conv2D_weights", "op": "Const", "attr": {"value": {"tensor": {"dtype": "DT_FLOAT", "tensorShape": {"dim": [{"size": "1"}, {"size": "1"}, {"size": "40"}, {"size": "160"}]}}}, "dtype": {"type": "DT_FLOAT"}}}, {"name": "StatefulPartitionedCall/functional_1/RFE_BLOCK2_conv3_1/Conv2D_bn_offset", "op": "Const", "attr": {"value": {"tensor": {"dtype": "DT_FLOAT", "tensorShape": {"dim": [{"size": "5"}]}}}, "dtype": {"type": "DT_FLOAT"}}}, {"name": "StatefulPartitionedCall/functional_1/RESNET_IDENTITY_BLOCK2_10__conv3/Conv2D_bn_offset", "op": "Const", "attr": {"value": {"tensor": {"dtype": "DT_FLOAT", "tensorShape": {"dim": [{"size": "160"}]}}}, "dtype": {"type": "DT_FLOAT"}}}, {"name": "StatefulPartitionedCall/functional_1/RESNET_IDENTITY_BLOCK2_11__conv1/Conv2D_weights", "op": "Const", "attr": {"value": {"tensor": {"dtype": "DT_FLOAT", "tensorShape": {"dim": [{"size": "1"}, {"size": "1"}, {"size": "160"}, {"size": "40"}]}}}, "dtype": {"type": "DT_FLOAT"}}}, {"name": "StatefulPartitionedCall/functional_1/RESNET_IDENTITY_BLOCK2_11__conv1/Conv2D_bn_offset", "op": "Const", "attr": {"dtype": {"type": "DT_FLOAT"}, "value": {"tensor": {"dtype": "DT_FLOAT", "tensorShape": {"dim": [{"size": "40"}]}}}}}, {"name": "StatefulPartitionedCall/functional_1/RESNET_IDENTITY_BLOCK2_11__conv2/Conv2D_weights", "op": "Const", "attr": {"dtype": {"type": "DT_FLOAT"}, "value": {"tensor": {"dtype": "DT_FLOAT", "tensorShape": {"dim": [{"size": "3"}, {"size": "3"}, {"size": "40"}, {"size": "40"}]}}}}}, {"name": "StatefulPartitionedCall/functional_1/RFE_BLOCK2_conv3_2/Conv2D_weights", "op": "Const", "attr": {"dtype": {"type": "DT_FLOAT"}, "value": {"tensor": {"dtype": "DT_FLOAT", "tensorShape": {"dim": [{"size": "1"}, {"size": "1"}, {"size": "5"}, {"size": "5"}]}}}}}, {"name": "StatefulPartitionedCall/functional_1/RESNET_IDENTITY_BLOCK2_11__conv2/Conv2D_bn_offset", "op": "Const", "attr": {"dtype": {"type": "DT_FLOAT"}, "value": {"tensor": {"dtype": "DT_FLOAT", "tensorShape": {"dim": [{"size": "40"}]}}}}}, {"name": "StatefulPartitionedCall/functional_1/RESNET_IDENTITY_BLOCK2_11__conv3/Conv2D_weights", "op": "Const", "attr": {"value": {"tensor": {"dtype": "DT_FLOAT", "tensorShape": {"dim": [{"size": "1"}, {"size": "1"}, {"size": "40"}, {"size": "160"}]}}}, "dtype": {"type": "DT_FLOAT"}}}, {"name": "StatefulPartitionedCall/functional_1/RFE_BLOCK2_conv3_2/Conv2D_bn_offset", "op": "Const", "attr": {"dtype": {"type": "DT_FLOAT"}, "value": {"tensor": {"dtype": "DT_FLOAT", "tensorShape": {"dim": [{"size": "5"}]}}}}}, {"name": "StatefulPartitionedCall/functional_1/RESNET_IDENTITY_BLOCK2_11__conv3/Conv2D_bn_offset", "op": "Const", "attr": {"dtype": {"type": "DT_FLOAT"}, "value": {"tensor": {"dtype": "DT_FLOAT", "tensorShape": {"dim": [{"size": "160"}]}}}}}, {"name": "StatefulPartitionedCall/functional_1/RESNET_IDENTITY_BLOCK2_12__conv1/Conv2D_weights", "op": "Const", "attr": {"value": {"tensor": {"dtype": "DT_FLOAT", "tensorShape": {"dim": [{"size": "1"}, {"size": "1"}, {"size": "160"}, {"size": "40"}]}}}, "dtype": {"type": "DT_FLOAT"}}}, {"name": "StatefulPartitionedCall/functional_1/RESNET_IDENTITY_BLOCK2_12__conv1/Conv2D_bn_offset", "op": "Const", "attr": {"dtype": {"type": "DT_FLOAT"}, "value": {"tensor": {"dtype": "DT_FLOAT", "tensorShape": {"dim": [{"size": "40"}]}}}}}, {"name": "StatefulPartitionedCall/functional_1/RESNET_IDENTITY_BLOCK2_12__conv2/Conv2D_weights", "op": "Const", "attr": {"value": {"tensor": {"dtype": "DT_FLOAT", "tensorShape": {"dim": [{"size": "3"}, {"size": "3"}, {"size": "40"}, {"size": "40"}]}}}, "dtype": {"type": "DT_FLOAT"}}}, {"name": "StatefulPartitionedCall/functional_1/RFE_BLOCK2_conv3_3/Conv2D_weights", "op": "Const", "attr": {"value": {"tensor": {"dtype": "DT_FLOAT", "tensorShape": {"dim": [{"size": "1"}, {"size": "1"}, {"size": "5"}, {"size": "5"}]}}}, "dtype": {"type": "DT_FLOAT"}}}, {"name": "StatefulPartitionedCall/functional_1/RESNET_IDENTITY_BLOCK2_12__conv2/Conv2D_bn_offset", "op": "Const", "attr": {"value": {"tensor": {"dtype": "DT_FLOAT", "tensorShape": {"dim": [{"size": "40"}]}}}, "dtype": {"type": "DT_FLOAT"}}}, {"name": "StatefulPartitionedCall/functional_1/RESNET_IDENTITY_BLOCK2_12__conv3/Conv2D_weights", "op": "Const", "attr": {"value": {"tensor": {"dtype": "DT_FLOAT", "tensorShape": {"dim": [{"size": "1"}, {"size": "1"}, {"size": "40"}, {"size": "160"}]}}}, "dtype": {"type": "DT_FLOAT"}}}, {"name": "StatefulPartitionedCall/functional_1/activation/Relu", "op": "_FusedConv2D", "input": ["input_1", "StatefulPartitionedCall/functional_1/CONV2D_BLOCK0_0_conv/Conv2D_weights", "StatefulPartitionedCall/functional_1/CONV2D_BLOCK0_0_conv/Conv2D_bn_offset"], "device": "/device:CPU:0", "attr": {"num_args": {"i": "1"}, "padding": {"s": "U0FNRQ=="}, "strides": {"list": {"i": ["1", "2", "2", "1"]}}, "dilations": {"list": {"i": ["1", "1", "1", "1"]}}, "T": {"type": "DT_FLOAT"}, "fused_ops": {"list": {"s": ["Qmlhc0FkZA==", "UmVsdQ=="]}}, "explicit_paddings": {"list": {}}, "epsilon": {"f": 0.0}, "data_format": {"s": "TkhXQw=="}, "use_cudnn_on_gpu": {"b": true}}}, {"name": "StatefulPartitionedCall/functional_1/max_pooling2d/MaxPool", "op": "MaxPool", "input": ["StatefulPartitionedCall/functional_1/activation/Relu"], "attr": {"data_format": {"s": "TkhXQw=="}, "strides": {"list": {"i": ["1", "2", "2", "1"]}}, "padding": {"s": "U0FNRQ=="}, "T": {"type": "DT_FLOAT"}, "ksize": {"list": {"i": ["1", "3", "3", "1"]}}}}, {"name": "StatefulPartitionedCall/functional_1/activation_1/Relu", "op": "_FusedConv2D", "input": ["StatefulPartitionedCall/functional_1/max_pooling2d/MaxPool", "StatefulPartitionedCall/functional_1/RESNET_SIDENTITY_BLOCK0_conv1/Conv2D_weights", "StatefulPartitionedCall/functional_1/RESNET_SIDENTITY_BLOCK0_conv1/Conv2D_bn_offset"], "device": "/device:CPU:0", "attr": {"data_format": {"s": "TkhXQw=="}, "use_cudnn_on_gpu": {"b": true}, "strides": {"list": {"i": ["1", "1", "1", "1"]}}, "num_args": {"i": "1"}, "explicit_paddings": {"list": {}}, "T": {"type": "DT_FLOAT"}, "dilations": {"list": {"i": ["1", "1", "1", "1"]}}, "epsilon": {"f": 0.0}, "fused_ops": {"list": {"s": ["Qmlhc0FkZA==", "UmVsdQ=="]}}, "padding": {"s": "VkFMSUQ="}}}, {"name": "StatefulPartitionedCall/functional_1/RESNET_SIDENTITY_BLOCK0_conv4_bn/FusedBatchNormV3", "op": "_FusedConv2D", "input": ["StatefulPartitionedCall/functional_1/max_pooling2d/MaxPool", "StatefulPartitionedCall/functional_1/RESNET_SIDENTITY_BLOCK0_conv4/Conv2D_weights", "StatefulPartitionedCall/functional_1/RESNET_SIDENTITY_BLOCK0_conv4/Conv2D_bn_offset"], "device": "/device:CPU:0", "attr": {"T": {"type": "DT_FLOAT"}, "strides": {"list": {"i": ["1", "1", "1", "1"]}}, "dilations": {"list": {"i": ["1", "1", "1", "1"]}}, "explicit_paddings": {"list": {}}, "data_format": {"s": "TkhXQw=="}, "padding": {"s": "VkFMSUQ="}, "num_args": {"i": "1"}, "fused_ops": {"list": {"s": ["Qmlhc0FkZA=="]}}, "epsilon": {"f": 0.0}, "use_cudnn_on_gpu": {"b": true}}}, {"name": "StatefulPartitionedCall/functional_1/activation_2/Relu", "op": "_FusedConv2D", "input": ["StatefulPartitionedCall/functional_1/activation_1/Relu", "StatefulPartitionedCall/functional_1/RESNET_SIDENTITY_BLOCK0_conv2/Conv2D_weights", "StatefulPartitionedCall/functional_1/RESNET_SIDENTITY_BLOCK0_conv2/Conv2D_bn_offset"], "device": "/device:CPU:0", "attr": {"dilations": {"list": {"i": ["1", "1", "1", "1"]}}, "explicit_paddings": {"list": {}}, "T": {"type": "DT_FLOAT"}, "data_format": {"s": "TkhXQw=="}, "epsilon": {"f": 0.0}, "padding": {"s": "U0FNRQ=="}, "num_args": {"i": "1"}, "use_cudnn_on_gpu": {"b": true}, "strides": {"list": {"i": ["1", "1", "1", "1"]}}, "fused_ops": {"list": {"s": ["Qmlhc0FkZA==", "UmVsdQ=="]}}}}, {"name": "StatefulPartitionedCall/functional_1/RESNET_SIDENTITY_BLOCK0_conv3_bn/FusedBatchNormV3", "op": "_FusedConv2D", "input": ["StatefulPartitionedCall/functional_1/activation_2/Relu", "StatefulPartitionedCall/functional_1/RESNET_SIDENTITY_BLOCK0_conv3/Conv2D_weights", "StatefulPartitionedCall/functional_1/RESNET_SIDENTITY_BLOCK0_conv3/Conv2D_bn_offset"], "device": "/device:CPU:0", "attr": {"fused_ops": {"list": {"s": ["Qmlhc0FkZA=="]}}, "use_cudnn_on_gpu": {"b": true}, "explicit_paddings": {"list": {}}, "padding": {"s": "VkFMSUQ="}, "num_args": {"i": "1"}, "epsilon": {"f": 0.0}, "T": {"type": "DT_FLOAT"}, "dilations": {"list": {"i": ["1", "1", "1", "1"]}}, "data_format": {"s": "TkhXQw=="}, "strides": {"list": {"i": ["1", "1", "1", "1"]}}}}, {"name": "StatefulPartitionedCall/functional_1/add/add", "op": "AddV2", "input": ["StatefulPartitionedCall/functional_1/RESNET_SIDENTITY_BLOCK0_conv3_bn/FusedBatchNormV3", "StatefulPartitionedCall/functional_1/RESNET_SIDENTITY_BLOCK0_conv4_bn/FusedBatchNormV3"], "attr": {"T": {"type": "DT_FLOAT"}}}, {"name": "StatefulPartitionedCall/functional_1/activation_3/Relu", "op": "Relu", "input": ["StatefulPartitionedCall/functional_1/add/add"], "attr": {"T": {"type": "DT_FLOAT"}}}, {"name": "StatefulPartitionedCall/functional_1/activation_4/Relu", "op": "_FusedConv2D", "input": ["StatefulPartitionedCall/functional_1/activation_3/Relu", "StatefulPartitionedCall/functional_1/RESNET_IDENTITY_BLOCK0_0__conv1/Conv2D_weights", "StatefulPartitionedCall/functional_1/RESNET_IDENTITY_BLOCK0_0__conv1/Conv2D_bn_offset"], "device": "/device:CPU:0", "attr": {"padding": {"s": "VkFMSUQ="}, "fused_ops": {"list": {"s": ["Qmlhc0FkZA==", "UmVsdQ=="]}}, "data_format": {"s": "TkhXQw=="}, "use_cudnn_on_gpu": {"b": true}, "dilations": {"list": {"i": ["1", "1", "1", "1"]}}, "epsilon": {"f": 0.0}, "explicit_paddings": {"list": {}}, "num_args": {"i": "1"}, "T": {"type": "DT_FLOAT"}, "strides": {"list": {"i": ["1", "1", "1", "1"]}}}}, {"name": "StatefulPartitionedCall/functional_1/activation_5/Relu", "op": "_FusedConv2D", "input": ["StatefulPartitionedCall/functional_1/activation_4/Relu", "StatefulPartitionedCall/functional_1/RESNET_IDENTITY_BLOCK0_0__conv2/Conv2D_weights", "StatefulPartitionedCall/functional_1/RESNET_IDENTITY_BLOCK0_0__conv2/Conv2D_bn_offset"], "device": "/device:CPU:0", "attr": {"use_cudnn_on_gpu": {"b": true}, "padding": {"s": "U0FNRQ=="}, "T": {"type": "DT_FLOAT"}, "dilations": {"list": {"i": ["1", "1", "1", "1"]}}, "num_args": {"i": "1"}, "explicit_paddings": {"list": {}}, "fused_ops": {"list": {"s": ["Qmlhc0FkZA==", "UmVsdQ=="]}}, "data_format": {"s": "TkhXQw=="}, "epsilon": {"f": 0.0}, "strides": {"list": {"i": ["1", "1", "1", "1"]}}}}, {"name": "StatefulPartitionedCall/functional_1/RESNET_IDENTITY_BLOCK0_0__conv3_bn/FusedBatchNormV3", "op": "_FusedConv2D", "input": ["StatefulPartitionedCall/functional_1/activation_5/Relu", "StatefulPartitionedCall/functional_1/RESNET_IDENTITY_BLOCK0_0__conv3/Conv2D_weights", "StatefulPartitionedCall/functional_1/RESNET_IDENTITY_BLOCK0_0__conv3/Conv2D_bn_offset"], "device": "/device:CPU:0", "attr": {"dilations": {"list": {"i": ["1", "1", "1", "1"]}}, "explicit_paddings": {"list": {}}, "data_format": {"s": "TkhXQw=="}, "fused_ops": {"list": {"s": ["Qmlhc0FkZA=="]}}, "epsilon": {"f": 0.0}, "use_cudnn_on_gpu": {"b": true}, "padding": {"s": "VkFMSUQ="}, "strides": {"list": {"i": ["1", "1", "1", "1"]}}, "T": {"type": "DT_FLOAT"}, "num_args": {"i": "1"}}}, {"name": "StatefulPartitionedCall/functional_1/add_1/add", "op": "AddV2", "input": ["StatefulPartitionedCall/functional_1/RESNET_IDENTITY_BLOCK0_0__conv3_bn/FusedBatchNormV3", "StatefulPartitionedCall/functional_1/activation_3/Relu"], "attr": {"T": {"type": "DT_FLOAT"}}}, {"name": "StatefulPartitionedCall/functional_1/activation_6/Relu", "op": "Relu", "input": ["StatefulPartitionedCall/functional_1/add_1/add"], "attr": {"T": {"type": "DT_FLOAT"}}}, {"name": "StatefulPartitionedCall/functional_1/activation_7/Relu", "op": "_FusedConv2D", "input": ["StatefulPartitionedCall/functional_1/activation_6/Relu", "StatefulPartitionedCall/functional_1/RESNET_IDENTITY_BLOCK0_1__conv1/Conv2D_weights", "StatefulPartitionedCall/functional_1/RESNET_IDENTITY_BLOCK0_1__conv1/Conv2D_bn_offset"], "device": "/device:CPU:0", "attr": {"epsilon": {"f": 0.0}, "dilations": {"list": {"i": ["1", "1", "1", "1"]}}, "use_cudnn_on_gpu": {"b": true}, "fused_ops": {"list": {"s": ["Qmlhc0FkZA==", "UmVsdQ=="]}}, "strides": {"list": {"i": ["1", "1", "1", "1"]}}, "data_format": {"s": "TkhXQw=="}, "num_args": {"i": "1"}, "explicit_paddings": {"list": {}}, "padding": {"s": "VkFMSUQ="}, "T": {"type": "DT_FLOAT"}}}, {"name": "StatefulPartitionedCall/functional_1/activation_8/Relu", "op": "_FusedConv2D", "input": ["StatefulPartitionedCall/functional_1/activation_7/Relu", "StatefulPartitionedCall/functional_1/RESNET_IDENTITY_BLOCK0_1__conv2/Conv2D_weights", "StatefulPartitionedCall/functional_1/RESNET_IDENTITY_BLOCK0_1__conv2/Conv2D_bn_offset"], "device": "/device:CPU:0", "attr": {"strides": {"list": {"i": ["1", "1", "1", "1"]}}, "padding": {"s": "U0FNRQ=="}, "dilations": {"list": {"i": ["1", "1", "1", "1"]}}, "num_args": {"i": "1"}, "explicit_paddings": {"list": {}}, "fused_ops": {"list": {"s": ["Qmlhc0FkZA==", "UmVsdQ=="]}}, "T": {"type": "DT_FLOAT"}, "data_format": {"s": "TkhXQw=="}, "use_cudnn_on_gpu": {"b": true}, "epsilon": {"f": 0.0}}}, {"name": "StatefulPartitionedCall/functional_1/RESNET_IDENTITY_BLOCK0_1__conv3_bn/FusedBatchNormV3", "op": "_FusedConv2D", "input": ["StatefulPartitionedCall/functional_1/activation_8/Relu", "StatefulPartitionedCall/functional_1/RESNET_IDENTITY_BLOCK0_1__conv3/Conv2D_weights", "StatefulPartitionedCall/functional_1/RESNET_IDENTITY_BLOCK0_1__conv3/Conv2D_bn_offset"], "device": "/device:CPU:0", "attr": {"epsilon": {"f": 0.0}, "dilations": {"list": {"i": ["1", "1", "1", "1"]}}, "explicit_paddings": {"list": {}}, "fused_ops": {"list": {"s": ["Qmlhc0FkZA=="]}}, "use_cudnn_on_gpu": {"b": true}, "padding": {"s": "VkFMSUQ="}, "strides": {"list": {"i": ["1", "1", "1", "1"]}}, "data_format": {"s": "TkhXQw=="}, "num_args": {"i": "1"}, "T": {"type": "DT_FLOAT"}}}, {"name": "StatefulPartitionedCall/functional_1/add_2/add", "op": "AddV2", "input": ["StatefulPartitionedCall/functional_1/RESNET_IDENTITY_BLOCK0_1__conv3_bn/FusedBatchNormV3", "StatefulPartitionedCall/functional_1/activation_6/Relu"], "attr": {"T": {"type": "DT_FLOAT"}}}, {"name": "StatefulPartitionedCall/functional_1/activation_9/Relu", "op": "Relu", "input": ["StatefulPartitionedCall/functional_1/add_2/add"], "attr": {"T": {"type": "DT_FLOAT"}}}, {"name": "StatefulPartitionedCall/functional_1/activation_10/Relu", "op": "_FusedConv2D", "input": ["StatefulPartitionedCall/functional_1/activation_9/Relu", "StatefulPartitionedCall/functional_1/RESNET_IDENTITY_BLOCK0_2__conv1/Conv2D_weights", "StatefulPartitionedCall/functional_1/RESNET_IDENTITY_BLOCK0_2__conv1/Conv2D_bn_offset"], "device": "/device:CPU:0", "attr": {"padding": {"s": "VkFMSUQ="}, "data_format": {"s": "TkhXQw=="}, "explicit_paddings": {"list": {}}, "epsilon": {"f": 0.0}, "num_args": {"i": "1"}, "strides": {"list": {"i": ["1", "1", "1", "1"]}}, "use_cudnn_on_gpu": {"b": true}, "T": {"type": "DT_FLOAT"}, "fused_ops": {"list": {"s": ["Qmlhc0FkZA==", "UmVsdQ=="]}}, "dilations": {"list": {"i": ["1", "1", "1", "1"]}}}}, {"name": "StatefulPartitionedCall/functional_1/activation_11/Relu", "op": "_FusedConv2D", "input": ["StatefulPartitionedCall/functional_1/activation_10/Relu", "StatefulPartitionedCall/functional_1/RESNET_IDENTITY_BLOCK0_2__conv2/Conv2D_weights", "StatefulPartitionedCall/functional_1/RESNET_IDENTITY_BLOCK0_2__conv2/Conv2D_bn_offset"], "device": "/device:CPU:0", "attr": {"dilations": {"list": {"i": ["1", "1", "1", "1"]}}, "data_format": {"s": "TkhXQw=="}, "T": {"type": "DT_FLOAT"}, "num_args": {"i": "1"}, "strides": {"list": {"i": ["1", "1", "1", "1"]}}, "padding": {"s": "U0FNRQ=="}, "epsilon": {"f": 0.0}, "explicit_paddings": {"list": {}}, "use_cudnn_on_gpu": {"b": true}, "fused_ops": {"list": {"s": ["Qmlhc0FkZA==", "UmVsdQ=="]}}}}, {"name": "StatefulPartitionedCall/functional_1/RESNET_IDENTITY_BLOCK0_2__conv3_bn/FusedBatchNormV3", "op": "_FusedConv2D", "input": ["StatefulPartitionedCall/functional_1/activation_11/Relu", "StatefulPartitionedCall/functional_1/RESNET_IDENTITY_BLOCK0_2__conv3/Conv2D_weights", "StatefulPartitionedCall/functional_1/RESNET_IDENTITY_BLOCK0_2__conv3/Conv2D_bn_offset"], "device": "/device:CPU:0", "attr": {"padding": {"s": "VkFMSUQ="}, "num_args": {"i": "1"}, "fused_ops": {"list": {"s": ["Qmlhc0FkZA=="]}}, "T": {"type": "DT_FLOAT"}, "strides": {"list": {"i": ["1", "1", "1", "1"]}}, "epsilon": {"f": 0.0}, "data_format": {"s": "TkhXQw=="}, "dilations": {"list": {"i": ["1", "1", "1", "1"]}}, "use_cudnn_on_gpu": {"b": true}, "explicit_paddings": {"list": {}}}}, {"name": "StatefulPartitionedCall/functional_1/add_3/add", "op": "AddV2", "input": ["StatefulPartitionedCall/functional_1/RESNET_IDENTITY_BLOCK0_2__conv3_bn/FusedBatchNormV3", "StatefulPartitionedCall/functional_1/activation_9/Relu"], "attr": {"T": {"type": "DT_FLOAT"}}}, {"name": "StatefulPartitionedCall/functional_1/activation_12/Relu", "op": "Relu", "input": ["StatefulPartitionedCall/functional_1/add_3/add"], "attr": {"T": {"type": "DT_FLOAT"}}}, {"name": "StatefulPartitionedCall/functional_1/activation_115/Relu", "op": "_FusedConv2D", "input": ["StatefulPartitionedCall/functional_1/activation_12/Relu", "StatefulPartitionedCall/functional_1/CONV2D_BLOCK2_0_conv/Conv2D_weights", "StatefulPartitionedCall/functional_1/CONV2D_BLOCK2_0_conv/Conv2D_bn_offset"], "device": "/device:CPU:0", "attr": {"num_args": {"i": "1"}, "strides": {"list": {"i": ["1", "1", "1", "1"]}}, "use_cudnn_on_gpu": {"b": true}, "epsilon": {"f": 0.0}, "explicit_paddings": {"list": {}}, "data_format": {"s": "TkhXQw=="}, "T": {"type": "DT_FLOAT"}, "dilations": {"list": {"i": ["1", "1", "1", "1"]}}, "padding": {"s": "U0FNRQ=="}, "fused_ops": {"list": {"s": ["Qmlhc0FkZA==", "UmVsdQ=="]}}}}, {"name": "StatefulPartitionedCall/functional_1/activation_13/Relu", "op": "_FusedConv2D", "input": ["StatefulPartitionedCall/functional_1/activation_12/Relu", "StatefulPartitionedCall/functional_1/RESNET_SIDENTITY_BLOCK1_conv1/Conv2D_weights", "StatefulPartitionedCall/functional_1/RESNET_SIDENTITY_BLOCK1_conv1/Conv2D_bn_offset"], "device": "/device:CPU:0", "attr": {"num_args": {"i": "1"}, "strides": {"list": {"i": ["1", "2", "2", "1"]}}, "T": {"type": "DT_FLOAT"}, "dilations": {"list": {"i": ["1", "1", "1", "1"]}}, "data_format": {"s": "TkhXQw=="}, "padding": {"s": "VkFMSUQ="}, "fused_ops": {"list": {"s": ["Qmlhc0FkZA==", "UmVsdQ=="]}}, "use_cudnn_on_gpu": {"b": true}, "explicit_paddings": {"list": {}}, "epsilon": {"f": 0.0}}}, {"name": "StatefulPartitionedCall/functional_1/RESNET_SIDENTITY_BLOCK1_conv4_bn/FusedBatchNormV3", "op": "_FusedConv2D", "input": ["StatefulPartitionedCall/functional_1/activation_12/Relu", "StatefulPartitionedCall/functional_1/RESNET_SIDENTITY_BLOCK1_conv4/Conv2D_weights", "StatefulPartitionedCall/functional_1/RESNET_SIDENTITY_BLOCK1_conv4/Conv2D_bn_offset"], "device": "/device:CPU:0", "attr": {"explicit_paddings": {"list": {}}, "use_cudnn_on_gpu": {"b": true}, "padding": {"s": "VkFMSUQ="}, "data_format": {"s": "TkhXQw=="}, "epsilon": {"f": 0.0}, "dilations": {"list": {"i": ["1", "1", "1", "1"]}}, "num_args": {"i": "1"}, "fused_ops": {"list": {"s": ["Qmlhc0FkZA=="]}}, "strides": {"list": {"i": ["1", "2", "2", "1"]}}, "T": {"type": "DT_FLOAT"}}}, {"name": "StatefulPartitionedCall/functional_1/activation_14/Relu", "op": "_FusedConv2D", "input": ["StatefulPartitionedCall/functional_1/activation_13/Relu", "StatefulPartitionedCall/functional_1/RESNET_SIDENTITY_BLOCK1_conv2/Conv2D_weights", "StatefulPartitionedCall/functional_1/RESNET_SIDENTITY_BLOCK1_conv2/Conv2D_bn_offset"], "device": "/device:CPU:0", "attr": {"T": {"type": "DT_FLOAT"}, "epsilon": {"f": 0.0}, "strides": {"list": {"i": ["1", "1", "1", "1"]}}, "explicit_paddings": {"list": {}}, "fused_ops": {"list": {"s": ["Qmlhc0FkZA==", "UmVsdQ=="]}}, "num_args": {"i": "1"}, "padding": {"s": "U0FNRQ=="}, "data_format": {"s": "TkhXQw=="}, "use_cudnn_on_gpu": {"b": true}, "dilations": {"list": {"i": ["1", "1", "1", "1"]}}}}, {"name": "StatefulPartitionedCall/functional_1/RESNET_SIDENTITY_BLOCK1_conv3_bn/FusedBatchNormV3", "op": "_FusedConv2D", "input": ["StatefulPartitionedCall/functional_1/activation_14/Relu", "StatefulPartitionedCall/functional_1/RESNET_SIDENTITY_BLOCK1_conv3/Conv2D_weights", "StatefulPartitionedCall/functional_1/RESNET_SIDENTITY_BLOCK1_conv3/Conv2D_bn_offset"], "device": "/device:CPU:0", "attr": {"dilations": {"list": {"i": ["1", "1", "1", "1"]}}, "fused_ops": {"list": {"s": ["Qmlhc0FkZA=="]}}, "T": {"type": "DT_FLOAT"}, "epsilon": {"f": 0.0}, "explicit_paddings": {"list": {}}, "num_args": {"i": "1"}, "use_cudnn_on_gpu": {"b": true}, "padding": {"s": "VkFMSUQ="}, "strides": {"list": {"i": ["1", "1", "1", "1"]}}, "data_format": {"s": "TkhXQw=="}}}, {"name": "StatefulPartitionedCall/functional_1/add_4/add", "op": "AddV2", "input": ["StatefulPartitionedCall/functional_1/RESNET_SIDENTITY_BLOCK1_conv3_bn/FusedBatchNormV3", "StatefulPartitionedCall/functional_1/RESNET_SIDENTITY_BLOCK1_conv4_bn/FusedBatchNormV3"], "attr": {"T": {"type": "DT_FLOAT"}}}, {"name": "StatefulPartitionedCall/functional_1/activation_15/Relu", "op": "Relu", "input": ["StatefulPartitionedCall/functional_1/add_4/add"], "attr": {"T": {"type": "DT_FLOAT"}}}, {"name": "StatefulPartitionedCall/functional_1/activation_16/Relu", "op": "_FusedConv2D", "input": ["StatefulPartitionedCall/functional_1/activation_15/Relu", "StatefulPartitionedCall/functional_1/RESNET_IDENTITY_BLOCK1_0__conv1/Conv2D_weights", "StatefulPartitionedCall/functional_1/RESNET_IDENTITY_BLOCK1_0__conv1/Conv2D_bn_offset"], "device": "/device:CPU:0", "attr": {"use_cudnn_on_gpu": {"b": true}, "explicit_paddings": {"list": {}}, "strides": {"list": {"i": ["1", "1", "1", "1"]}}, "epsilon": {"f": 0.0}, "num_args": {"i": "1"}, "dilations": {"list": {"i": ["1", "1", "1", "1"]}}, "fused_ops": {"list": {"s": ["Qmlhc0FkZA==", "UmVsdQ=="]}}, "T": {"type": "DT_FLOAT"}, "padding": {"s": "VkFMSUQ="}, "data_format": {"s": "TkhXQw=="}}}, {"name": "StatefulPartitionedCall/functional_1/activation_17/Relu", "op": "_FusedConv2D", "input": ["StatefulPartitionedCall/functional_1/activation_16/Relu", "StatefulPartitionedCall/functional_1/RESNET_IDENTITY_BLOCK1_0__conv2/Conv2D_weights", "StatefulPartitionedCall/functional_1/RESNET_IDENTITY_BLOCK1_0__conv2/Conv2D_bn_offset"], "device": "/device:CPU:0", "attr": {"dilations": {"list": {"i": ["1", "1", "1", "1"]}}, "fused_ops": {"list": {"s": ["Qmlhc0FkZA==", "UmVsdQ=="]}}, "num_args": {"i": "1"}, "data_format": {"s": "TkhXQw=="}, "explicit_paddings": {"list": {}}, "padding": {"s": "U0FNRQ=="}, "use_cudnn_on_gpu": {"b": true}, "epsilon": {"f": 0.0}, "strides": {"list": {"i": ["1", "1", "1", "1"]}}, "T": {"type": "DT_FLOAT"}}}, {"name": "StatefulPartitionedCall/functional_1/RESNET_IDENTITY_BLOCK1_0__conv3_bn/FusedBatchNormV3", "op": "_FusedConv2D", "input": ["StatefulPartitionedCall/functional_1/activation_17/Relu", "StatefulPartitionedCall/functional_1/RESNET_IDENTITY_BLOCK1_0__conv3/Conv2D_weights", "StatefulPartitionedCall/functional_1/RESNET_IDENTITY_BLOCK1_0__conv3/Conv2D_bn_offset"], "device": "/device:CPU:0", "attr": {"num_args": {"i": "1"}, "fused_ops": {"list": {"s": ["Qmlhc0FkZA=="]}}, "T": {"type": "DT_FLOAT"}, "use_cudnn_on_gpu": {"b": true}, "padding": {"s": "VkFMSUQ="}, "epsilon": {"f": 0.0}, "data_format": {"s": "TkhXQw=="}, "strides": {"list": {"i": ["1", "1", "1", "1"]}}, "dilations": {"list": {"i": ["1", "1", "1", "1"]}}, "explicit_paddings": {"list": {}}}}, {"name": "StatefulPartitionedCall/functional_1/add_5/add", "op": "AddV2", "input": ["StatefulPartitionedCall/functional_1/RESNET_IDENTITY_BLOCK1_0__conv3_bn/FusedBatchNormV3", "StatefulPartitionedCall/functional_1/activation_15/Relu"], "attr": {"T": {"type": "DT_FLOAT"}}}, {"name": "StatefulPartitionedCall/functional_1/activation_18/Relu", "op": "Relu", "input": ["StatefulPartitionedCall/functional_1/add_5/add"], "attr": {"T": {"type": "DT_FLOAT"}}}, {"name": "StatefulPartitionedCall/functional_1/activation_19/Relu", "op": "_FusedConv2D", "input": ["StatefulPartitionedCall/functional_1/activation_18/Relu", "StatefulPartitionedCall/functional_1/RESNET_IDENTITY_BLOCK1_1__conv1/Conv2D_weights", "StatefulPartitionedCall/functional_1/RESNET_IDENTITY_BLOCK1_1__conv1/Conv2D_bn_offset"], "device": "/device:CPU:0", "attr": {"fused_ops": {"list": {"s": ["Qmlhc0FkZA==", "UmVsdQ=="]}}, "padding": {"s": "VkFMSUQ="}, "strides": {"list": {"i": ["1", "1", "1", "1"]}}, "use_cudnn_on_gpu": {"b": true}, "epsilon": {"f": 0.0}, "dilations": {"list": {"i": ["1", "1", "1", "1"]}}, "T": {"type": "DT_FLOAT"}, "num_args": {"i": "1"}, "explicit_paddings": {"list": {}}, "data_format": {"s": "TkhXQw=="}}}, {"name": "StatefulPartitionedCall/functional_1/activation_20/Relu", "op": "_FusedConv2D", "input": ["StatefulPartitionedCall/functional_1/activation_19/Relu", "StatefulPartitionedCall/functional_1/RESNET_IDENTITY_BLOCK1_1__conv2/Conv2D_weights", "StatefulPartitionedCall/functional_1/RESNET_IDENTITY_BLOCK1_1__conv2/Conv2D_bn_offset"], "device": "/device:CPU:0", "attr": {"fused_ops": {"list": {"s": ["Qmlhc0FkZA==", "UmVsdQ=="]}}, "use_cudnn_on_gpu": {"b": true}, "data_format": {"s": "TkhXQw=="}, "epsilon": {"f": 0.0}, "explicit_paddings": {"list": {}}, "num_args": {"i": "1"}, "strides": {"list": {"i": ["1", "1", "1", "1"]}}, "padding": {"s": "U0FNRQ=="}, "T": {"type": "DT_FLOAT"}, "dilations": {"list": {"i": ["1", "1", "1", "1"]}}}}, {"name": "StatefulPartitionedCall/functional_1/RESNET_IDENTITY_BLOCK1_1__conv3_bn/FusedBatchNormV3", "op": "_FusedConv2D", "input": ["StatefulPartitionedCall/functional_1/activation_20/Relu", "StatefulPartitionedCall/functional_1/RESNET_IDENTITY_BLOCK1_1__conv3/Conv2D_weights", "StatefulPartitionedCall/functional_1/RESNET_IDENTITY_BLOCK1_1__conv3/Conv2D_bn_offset"], "device": "/device:CPU:0", "attr": {"use_cudnn_on_gpu": {"b": true}, "dilations": {"list": {"i": ["1", "1", "1", "1"]}}, "data_format": {"s": "TkhXQw=="}, "explicit_paddings": {"list": {}}, "num_args": {"i": "1"}, "T": {"type": "DT_FLOAT"}, "padding": {"s": "VkFMSUQ="}, "strides": {"list": {"i": ["1", "1", "1", "1"]}}, "fused_ops": {"list": {"s": ["Qmlhc0FkZA=="]}}, "epsilon": {"f": 0.0}}}, {"name": "StatefulPartitionedCall/functional_1/add_6/add", "op": "AddV2", "input": ["StatefulPartitionedCall/functional_1/RESNET_IDENTITY_BLOCK1_1__conv3_bn/FusedBatchNormV3", "StatefulPartitionedCall/functional_1/activation_18/Relu"], "attr": {"T": {"type": "DT_FLOAT"}}}, {"name": "StatefulPartitionedCall/functional_1/activation_21/Relu", "op": "Relu", "input": ["StatefulPartitionedCall/functional_1/add_6/add"], "attr": {"T": {"type": "DT_FLOAT"}}}, {"name": "StatefulPartitionedCall/functional_1/activation_22/Relu", "op": "_FusedConv2D", "input": ["StatefulPartitionedCall/functional_1/activation_21/Relu", "StatefulPartitionedCall/functional_1/RESNET_IDENTITY_BLOCK1_2__conv1/Conv2D_weights", "StatefulPartitionedCall/functional_1/RESNET_IDENTITY_BLOCK1_2__conv1/Conv2D_bn_offset"], "device": "/device:CPU:0", "attr": {"num_args": {"i": "1"}, "padding": {"s": "VkFMSUQ="}, "fused_ops": {"list": {"s": ["Qmlhc0FkZA==", "UmVsdQ=="]}}, "data_format": {"s": "TkhXQw=="}, "dilations": {"list": {"i": ["1", "1", "1", "1"]}}, "strides": {"list": {"i": ["1", "1", "1", "1"]}}, "explicit_paddings": {"list": {}}, "epsilon": {"f": 0.0}, "use_cudnn_on_gpu": {"b": true}, "T": {"type": "DT_FLOAT"}}}, {"name": "StatefulPartitionedCall/functional_1/activation_23/Relu", "op": "_FusedConv2D", "input": ["StatefulPartitionedCall/functional_1/activation_22/Relu", "StatefulPartitionedCall/functional_1/RESNET_IDENTITY_BLOCK1_2__conv2/Conv2D_weights", "StatefulPartitionedCall/functional_1/RESNET_IDENTITY_BLOCK1_2__conv2/Conv2D_bn_offset"], "device": "/device:CPU:0", "attr": {"padding": {"s": "U0FNRQ=="}, "dilations": {"list": {"i": ["1", "1", "1", "1"]}}, "data_format": {"s": "TkhXQw=="}, "strides": {"list": {"i": ["1", "1", "1", "1"]}}, "num_args": {"i": "1"}, "explicit_paddings": {"list": {}}, "T": {"type": "DT_FLOAT"}, "fused_ops": {"list": {"s": ["Qmlhc0FkZA==", "UmVsdQ=="]}}, "use_cudnn_on_gpu": {"b": true}, "epsilon": {"f": 0.0}}}, {"name": "StatefulPartitionedCall/functional_1/RESNET_IDENTITY_BLOCK1_2__conv3_bn/FusedBatchNormV3", "op": "_FusedConv2D", "input": ["StatefulPartitionedCall/functional_1/activation_23/Relu", "StatefulPartitionedCall/functional_1/RESNET_IDENTITY_BLOCK1_2__conv3/Conv2D_weights", "StatefulPartitionedCall/functional_1/RESNET_IDENTITY_BLOCK1_2__conv3/Conv2D_bn_offset"], "device": "/device:CPU:0", "attr": {"padding": {"s": "VkFMSUQ="}, "explicit_paddings": {"list": {}}, "data_format": {"s": "TkhXQw=="}, "epsilon": {"f": 0.0}, "T": {"type": "DT_FLOAT"}, "num_args": {"i": "1"}, "strides": {"list": {"i": ["1", "1", "1", "1"]}}, "fused_ops": {"list": {"s": ["Qmlhc0FkZA=="]}}, "use_cudnn_on_gpu": {"b": true}, "dilations": {"list": {"i": ["1", "1", "1", "1"]}}}}, {"name": "StatefulPartitionedCall/functional_1/add_7/add", "op": "AddV2", "input": ["StatefulPartitionedCall/functional_1/RESNET_IDENTITY_BLOCK1_2__conv3_bn/FusedBatchNormV3", "StatefulPartitionedCall/functional_1/activation_21/Relu"], "attr": {"T": {"type": "DT_FLOAT"}}}, {"name": "StatefulPartitionedCall/functional_1/activation_24/Relu", "op": "Relu", "input": ["StatefulPartitionedCall/functional_1/add_7/add"], "attr": {"T": {"type": "DT_FLOAT"}}}, {"name": "StatefulPartitionedCall/functional_1/activation_25/Relu", "op": "_FusedConv2D", "input": ["StatefulPartitionedCall/functional_1/activation_24/Relu", "StatefulPartitionedCall/functional_1/RESNET_IDENTITY_BLOCK1_3__conv1/Conv2D_weights", "StatefulPartitionedCall/functional_1/RESNET_IDENTITY_BLOCK1_3__conv1/Conv2D_bn_offset"], "device": "/device:CPU:0", "attr": {"padding": {"s": "VkFMSUQ="}, "use_cudnn_on_gpu": {"b": true}, "explicit_paddings": {"list": {}}, "strides": {"list": {"i": ["1", "1", "1", "1"]}}, "T": {"type": "DT_FLOAT"}, "fused_ops": {"list": {"s": ["Qmlhc0FkZA==", "UmVsdQ=="]}}, "epsilon": {"f": 0.0}, "data_format": {"s": "TkhXQw=="}, "num_args": {"i": "1"}, "dilations": {"list": {"i": ["1", "1", "1", "1"]}}}}, {"name": "StatefulPartitionedCall/functional_1/activation_26/Relu", "op": "_FusedConv2D", "input": ["StatefulPartitionedCall/functional_1/activation_25/Relu", "StatefulPartitionedCall/functional_1/RESNET_IDENTITY_BLOCK1_3__conv2/Conv2D_weights", "StatefulPartitionedCall/functional_1/RESNET_IDENTITY_BLOCK1_3__conv2/Conv2D_bn_offset"], "device": "/device:CPU:0", "attr": {"epsilon": {"f": 0.0}, "num_args": {"i": "1"}, "padding": {"s": "U0FNRQ=="}, "T": {"type": "DT_FLOAT"}, "strides": {"list": {"i": ["1", "1", "1", "1"]}}, "explicit_paddings": {"list": {}}, "data_format": {"s": "TkhXQw=="}, "use_cudnn_on_gpu": {"b": true}, "fused_ops": {"list": {"s": ["Qmlhc0FkZA==", "UmVsdQ=="]}}, "dilations": {"list": {"i": ["1", "1", "1", "1"]}}}}, {"name": "StatefulPartitionedCall/functional_1/RESNET_IDENTITY_BLOCK1_3__conv3_bn/FusedBatchNormV3", "op": "_FusedConv2D", "input": ["StatefulPartitionedCall/functional_1/activation_26/Relu", "StatefulPartitionedCall/functional_1/RESNET_IDENTITY_BLOCK1_3__conv3/Conv2D_weights", "StatefulPartitionedCall/functional_1/RESNET_IDENTITY_BLOCK1_3__conv3/Conv2D_bn_offset"], "device": "/device:CPU:0", "attr": {"fused_ops": {"list": {"s": ["Qmlhc0FkZA=="]}}, "epsilon": {"f": 0.0}, "strides": {"list": {"i": ["1", "1", "1", "1"]}}, "num_args": {"i": "1"}, "padding": {"s": "VkFMSUQ="}, "explicit_paddings": {"list": {}}, "T": {"type": "DT_FLOAT"}, "use_cudnn_on_gpu": {"b": true}, "dilations": {"list": {"i": ["1", "1", "1", "1"]}}, "data_format": {"s": "TkhXQw=="}}}, {"name": "StatefulPartitionedCall/functional_1/add_8/add", "op": "AddV2", "input": ["StatefulPartitionedCall/functional_1/RESNET_IDENTITY_BLOCK1_3__conv3_bn/FusedBatchNormV3", "StatefulPartitionedCall/functional_1/activation_24/Relu"], "attr": {"T": {"type": "DT_FLOAT"}}}, {"name": "StatefulPartitionedCall/functional_1/activation_27/Relu", "op": "Relu", "input": ["StatefulPartitionedCall/functional_1/add_8/add"], "attr": {"T": {"type": "DT_FLOAT"}}}, {"name": "StatefulPartitionedCall/functional_1/activation_28/Relu", "op": "_FusedConv2D", "input": ["StatefulPartitionedCall/functional_1/activation_27/Relu", "StatefulPartitionedCall/functional_1/RESNET_IDENTITY_BLOCK1_4__conv1/Conv2D_weights", "StatefulPartitionedCall/functional_1/RESNET_IDENTITY_BLOCK1_4__conv1/Conv2D_bn_offset"], "device": "/device:CPU:0", "attr": {"use_cudnn_on_gpu": {"b": true}, "num_args": {"i": "1"}, "epsilon": {"f": 0.0}, "dilations": {"list": {"i": ["1", "1", "1", "1"]}}, "T": {"type": "DT_FLOAT"}, "data_format": {"s": "TkhXQw=="}, "explicit_paddings": {"list": {}}, "strides": {"list": {"i": ["1", "1", "1", "1"]}}, "padding": {"s": "VkFMSUQ="}, "fused_ops": {"list": {"s": ["Qmlhc0FkZA==", "UmVsdQ=="]}}}}, {"name": "StatefulPartitionedCall/functional_1/activation_29/Relu", "op": "_FusedConv2D", "input": ["StatefulPartitionedCall/functional_1/activation_28/Relu", "StatefulPartitionedCall/functional_1/RESNET_IDENTITY_BLOCK1_4__conv2/Conv2D_weights", "StatefulPartitionedCall/functional_1/RESNET_IDENTITY_BLOCK1_4__conv2/Conv2D_bn_offset"], "device": "/device:CPU:0", "attr": {"padding": {"s": "U0FNRQ=="}, "dilations": {"list": {"i": ["1", "1", "1", "1"]}}, "fused_ops": {"list": {"s": ["Qmlhc0FkZA==", "UmVsdQ=="]}}, "num_args": {"i": "1"}, "epsilon": {"f": 0.0}, "explicit_paddings": {"list": {}}, "T": {"type": "DT_FLOAT"}, "use_cudnn_on_gpu": {"b": true}, "data_format": {"s": "TkhXQw=="}, "strides": {"list": {"i": ["1", "1", "1", "1"]}}}}, {"name": "StatefulPartitionedCall/functional_1/RESNET_IDENTITY_BLOCK1_4__conv3_bn/FusedBatchNormV3", "op": "_FusedConv2D", "input": ["StatefulPartitionedCall/functional_1/activation_29/Relu", "StatefulPartitionedCall/functional_1/RESNET_IDENTITY_BLOCK1_4__conv3/Conv2D_weights", "StatefulPartitionedCall/functional_1/RESNET_IDENTITY_BLOCK1_4__conv3/Conv2D_bn_offset"], "device": "/device:CPU:0", "attr": {"T": {"type": "DT_FLOAT"}, "data_format": {"s": "TkhXQw=="}, "explicit_paddings": {"list": {}}, "padding": {"s": "VkFMSUQ="}, "strides": {"list": {"i": ["1", "1", "1", "1"]}}, "fused_ops": {"list": {"s": ["Qmlhc0FkZA=="]}}, "use_cudnn_on_gpu": {"b": true}, "num_args": {"i": "1"}, "dilations": {"list": {"i": ["1", "1", "1", "1"]}}, "epsilon": {"f": 0.0}}}, {"name": "StatefulPartitionedCall/functional_1/add_9/add", "op": "AddV2", "input": ["StatefulPartitionedCall/functional_1/RESNET_IDENTITY_BLOCK1_4__conv3_bn/FusedBatchNormV3", "StatefulPartitionedCall/functional_1/activation_27/Relu"], "attr": {"T": {"type": "DT_FLOAT"}}}, {"name": "StatefulPartitionedCall/functional_1/activation_30/Relu", "op": "Relu", "input": ["StatefulPartitionedCall/functional_1/add_9/add"], "attr": {"T": {"type": "DT_FLOAT"}}}, {"name": "StatefulPartitionedCall/functional_1/activation_31/Relu", "op": "_FusedConv2D", "input": ["StatefulPartitionedCall/functional_1/activation_30/Relu", "StatefulPartitionedCall/functional_1/RESNET_IDENTITY_BLOCK1_5__conv1/Conv2D_weights", "StatefulPartitionedCall/functional_1/RESNET_IDENTITY_BLOCK1_5__conv1/Conv2D_bn_offset"], "device": "/device:CPU:0", "attr": {"padding": {"s": "VkFMSUQ="}, "fused_ops": {"list": {"s": ["Qmlhc0FkZA==", "UmVsdQ=="]}}, "num_args": {"i": "1"}, "strides": {"list": {"i": ["1", "1", "1", "1"]}}, "data_format": {"s": "TkhXQw=="}, "T": {"type": "DT_FLOAT"}, "use_cudnn_on_gpu": {"b": true}, "dilations": {"list": {"i": ["1", "1", "1", "1"]}}, "epsilon": {"f": 0.0}, "explicit_paddings": {"list": {}}}}, {"name": "StatefulPartitionedCall/functional_1/activation_32/Relu", "op": "_FusedConv2D", "input": ["StatefulPartitionedCall/functional_1/activation_31/Relu", "StatefulPartitionedCall/functional_1/RESNET_IDENTITY_BLOCK1_5__conv2/Conv2D_weights", "StatefulPartitionedCall/functional_1/RESNET_IDENTITY_BLOCK1_5__conv2/Conv2D_bn_offset"], "device": "/device:CPU:0", "attr": {"data_format": {"s": "TkhXQw=="}, "num_args": {"i": "1"}, "epsilon": {"f": 0.0}, "dilations": {"list": {"i": ["1", "1", "1", "1"]}}, "padding": {"s": "U0FNRQ=="}, "T": {"type": "DT_FLOAT"}, "strides": {"list": {"i": ["1", "1", "1", "1"]}}, "fused_ops": {"list": {"s": ["Qmlhc0FkZA==", "UmVsdQ=="]}}, "use_cudnn_on_gpu": {"b": true}, "explicit_paddings": {"list": {}}}}, {"name": "StatefulPartitionedCall/functional_1/RESNET_IDENTITY_BLOCK1_5__conv3_bn/FusedBatchNormV3", "op": "_FusedConv2D", "input": ["StatefulPartitionedCall/functional_1/activation_32/Relu", "StatefulPartitionedCall/functional_1/RESNET_IDENTITY_BLOCK1_5__conv3/Conv2D_weights", "StatefulPartitionedCall/functional_1/RESNET_IDENTITY_BLOCK1_5__conv3/Conv2D_bn_offset"], "device": "/device:CPU:0", "attr": {"use_cudnn_on_gpu": {"b": true}, "explicit_paddings": {"list": {}}, "data_format": {"s": "TkhXQw=="}, "fused_ops": {"list": {"s": ["Qmlhc0FkZA=="]}}, "epsilon": {"f": 0.0}, "num_args": {"i": "1"}, "padding": {"s": "VkFMSUQ="}, "T": {"type": "DT_FLOAT"}, "strides": {"list": {"i": ["1", "1", "1", "1"]}}, "dilations": {"list": {"i": ["1", "1", "1", "1"]}}}}, {"name": "StatefulPartitionedCall/functional_1/add_10/add", "op": "AddV2", "input": ["StatefulPartitionedCall/functional_1/RESNET_IDENTITY_BLOCK1_5__conv3_bn/FusedBatchNormV3", "StatefulPartitionedCall/functional_1/activation_30/Relu"], "attr": {"T": {"type": "DT_FLOAT"}}}, {"name": "StatefulPartitionedCall/functional_1/activation_33/Relu", "op": "Relu", "input": ["StatefulPartitionedCall/functional_1/add_10/add"], "attr": {"T": {"type": "DT_FLOAT"}}}, {"name": "StatefulPartitionedCall/functional_1/activation_34/Relu", "op": "_FusedConv2D", "input": ["StatefulPartitionedCall/functional_1/activation_33/Relu", "StatefulPartitionedCall/functional_1/RESNET_IDENTITY_BLOCK1_6__conv1/Conv2D_weights", "StatefulPartitionedCall/functional_1/RESNET_IDENTITY_BLOCK1_6__conv1/Conv2D_bn_offset"], "device": "/device:CPU:0", "attr": {"num_args": {"i": "1"}, "dilations": {"list": {"i": ["1", "1", "1", "1"]}}, "explicit_paddings": {"list": {}}, "padding": {"s": "VkFMSUQ="}, "strides": {"list": {"i": ["1", "1", "1", "1"]}}, "T": {"type": "DT_FLOAT"}, "use_cudnn_on_gpu": {"b": true}, "fused_ops": {"list": {"s": ["Qmlhc0FkZA==", "UmVsdQ=="]}}, "data_format": {"s": "TkhXQw=="}, "epsilon": {"f": 0.0}}}, {"name": "StatefulPartitionedCall/functional_1/activation_35/Relu", "op": "_FusedConv2D", "input": ["StatefulPartitionedCall/functional_1/activation_34/Relu", "StatefulPartitionedCall/functional_1/RESNET_IDENTITY_BLOCK1_6__conv2/Conv2D_weights", "StatefulPartitionedCall/functional_1/RESNET_IDENTITY_BLOCK1_6__conv2/Conv2D_bn_offset"], "device": "/device:CPU:0", "attr": {"strides": {"list": {"i": ["1", "1", "1", "1"]}}, "epsilon": {"f": 0.0}, "num_args": {"i": "1"}, "fused_ops": {"list": {"s": ["Qmlhc0FkZA==", "UmVsdQ=="]}}, "T": {"type": "DT_FLOAT"}, "data_format": {"s": "TkhXQw=="}, "dilations": {"list": {"i": ["1", "1", "1", "1"]}}, "use_cudnn_on_gpu": {"b": true}, "padding": {"s": "U0FNRQ=="}, "explicit_paddings": {"list": {}}}}, {"name": "StatefulPartitionedCall/functional_1/RESNET_IDENTITY_BLOCK1_6__conv3_bn/FusedBatchNormV3", "op": "_FusedConv2D", "input": ["StatefulPartitionedCall/functional_1/activation_35/Relu", "StatefulPartitionedCall/functional_1/RESNET_IDENTITY_BLOCK1_6__conv3/Conv2D_weights", "StatefulPartitionedCall/functional_1/RESNET_IDENTITY_BLOCK1_6__conv3/Conv2D_bn_offset"], "device": "/device:CPU:0", "attr": {"fused_ops": {"list": {"s": ["Qmlhc0FkZA=="]}}, "explicit_paddings": {"list": {}}, "use_cudnn_on_gpu": {"b": true}, "epsilon": {"f": 0.0}, "dilations": {"list": {"i": ["1", "1", "1", "1"]}}, "T": {"type": "DT_FLOAT"}, "padding": {"s": "VkFMSUQ="}, "strides": {"list": {"i": ["1", "1", "1", "1"]}}, "num_args": {"i": "1"}, "data_format": {"s": "TkhXQw=="}}}, {"name": "StatefulPartitionedCall/functional_1/add_11/add", "op": "AddV2", "input": ["StatefulPartitionedCall/functional_1/RESNET_IDENTITY_BLOCK1_6__conv3_bn/FusedBatchNormV3", "StatefulPartitionedCall/functional_1/activation_33/Relu"], "attr": {"T": {"type": "DT_FLOAT"}}}, {"name": "StatefulPartitionedCall/functional_1/activation_36/Relu", "op": "Relu", "input": ["StatefulPartitionedCall/functional_1/add_11/add"], "attr": {"T": {"type": "DT_FLOAT"}}}, {"name": "StatefulPartitionedCall/functional_1/activation_37/Relu", "op": "_FusedConv2D", "input": ["StatefulPartitionedCall/functional_1/activation_36/Relu", "StatefulPartitionedCall/functional_1/CONV2D_BLOCK1_0_conv/Conv2D_weights", "StatefulPartitionedCall/functional_1/CONV2D_BLOCK1_0_conv/Conv2D_bn_offset"], "device": "/device:CPU:0", "attr": {"use_cudnn_on_gpu": {"b": true}, "dilations": {"list": {"i": ["1", "1", "1", "1"]}}, "padding": {"s": "U0FNRQ=="}, "explicit_paddings": {"list": {}}, "strides": {"list": {"i": ["1", "1", "1", "1"]}}, "num_args": {"i": "1"}, "epsilon": {"f": 0.0}, "T": {"type": "DT_FLOAT"}, "data_format": {"s": "TkhXQw=="}, "fused_ops": {"list": {"s": ["Qmlhc0FkZA==", "UmVsdQ=="]}}}}, {"name": "StatefulPartitionedCall/functional_1/activation_38/Relu", "op": "_FusedConv2D", "input": ["StatefulPartitionedCall/functional_1/activation_36/Relu", "StatefulPartitionedCall/functional_1/RESNET_SIDENTITY_BLOCK2_conv1/Conv2D_weights", "StatefulPartitionedCall/functional_1/RESNET_SIDENTITY_BLOCK2_conv1/Conv2D_bn_offset"], "device": "/device:CPU:0", "attr": {"data_format": {"s": "TkhXQw=="}, "explicit_paddings": {"list": {}}, "num_args": {"i": "1"}, "fused_ops": {"list": {"s": ["Qmlhc0FkZA==", "UmVsdQ=="]}}, "padding": {"s": "VkFMSUQ="}, "strides": {"list": {"i": ["1", "2", "2", "1"]}}, "use_cudnn_on_gpu": {"b": true}, "dilations": {"list": {"i": ["1", "1", "1", "1"]}}, "epsilon": {"f": 0.0}, "T": {"type": "DT_FLOAT"}}}, {"name": "StatefulPartitionedCall/functional_1/RESNET_SIDENTITY_BLOCK2_conv4_bn/FusedBatchNormV3", "op": "_FusedConv2D", "input": ["StatefulPartitionedCall/functional_1/activation_36/Relu", "StatefulPartitionedCall/functional_1/RESNET_SIDENTITY_BLOCK2_conv4/Conv2D_weights", "StatefulPartitionedCall/functional_1/RESNET_SIDENTITY_BLOCK2_conv4/Conv2D_bn_offset"], "device": "/device:CPU:0", "attr": {"strides": {"list": {"i": ["1", "2", "2", "1"]}}, "T": {"type": "DT_FLOAT"}, "data_format": {"s": "TkhXQw=="}, "explicit_paddings": {"list": {}}, "use_cudnn_on_gpu": {"b": true}, "padding": {"s": "VkFMSUQ="}, "dilations": {"list": {"i": ["1", "1", "1", "1"]}}, "num_args": {"i": "1"}, "epsilon": {"f": 0.0}, "fused_ops": {"list": {"s": ["Qmlhc0FkZA=="]}}}}, {"name": "StatefulPartitionedCall/functional_1/up_sampling2d/Shape", "op": "Shape", "input": ["StatefulPartitionedCall/functional_1/activation_37/Relu"], "attr": {"T": {"type": "DT_FLOAT"}, "out_type": {"type": "DT_INT32"}}}, {"name": "StatefulPartitionedCall/functional_1/activation_39/Relu", "op": "_FusedConv2D", "input": ["StatefulPartitionedCall/functional_1/activation_38/Relu", "StatefulPartitionedCall/functional_1/RESNET_SIDENTITY_BLOCK2_conv2/Conv2D_weights", "StatefulPartitionedCall/functional_1/RESNET_SIDENTITY_BLOCK2_conv2/Conv2D_bn_offset"], "device": "/device:CPU:0", "attr": {"num_args": {"i": "1"}, "strides": {"list": {"i": ["1", "1", "1", "1"]}}, "fused_ops": {"list": {"s": ["Qmlhc0FkZA==", "UmVsdQ=="]}}, "dilations": {"list": {"i": ["1", "1", "1", "1"]}}, "explicit_paddings": {"list": {}}, "use_cudnn_on_gpu": {"b": true}, "padding": {"s": "U0FNRQ=="}, "epsilon": {"f": 0.0}, "T": {"type": "DT_FLOAT"}, "data_format": {"s": "TkhXQw=="}}}, {"name": "StatefulPartitionedCall/functional_1/up_sampling2d/strided_slice", "op": "StridedSlice", "input": ["StatefulPartitionedCall/functional_1/up_sampling2d/Shape", "StatefulPartitionedCall/functional_1/up_sampling2d/strided_slice/stack", "StatefulPartitionedCall/functional_1/up_sampling2d/strided_slice/stack_1", "StatefulPartitionedCall/functional_1/up_sampling2d/strided_slice/stack_2"], "attr": {"end_mask": {"i": "0"}, "Index": {"type": "DT_INT32"}, "new_axis_mask": {"i": "0"}, "shrink_axis_mask": {"i": "0"}, "T": {"type": "DT_INT32"}, "begin_mask": {"i": "0"}, "ellipsis_mask": {"i": "0"}}}, {"name": "StatefulPartitionedCall/functional_1/RESNET_SIDENTITY_BLOCK2_conv3_bn/FusedBatchNormV3", "op": "_FusedConv2D", "input": ["StatefulPartitionedCall/functional_1/activation_39/Relu", "StatefulPartitionedCall/functional_1/RESNET_SIDENTITY_BLOCK2_conv3/Conv2D_weights", "StatefulPartitionedCall/functional_1/RESNET_SIDENTITY_BLOCK2_conv3/Conv2D_bn_offset"], "device": "/device:CPU:0", "attr": {"epsilon": {"f": 0.0}, "use_cudnn_on_gpu": {"b": true}, "explicit_paddings": {"list": {}}, "strides": {"list": {"i": ["1", "1", "1", "1"]}}, "padding": {"s": "VkFMSUQ="}, "data_format": {"s": "TkhXQw=="}, "dilations": {"list": {"i": ["1", "1", "1", "1"]}}, "T": {"type": "DT_FLOAT"}, "num_args": {"i": "1"}, "fused_ops": {"list": {"s": ["Qmlhc0FkZA=="]}}}}, {"name": "StatefulPartitionedCall/functional_1/up_sampling2d/mul", "op": "Mul", "input": ["StatefulPartitionedCall/functional_1/up_sampling2d/strided_slice", "StatefulPartitionedCall/functional_1/up_sampling2d/Const"], "attr": {"T": {"type": "DT_INT32"}}}, {"name": "StatefulPartitionedCall/functional_1/add_12/add", "op": "AddV2", "input": ["StatefulPartitionedCall/functional_1/RESNET_SIDENTITY_BLOCK2_conv3_bn/FusedBatchNormV3", "StatefulPartitionedCall/functional_1/RESNET_SIDENTITY_BLOCK2_conv4_bn/FusedBatchNormV3"], "attr": {"T": {"type": "DT_FLOAT"}}}, {"name": "StatefulPartitionedCall/functional_1/up_sampling2d/resize/ResizeBilinear", "op": "ResizeBilinear", "input": ["StatefulPartitionedCall/functional_1/activation_37/Relu", "StatefulPartitionedCall/functional_1/up_sampling2d/mul"], "attr": {"half_pixel_centers": {"b": true}, "T": {"type": "DT_FLOAT"}, "align_corners": {"b": false}}}, {"name": "StatefulPartitionedCall/functional_1/activation_40/Relu", "op": "Relu", "input": ["StatefulPartitionedCall/functional_1/add_12/add"], "attr": {"T": {"type": "DT_FLOAT"}}}, {"name": "StatefulPartitionedCall/functional_1/add_31/add", "op": "AddV2", "input": ["StatefulPartitionedCall/functional_1/up_sampling2d/resize/ResizeBilinear", "StatefulPartitionedCall/functional_1/activation_115/Relu"], "attr": {"T": {"type": "DT_FLOAT"}}}, {"name": "StatefulPartitionedCall/functional_1/activation_41/Relu", "op": "_FusedConv2D", "input": ["StatefulPartitionedCall/functional_1/activation_40/Relu", "StatefulPartitionedCall/functional_1/RESNET_IDENTITY_BLOCK2_0__conv1/Conv2D_weights", "StatefulPartitionedCall/functional_1/RESNET_IDENTITY_BLOCK2_0__conv1/Conv2D_bn_offset"], "device": "/device:CPU:0", "attr": {"fused_ops": {"list": {"s": ["Qmlhc0FkZA==", "UmVsdQ=="]}}, "T": {"type": "DT_FLOAT"}, "padding": {"s": "VkFMSUQ="}, "use_cudnn_on_gpu": {"b": true}, "dilations": {"list": {"i": ["1", "1", "1", "1"]}}, "data_format": {"s": "TkhXQw=="}, "epsilon": {"f": 0.0}, "explicit_paddings": {"list": {}}, "num_args": {"i": "1"}, "strides": {"list": {"i": ["1", "1", "1", "1"]}}}}, {"name": "StatefulPartitionedCall/functional_1/activation_116/Relu", "op": "_FusedConv2D", "input": ["StatefulPartitionedCall/functional_1/add_31/add", "StatefulPartitionedCall/functional_1/rfe_conv1_0/Conv2D_weights", "StatefulPartitionedCall/functional_1/rfe_conv1_0/Conv2D_bn_offset"], "device": "/device:CPU:0", "attr": {"data_format": {"s": "TkhXQw=="}, "num_args": {"i": "1"}, "padding": {"s": "U0FNRQ=="}, "T": {"type": "DT_FLOAT"}, "dilations": {"list": {"i": ["1", "1", "1", "1"]}}, "epsilon": {"f": 0.0}, "explicit_paddings": {"list": {}}, "fused_ops": {"list": {"s": ["Qmlhc0FkZA==", "UmVsdQ=="]}}, "strides": {"list": {"i": ["1", "1", "1", "1"]}}, "use_cudnn_on_gpu": {"b": true}}}, {"name": "StatefulPartitionedCall/functional_1/activation_119/Relu", "op": "_FusedConv2D", "input": ["StatefulPartitionedCall/functional_1/add_31/add", "StatefulPartitionedCall/functional_1/rfe_conv1_1/Conv2D_weights", "StatefulPartitionedCall/functional_1/rfe_conv1_1/Conv2D_bn_offset"], "device": "/device:CPU:0", "attr": {"num_args": {"i": "1"}, "strides": {"list": {"i": ["1", "1", "1", "1"]}}, "data_format": {"s": "TkhXQw=="}, "use_cudnn_on_gpu": {"b": true}, "epsilon": {"f": 0.0}, "fused_ops": {"list": {"s": ["Qmlhc0FkZA==", "UmVsdQ=="]}}, "T": {"type": "DT_FLOAT"}, "padding": {"s": "U0FNRQ=="}, "explicit_paddings": {"list": {}}, "dilations": {"list": {"i": ["1", "1", "1", "1"]}}}}, {"name": "StatefulPartitionedCall/functional_1/activation_122/Relu", "op": "_FusedConv2D", "input": ["StatefulPartitionedCall/functional_1/add_31/add", "StatefulPartitionedCall/functional_1/rfe_conv1_2/Conv2D_weights", "StatefulPartitionedCall/functional_1/rfe_conv1_2/Conv2D_bn_offset"], "device": "/device:CPU:0", "attr": {"strides": {"list": {"i": ["1", "1", "1", "1"]}}, "num_args": {"i": "1"}, "data_format": {"s": "TkhXQw=="}, "epsilon": {"f": 0.0}, "fused_ops": {"list": {"s": ["Qmlhc0FkZA==", "UmVsdQ=="]}}, "dilations": {"list": {"i": ["1", "1", "1", "1"]}}, "use_cudnn_on_gpu": {"b": true}, "T": {"type": "DT_FLOAT"}, "padding": {"s": "U0FNRQ=="}, "explicit_paddings": {"list": {}}}}, {"name": "StatefulPartitionedCall/functional_1/activation_125/Relu", "op": "_FusedConv2D", "input": ["StatefulPartitionedCall/functional_1/add_31/add", "StatefulPartitionedCall/functional_1/rfe_conv1_3/Conv2D_weights", "StatefulPartitionedCall/functional_1/rfe_conv1_3/Conv2D_bn_offset"], "device": "/device:CPU:0", "attr": {"use_cudnn_on_gpu": {"b": true}, "padding": {"s": "U0FNRQ=="}, "strides": {"list": {"i": ["1", "1", "1", "1"]}}, "num_args": {"i": "1"}, "epsilon": {"f": 0.0}, "T": {"type": "DT_FLOAT"}, "dilations": {"list": {"i": ["1", "1", "1", "1"]}}, "fused_ops": {"list": {"s": ["Qmlhc0FkZA==", "UmVsdQ=="]}}, "explicit_paddings": {"list": {}}, "data_format": {"s": "TkhXQw=="}}}, {"name": "StatefulPartitionedCall/functional_1/activation_42/Relu", "op": "_FusedConv2D", "input": ["StatefulPartitionedCall/functional_1/activation_41/Relu", "StatefulPartitionedCall/functional_1/RESNET_IDENTITY_BLOCK2_0__conv2/Conv2D_weights", "StatefulPartitionedCall/functional_1/RESNET_IDENTITY_BLOCK2_0__conv2/Conv2D_bn_offset"], "device": "/device:CPU:0", "attr": {"padding": {"s": "U0FNRQ=="}, "epsilon": {"f": 0.0}, "fused_ops": {"list": {"s": ["Qmlhc0FkZA==", "UmVsdQ=="]}}, "use_cudnn_on_gpu": {"b": true}, "T": {"type": "DT_FLOAT"}, "explicit_paddings": {"list": {}}, "strides": {"list": {"i": ["1", "1", "1", "1"]}}, "data_format": {"s": "TkhXQw=="}, "num_args": {"i": "1"}, "dilations": {"list": {"i": ["1", "1", "1", "1"]}}}}, {"name": "StatefulPartitionedCall/functional_1/activation_117/Relu", "op": "_FusedConv2D", "input": ["StatefulPartitionedCall/functional_1/activation_116/Relu", "StatefulPartitionedCall/functional_1/rfe_conv2_0/Conv2D_weights", "StatefulPartitionedCall/functional_1/rfe_conv2_0/Conv2D_bn_offset"], "device": "/device:CPU:0", "attr": {"epsilon": {"f": 0.0}, "dilations": {"list": {"i": ["1", "1", "1", "1"]}}, "data_format": {"s": "TkhXQw=="}, "num_args": {"i": "1"}, "T": {"type": "DT_FLOAT"}, "strides": {"list": {"i": ["1", "1", "1", "1"]}}, "explicit_paddings": {"list": {}}, "padding": {"s": "U0FNRQ=="}, "fused_ops": {"list": {"s": ["Qmlhc0FkZA==", "UmVsdQ=="]}}, "use_cudnn_on_gpu": {"b": true}}}, {"name": "StatefulPartitionedCall/functional_1/activation_120/Relu", "op": "_FusedConv2D", "input": ["StatefulPartitionedCall/functional_1/activation_119/Relu", "StatefulPartitionedCall/functional_1/rfe_conv2_1/Conv2D_weights", "StatefulPartitionedCall/functional_1/rfe_conv2_1/Conv2D_bn_offset"], "device": "/device:CPU:0", "attr": {"fused_ops": {"list": {"s": ["Qmlhc0FkZA==", "UmVsdQ=="]}}, "num_args": {"i": "1"}, "data_format": {"s": "TkhXQw=="}, "use_cudnn_on_gpu": {"b": true}, "explicit_paddings": {"list": {}}, "epsilon": {"f": 0.0}, "T": {"type": "DT_FLOAT"}, "dilations": {"list": {"i": ["1", "1", "1", "1"]}}, "padding": {"s": "U0FNRQ=="}, "strides": {"list": {"i": ["1", "1", "1", "1"]}}}}, {"name": "StatefulPartitionedCall/functional_1/activation_123/Relu", "op": "_FusedConv2D", "input": ["StatefulPartitionedCall/functional_1/activation_122/Relu", "StatefulPartitionedCall/functional_1/rfe_conv2_2/Conv2D_weights", "StatefulPartitionedCall/functional_1/rfe_conv2_2/Conv2D_bn_offset"], "device": "/device:CPU:0", "attr": {"fused_ops": {"list": {"s": ["Qmlhc0FkZA==", "UmVsdQ=="]}}, "data_format": {"s": "TkhXQw=="}, "T": {"type": "DT_FLOAT"}, "dilations": {"list": {"i": ["1", "1", "1", "1"]}}, "use_cudnn_on_gpu": {"b": true}, "num_args": {"i": "1"}, "explicit_paddings": {"list": {}}, "epsilon": {"f": 0.0}, "strides": {"list": {"i": ["1", "1", "1", "1"]}}, "padding": {"s": "U0FNRQ=="}}}, {"name": "StatefulPartitionedCall/functional_1/activation_126/Relu", "op": "_FusedConv2D", "input": ["StatefulPartitionedCall/functional_1/activation_125/Relu", "StatefulPartitionedCall/functional_1/rfe_conv2_3/Conv2D_weights", "StatefulPartitionedCall/functional_1/rfe_conv2_3/Conv2D_bn_offset"], "device": "/device:CPU:0", "attr": {"T": {"type": "DT_FLOAT"}, "fused_ops": {"list": {"s": ["Qmlhc0FkZA==", "UmVsdQ=="]}}, "use_cudnn_on_gpu": {"b": true}, "dilations": {"list": {"i": ["1", "1", "1", "1"]}}, "explicit_paddings": {"list": {}}, "padding": {"s": "U0FNRQ=="}, "num_args": {"i": "1"}, "strides": {"list": {"i": ["1", "1", "1", "1"]}}, "data_format": {"s": "TkhXQw=="}, "epsilon": {"f": 0.0}}}, {"name": "StatefulPartitionedCall/functional_1/RESNET_IDENTITY_BLOCK2_0__conv3_bn/FusedBatchNormV3", "op": "_FusedConv2D", "input": ["StatefulPartitionedCall/functional_1/activation_42/Relu", "StatefulPartitionedCall/functional_1/RESNET_IDENTITY_BLOCK2_0__conv3/Conv2D_weights", "StatefulPartitionedCall/functional_1/RESNET_IDENTITY_BLOCK2_0__conv3/Conv2D_bn_offset"], "device": "/device:CPU:0", "attr": {"padding": {"s": "VkFMSUQ="}, "epsilon": {"f": 0.0}, "dilations": {"list": {"i": ["1", "1", "1", "1"]}}, "T": {"type": "DT_FLOAT"}, "use_cudnn_on_gpu": {"b": true}, "strides": {"list": {"i": ["1", "1", "1", "1"]}}, "num_args": {"i": "1"}, "data_format": {"s": "TkhXQw=="}, "fused_ops": {"list": {"s": ["Qmlhc0FkZA=="]}}, "explicit_paddings": {"list": {}}}}, {"name": "StatefulPartitionedCall/functional_1/activation_118/Relu", "op": "_FusedConv2D", "input": ["StatefulPartitionedCall/functional_1/activation_117/Relu", "StatefulPartitionedCall/functional_1/rfe_conv3_0/Conv2D_weights", "StatefulPartitionedCall/functional_1/rfe_conv3_0/Conv2D_bn_offset"], "device": "/device:CPU:0", "attr": {"explicit_paddings": {"list": {}}, "strides": {"list": {"i": ["1", "1", "1", "1"]}}, "dilations": {"list": {"i": ["1", "1", "1", "1"]}}, "padding": {"s": "U0FNRQ=="}, "num_args": {"i": "1"}, "epsilon": {"f": 0.0}, "use_cudnn_on_gpu": {"b": true}, "data_format": {"s": "TkhXQw=="}, "T": {"type": "DT_FLOAT"}, "fused_ops": {"list": {"s": ["Qmlhc0FkZA==", "UmVsdQ=="]}}}}, {"name": "StatefulPartitionedCall/functional_1/activation_121/Relu", "op": "_FusedConv2D", "input": ["StatefulPartitionedCall/functional_1/activation_120/Relu", "StatefulPartitionedCall/functional_1/rfe_conv3_1/Conv2D_weights", "StatefulPartitionedCall/functional_1/rfe_conv3_1/Conv2D_bn_offset"], "device": "/device:CPU:0", "attr": {"num_args": {"i": "1"}, "T": {"type": "DT_FLOAT"}, "epsilon": {"f": 0.0}, "explicit_paddings": {"list": {}}, "dilations": {"list": {"i": ["1", "1", "1", "1"]}}, "fused_ops": {"list": {"s": ["Qmlhc0FkZA==", "UmVsdQ=="]}}, "use_cudnn_on_gpu": {"b": true}, "padding": {"s": "U0FNRQ=="}, "strides": {"list": {"i": ["1", "1", "1", "1"]}}, "data_format": {"s": "TkhXQw=="}}}, {"name": "StatefulPartitionedCall/functional_1/activation_124/Relu", "op": "_FusedConv2D", "input": ["StatefulPartitionedCall/functional_1/activation_123/Relu", "StatefulPartitionedCall/functional_1/rfe_conv3_2/Conv2D_weights", "StatefulPartitionedCall/functional_1/rfe_conv3_2/Conv2D_bn_offset"], "device": "/device:CPU:0", "attr": {"num_args": {"i": "1"}, "padding": {"s": "U0FNRQ=="}, "T": {"type": "DT_FLOAT"}, "use_cudnn_on_gpu": {"b": true}, "epsilon": {"f": 0.0}, "data_format": {"s": "TkhXQw=="}, "dilations": {"list": {"i": ["1", "1", "1", "1"]}}, "explicit_paddings": {"list": {}}, "strides": {"list": {"i": ["1", "1", "1", "1"]}}, "fused_ops": {"list": {"s": ["Qmlhc0FkZA==", "UmVsdQ=="]}}}}, {"name": "StatefulPartitionedCall/functional_1/activation_127/Relu", "op": "_FusedConv2D", "input": ["StatefulPartitionedCall/functional_1/activation_126/Relu", "StatefulPartitionedCall/functional_1/rfe_conv3_3/Conv2D_weights", "StatefulPartitionedCall/functional_1/rfe_conv3_3/Conv2D_bn_offset"], "device": "/device:CPU:0", "attr": {"epsilon": {"f": 0.0}, "num_args": {"i": "1"}, "dilations": {"list": {"i": ["1", "1", "1", "1"]}}, "strides": {"list": {"i": ["1", "1", "1", "1"]}}, "padding": {"s": "U0FNRQ=="}, "explicit_paddings": {"list": {}}, "fused_ops": {"list": {"s": ["Qmlhc0FkZA==", "UmVsdQ=="]}}, "T": {"type": "DT_FLOAT"}, "data_format": {"s": "TkhXQw=="}, "use_cudnn_on_gpu": {"b": true}}}, {"name": "StatefulPartitionedCall/functional_1/add_13/add", "op": "AddV2", "input": ["StatefulPartitionedCall/functional_1/RESNET_IDENTITY_BLOCK2_0__conv3_bn/FusedBatchNormV3", "StatefulPartitionedCall/functional_1/activation_40/Relu"], "attr": {"T": {"type": "DT_FLOAT"}}}, {"name": "StatefulPartitionedCall/functional_1/tf_op_layer_concat_8/concat_8", "op": "ConcatV2", "input": ["StatefulPartitionedCall/functional_1/activation_118/Relu", "StatefulPartitionedCall/functional_1/activation_121/Relu", "StatefulPartitionedCall/functional_1/activation_124/Relu", "StatefulPartitionedCall/functional_1/activation_127/Relu", "StatefulPartitionedCall/functional_1/tf_op_layer_concat_8/concat_8/axis"], "attr": {"N": {"i": "4"}, "T": {"type": "DT_FLOAT"}, "Tidx": {"type": "DT_INT32"}, "_cloned": {"b": true}}}, {"name": "StatefulPartitionedCall/functional_1/activation_43/Relu", "op": "Relu", "input": ["StatefulPartitionedCall/functional_1/add_13/add"], "attr": {"T": {"type": "DT_FLOAT"}}}, {"name": "StatefulPartitionedCall/functional_1/activation_128/Relu", "op": "_FusedConv2D", "input": ["StatefulPartitionedCall/functional_1/tf_op_layer_concat_8/concat_8", "StatefulPartitionedCall/functional_1/rferfe_conv4/Conv2D_weights", "StatefulPartitionedCall/functional_1/rferfe_conv4/Conv2D_bn_offset"], "device": "/device:CPU:0", "attr": {"T": {"type": "DT_FLOAT"}, "num_args": {"i": "1"}, "fused_ops": {"list": {"s": ["Qmlhc0FkZA==", "UmVsdQ=="]}}, "data_format": {"s": "TkhXQw=="}, "use_cudnn_on_gpu": {"b": true}, "explicit_paddings": {"list": {}}, "strides": {"list": {"i": ["1", "1", "1", "1"]}}, "padding": {"s": "U0FNRQ=="}, "dilations": {"list": {"i": ["1", "1", "1", "1"]}}, "epsilon": {"f": 0.0}}}, {"name": "StatefulPartitionedCall/functional_1/activation_44/Relu", "op": "_FusedConv2D", "input": ["StatefulPartitionedCall/functional_1/activation_43/Relu", "StatefulPartitionedCall/functional_1/RESNET_IDENTITY_BLOCK2_1__conv1/Conv2D_weights", "StatefulPartitionedCall/functional_1/RESNET_IDENTITY_BLOCK2_1__conv1/Conv2D_bn_offset"], "device": "/device:CPU:0", "attr": {"data_format": {"s": "TkhXQw=="}, "epsilon": {"f": 0.0}, "padding": {"s": "VkFMSUQ="}, "dilations": {"list": {"i": ["1", "1", "1", "1"]}}, "T": {"type": "DT_FLOAT"}, "explicit_paddings": {"list": {}}, "use_cudnn_on_gpu": {"b": true}, "strides": {"list": {"i": ["1", "1", "1", "1"]}}, "num_args": {"i": "1"}, "fused_ops": {"list": {"s": ["Qmlhc0FkZA==", "UmVsdQ=="]}}}}, {"name": "StatefulPartitionedCall/functional_1/add_32/add", "op": "AddV2", "input": ["StatefulPartitionedCall/functional_1/activation_128/Relu", "StatefulPartitionedCall/functional_1/add_31/add"], "attr": {"T": {"type": "DT_FLOAT"}}}, {"name": "StatefulPartitionedCall/functional_1/activation_45/Relu", "op": "_FusedConv2D", "input": ["StatefulPartitionedCall/functional_1/activation_44/Relu", "StatefulPartitionedCall/functional_1/RESNET_IDENTITY_BLOCK2_1__conv2/Conv2D_weights", "StatefulPartitionedCall/functional_1/RESNET_IDENTITY_BLOCK2_1__conv2/Conv2D_bn_offset"], "device": "/device:CPU:0", "attr": {"fused_ops": {"list": {"s": ["Qmlhc0FkZA==", "UmVsdQ=="]}}, "dilations": {"list": {"i": ["1", "1", "1", "1"]}}, "data_format": {"s": "TkhXQw=="}, "use_cudnn_on_gpu": {"b": true}, "epsilon": {"f": 0.0}, "num_args": {"i": "1"}, "strides": {"list": {"i": ["1", "1", "1", "1"]}}, "explicit_paddings": {"list": {}}, "T": {"type": "DT_FLOAT"}, "padding": {"s": "U0FNRQ=="}}}, {"name": "StatefulPartitionedCall/functional_1/conv2d_2/BiasAdd", "op": "_FusedConv2D", "input": ["StatefulPartitionedCall/functional_1/add_32/add", "unknown_783", "unknown_784"], "device": "/device:CPU:0", "attr": {"num_args": {"i": "1"}, "epsilon": {"f": 0.0}, "fused_ops": {"list": {"s": ["Qmlhc0FkZA=="]}}, "padding": {"s": "U0FNRQ=="}, "dilations": {"list": {"i": ["1", "1", "1", "1"]}}, "strides": {"list": {"i": ["1", "1", "1", "1"]}}, "explicit_paddings": {"list": {}}, "T": {"type": "DT_FLOAT"}, "data_format": {"s": "TkhXQw=="}, "use_cudnn_on_gpu": {"b": true}}}, {"name": "StatefulPartitionedCall/functional_1/RESNET_IDENTITY_BLOCK2_1__conv3_bn/FusedBatchNormV3", "op": "_FusedConv2D", "input": ["StatefulPartitionedCall/functional_1/activation_45/Relu", "StatefulPartitionedCall/functional_1/RESNET_IDENTITY_BLOCK2_1__conv3/Conv2D_weights", "StatefulPartitionedCall/functional_1/RESNET_IDENTITY_BLOCK2_1__conv3/Conv2D_bn_offset"], "device": "/device:CPU:0", "attr": {"use_cudnn_on_gpu": {"b": true}, "explicit_paddings": {"list": {}}, "fused_ops": {"list": {"s": ["Qmlhc0FkZA=="]}}, "epsilon": {"f": 0.0}, "dilations": {"list": {"i": ["1", "1", "1", "1"]}}, "padding": {"s": "VkFMSUQ="}, "T": {"type": "DT_FLOAT"}, "num_args": {"i": "1"}, "strides": {"list": {"i": ["1", "1", "1", "1"]}}, "data_format": {"s": "TkhXQw=="}}}, {"name": "StatefulPartitionedCall/functional_1/tf_op_layer_Reshape_2/Reshape_2", "op": "Reshape", "input": ["StatefulPartitionedCall/functional_1/conv2d_2/BiasAdd", "StatefulPartitionedCall/functional_1/tf_op_layer_Reshape_2/Reshape_2/shape"], "attr": {"Tshape": {"type": "DT_INT32"}, "_cloned": {"b": true}, "T": {"type": "DT_FLOAT"}}}, {"name": "StatefulPartitionedCall/functional_1/add_14/add", "op": "AddV2", "input": ["StatefulPartitionedCall/functional_1/RESNET_IDENTITY_BLOCK2_1__conv3_bn/FusedBatchNormV3", "StatefulPartitionedCall/functional_1/activation_43/Relu"], "attr": {"T": {"type": "DT_FLOAT"}}}, {"name": "StatefulPartitionedCall/functional_1/tf_op_layer_split_2/split_2", "op": "SplitV", "input": ["StatefulPartitionedCall/functional_1/tf_op_layer_Reshape_2/Reshape_2", "StatefulPartitionedCall/functional_1/tf_op_layer_split_2/split_2/size_splits", "StatefulPartitionedCall/functional_1/tf_op_layer_split_2/split_2/split_dim"], "attr": {"Tlen": {"type": "DT_INT32"}, "num_split": {"i": "2"}, "T": {"type": "DT_FLOAT"}, "_cloned": {"b": true}}}, {"name": "StatefulPartitionedCall/functional_1/activation_46/Relu", "op": "Relu", "input": ["StatefulPartitionedCall/functional_1/add_14/add"], "attr": {"T": {"type": "DT_FLOAT"}}}, {"name": "StatefulPartitionedCall/functional_1/activation_129/Softmax", "op": "Softmax", "input": ["StatefulPartitionedCall/functional_1/tf_op_layer_split_2/split_2"], "attr": {"T": {"type": "DT_FLOAT"}}}, {"name": "StatefulPartitionedCall/functional_1/activation_47/Relu", "op": "_FusedConv2D", "input": ["StatefulPartitionedCall/functional_1/activation_46/Relu", "StatefulPartitionedCall/functional_1/RESNET_IDENTITY_BLOCK2_2__conv1/Conv2D_weights", "StatefulPartitionedCall/functional_1/RESNET_IDENTITY_BLOCK2_2__conv1/Conv2D_bn_offset"], "device": "/device:CPU:0", "attr": {"fused_ops": {"list": {"s": ["Qmlhc0FkZA==", "UmVsdQ=="]}}, "data_format": {"s": "TkhXQw=="}, "epsilon": {"f": 0.0}, "T": {"type": "DT_FLOAT"}, "strides": {"list": {"i": ["1", "1", "1", "1"]}}, "num_args": {"i": "1"}, "padding": {"s": "VkFMSUQ="}, "dilations": {"list": {"i": ["1", "1", "1", "1"]}}, "explicit_paddings": {"list": {}}, "use_cudnn_on_gpu": {"b": true}}}, {"name": "StatefulPartitionedCall/functional_1/tf_op_layer_concat_10/concat_10", "op": "ConcatV2", "input": ["StatefulPartitionedCall/functional_1/activation_129/Softmax", "StatefulPartitionedCall/functional_1/tf_op_layer_split_2/split_2:1", "StatefulPartitionedCall/functional_1/tf_op_layer_concat_10/concat_10/axis"], "attr": {"_cloned": {"b": true}, "Tidx": {"type": "DT_INT32"}, "N": {"i": "2"}, "T": {"type": "DT_FLOAT"}}}, {"name": "StatefulPartitionedCall/functional_1/activation_48/Relu", "op": "_FusedConv2D", "input": ["StatefulPartitionedCall/functional_1/activation_47/Relu", "StatefulPartitionedCall/functional_1/RESNET_IDENTITY_BLOCK2_2__conv2/Conv2D_weights", "StatefulPartitionedCall/functional_1/RESNET_IDENTITY_BLOCK2_2__conv2/Conv2D_bn_offset"], "device": "/device:CPU:0", "attr": {"T": {"type": "DT_FLOAT"}, "explicit_paddings": {"list": {}}, "num_args": {"i": "1"}, "padding": {"s": "U0FNRQ=="}, "strides": {"list": {"i": ["1", "1", "1", "1"]}}, "dilations": {"list": {"i": ["1", "1", "1", "1"]}}, "fused_ops": {"list": {"s": ["Qmlhc0FkZA==", "UmVsdQ=="]}}, "epsilon": {"f": 0.0}, "data_format": {"s": "TkhXQw=="}, "use_cudnn_on_gpu": {"b": true}}}, {"name": "StatefulPartitionedCall/functional_1/RESNET_IDENTITY_BLOCK2_2__conv3_bn/FusedBatchNormV3", "op": "_FusedConv2D", "input": ["StatefulPartitionedCall/functional_1/activation_48/Relu", "StatefulPartitionedCall/functional_1/RESNET_IDENTITY_BLOCK2_2__conv3/Conv2D_weights", "StatefulPartitionedCall/functional_1/RESNET_IDENTITY_BLOCK2_2__conv3/Conv2D_bn_offset"], "device": "/device:CPU:0", "attr": {"explicit_paddings": {"list": {}}, "padding": {"s": "VkFMSUQ="}, "fused_ops": {"list": {"s": ["Qmlhc0FkZA=="]}}, "epsilon": {"f": 0.0}, "use_cudnn_on_gpu": {"b": true}, "num_args": {"i": "1"}, "T": {"type": "DT_FLOAT"}, "dilations": {"list": {"i": ["1", "1", "1", "1"]}}, "strides": {"list": {"i": ["1", "1", "1", "1"]}}, "data_format": {"s": "TkhXQw=="}}}, {"name": "StatefulPartitionedCall/functional_1/add_15/add", "op": "AddV2", "input": ["StatefulPartitionedCall/functional_1/RESNET_IDENTITY_BLOCK2_2__conv3_bn/FusedBatchNormV3", "StatefulPartitionedCall/functional_1/activation_46/Relu"], "attr": {"T": {"type": "DT_FLOAT"}}}, {"name": "StatefulPartitionedCall/functional_1/activation_49/Relu", "op": "Relu", "input": ["StatefulPartitionedCall/functional_1/add_15/add"], "attr": {"T": {"type": "DT_FLOAT"}}}, {"name": "StatefulPartitionedCall/functional_1/activation_50/Relu", "op": "_FusedConv2D", "input": ["StatefulPartitionedCall/functional_1/activation_49/Relu", "StatefulPartitionedCall/functional_1/RESNET_IDENTITY_BLOCK2_3__conv1/Conv2D_weights", "StatefulPartitionedCall/functional_1/RESNET_IDENTITY_BLOCK2_3__conv1/Conv2D_bn_offset"], "device": "/device:CPU:0", "attr": {"num_args": {"i": "1"}, "use_cudnn_on_gpu": {"b": true}, "strides": {"list": {"i": ["1", "1", "1", "1"]}}, "fused_ops": {"list": {"s": ["Qmlhc0FkZA==", "UmVsdQ=="]}}, "T": {"type": "DT_FLOAT"}, "data_format": {"s": "TkhXQw=="}, "padding": {"s": "VkFMSUQ="}, "dilations": {"list": {"i": ["1", "1", "1", "1"]}}, "explicit_paddings": {"list": {}}, "epsilon": {"f": 0.0}}}, {"name": "StatefulPartitionedCall/functional_1/activation_51/Relu", "op": "_FusedConv2D", "input": ["StatefulPartitionedCall/functional_1/activation_50/Relu", "StatefulPartitionedCall/functional_1/RESNET_IDENTITY_BLOCK2_3__conv2/Conv2D_weights", "StatefulPartitionedCall/functional_1/RESNET_IDENTITY_BLOCK2_3__conv2/Conv2D_bn_offset"], "device": "/device:CPU:0", "attr": {"strides": {"list": {"i": ["1", "1", "1", "1"]}}, "dilations": {"list": {"i": ["1", "1", "1", "1"]}}, "padding": {"s": "U0FNRQ=="}, "fused_ops": {"list": {"s": ["Qmlhc0FkZA==", "UmVsdQ=="]}}, "num_args": {"i": "1"}, "data_format": {"s": "TkhXQw=="}, "T": {"type": "DT_FLOAT"}, "explicit_paddings": {"list": {}}, "use_cudnn_on_gpu": {"b": true}, "epsilon": {"f": 0.0}}}, {"name": "StatefulPartitionedCall/functional_1/RESNET_IDENTITY_BLOCK2_3__conv3_bn/FusedBatchNormV3", "op": "_FusedConv2D", "input": ["StatefulPartitionedCall/functional_1/activation_51/Relu", "StatefulPartitionedCall/functional_1/RESNET_IDENTITY_BLOCK2_3__conv3/Conv2D_weights", "StatefulPartitionedCall/functional_1/RESNET_IDENTITY_BLOCK2_3__conv3/Conv2D_bn_offset"], "device": "/device:CPU:0", "attr": {"fused_ops": {"list": {"s": ["Qmlhc0FkZA=="]}}, "data_format": {"s": "TkhXQw=="}, "use_cudnn_on_gpu": {"b": true}, "explicit_paddings": {"list": {}}, "strides": {"list": {"i": ["1", "1", "1", "1"]}}, "epsilon": {"f": 0.0}, "T": {"type": "DT_FLOAT"}, "padding": {"s": "VkFMSUQ="}, "dilations": {"list": {"i": ["1", "1", "1", "1"]}}, "num_args": {"i": "1"}}}, {"name": "StatefulPartitionedCall/functional_1/add_16/add", "op": "AddV2", "input": ["StatefulPartitionedCall/functional_1/RESNET_IDENTITY_BLOCK2_3__conv3_bn/FusedBatchNormV3", "StatefulPartitionedCall/functional_1/activation_49/Relu"], "attr": {"T": {"type": "DT_FLOAT"}}}, {"name": "StatefulPartitionedCall/functional_1/activation_52/Relu", "op": "Relu", "input": ["StatefulPartitionedCall/functional_1/add_16/add"], "attr": {"T": {"type": "DT_FLOAT"}}}, {"name": "StatefulPartitionedCall/functional_1/activation_53/Relu", "op": "_FusedConv2D", "input": ["StatefulPartitionedCall/functional_1/activation_52/Relu", "StatefulPartitionedCall/functional_1/RESNET_IDENTITY_BLOCK2_4__conv1/Conv2D_weights", "StatefulPartitionedCall/functional_1/RESNET_IDENTITY_BLOCK2_4__conv1/Conv2D_bn_offset"], "device": "/device:CPU:0", "attr": {"padding": {"s": "VkFMSUQ="}, "dilations": {"list": {"i": ["1", "1", "1", "1"]}}, "fused_ops": {"list": {"s": ["Qmlhc0FkZA==", "UmVsdQ=="]}}, "epsilon": {"f": 0.0}, "data_format": {"s": "TkhXQw=="}, "num_args": {"i": "1"}, "use_cudnn_on_gpu": {"b": true}, "strides": {"list": {"i": ["1", "1", "1", "1"]}}, "explicit_paddings": {"list": {}}, "T": {"type": "DT_FLOAT"}}}, {"name": "StatefulPartitionedCall/functional_1/activation_54/Relu", "op": "_FusedConv2D", "input": ["StatefulPartitionedCall/functional_1/activation_53/Relu", "StatefulPartitionedCall/functional_1/RESNET_IDENTITY_BLOCK2_4__conv2/Conv2D_weights", "StatefulPartitionedCall/functional_1/RESNET_IDENTITY_BLOCK2_4__conv2/Conv2D_bn_offset"], "device": "/device:CPU:0", "attr": {"dilations": {"list": {"i": ["1", "1", "1", "1"]}}, "data_format": {"s": "TkhXQw=="}, "fused_ops": {"list": {"s": ["Qmlhc0FkZA==", "UmVsdQ=="]}}, "use_cudnn_on_gpu": {"b": true}, "strides": {"list": {"i": ["1", "1", "1", "1"]}}, "num_args": {"i": "1"}, "explicit_paddings": {"list": {}}, "padding": {"s": "U0FNRQ=="}, "T": {"type": "DT_FLOAT"}, "epsilon": {"f": 0.0}}}, {"name": "StatefulPartitionedCall/functional_1/RESNET_IDENTITY_BLOCK2_4__conv3_bn/FusedBatchNormV3", "op": "_FusedConv2D", "input": ["StatefulPartitionedCall/functional_1/activa…
}, {"name": "StatefulPartitionedCall/functional_1/tf_op_layer_Mul_6/Mul_6", "op": "Mul", "input": ["StatefulPartitionedCall/functional_1/tf_op_layer_Mul_6/Mul_6/x", "StatefulPartitionedCall/functional_1/tf_op_layer_Mul_2/Mul_2"], "attr": {"T": {"type": "DT_FLOAT"}, "_cloned": {"b": true}}}, {"name": "StatefulPartitionedCall/functional_1/tf_op_layer_Mul_5/Mul_5", "op": "Mul", "input": ["StatefulPartitionedCall/functional_1/tf_op_layer_Mul_5/Mul_5/x", "StatefulPartitionedCall/functional_1/tf_op_layer_Mul_3/Mul_3"], "attr": {"T": {"type": "DT_FLOAT"}, "_cloned": {"b": true}}}, {"name": "StatefulPartitionedCall/functional_1/tf_op_layer_Mul_7/Mul_7", "op": "Mul", "input": ["StatefulPartitionedCall/functional_1/tf_op_layer_Mul_7/Mul_7/x", "StatefulPartitionedCall/functional_1/tf_op_layer_Mul_3/Mul_3"], "attr": {"_cloned": {"b": true}, "T": {"type": "DT_FLOAT"}}}, {"name": "StatefulPartitionedCall/functional_1/tf_op_layer_Mul_8/Mul_8", "op": "Mul", "input": ["StatefulPartitionedCall/functional_1/tf_op_layer_Max/Max", "StatefulPartitionedCall/functional_1/tf_op_layer_SelectV2/SelectV2"], "attr": {"_cloned": {"b": true}, "T": {"type": "DT_FLOAT"}}}, {"name": "StatefulPartitionedCall/functional_1/tf_op_layer_Sub/Sub", "op": "Sub", "input": ["StatefulPartitionedCall/functional_1/tf_op_layer_AddV2/AddV2", "StatefulPartitionedCall/functional_1/tf_op_layer_Mul_4/Mul_4"], "attr": {"T": {"type": "DT_FLOAT"}, "_cloned": {"b": true}}}, {"name": "StatefulPartitionedCall/functional_1/tf_op_layer_AddV2_2/AddV2_2", "op": "AddV2", "input": ["StatefulPartitionedCall/functional_1/tf_op_layer_AddV2/AddV2", "StatefulPartitionedCall/functional_1/tf_op_layer_Mul_6/Mul_6"], "attr": {"T": {"type": "DT_FLOAT"}, "_cloned": {"b": true}}}, {"name": "StatefulPartitionedCall/functional_1/tf_op_layer_Sub_1/Sub_1", "op": "Sub", "input": ["StatefulPartitionedCall/functional_1/tf_op_layer_AddV2_1/AddV2_1", "StatefulPartitionedCall/functional_1/tf_op_layer_Mul_5/Mul_5"], "attr": {"T": {"type": "DT_FLOAT"}, "_cloned": {"b": true}}}, {"name": "StatefulPartitionedCall/functional_1/tf_op_layer_AddV2_3/AddV2_3", "op": "AddV2", "input": ["StatefulPartitionedCall/functional_1/tf_op_layer_AddV2_1/AddV2_1", "StatefulPartitionedCall/functional_1/tf_op_layer_Mul_7/Mul_7"], "attr": {"T": {"type": "DT_FLOAT"}, "_cloned": {"b": true}}}, {"name": "StatefulPartitionedCall/functional_1/tf_op_layer_concat_12/concat_12", "op": "ConcatV2", "input": ["StatefulPartitionedCall/functional_1/tf_op_layer_Sub/Sub", "StatefulPartitionedCall/functional_1/tf_op_layer_Sub_1/Sub_1", "StatefulPartitionedCall/functional_1/tf_op_layer_AddV2_2/AddV2_2", "StatefulPartitionedCall/functional_1/tf_op_layer_AddV2_3/AddV2_3", "StatefulPartitionedCall/functional_1/tf_op_layer_concat_12/concat_12/axis"], "attr": {"T": {"type": "DT_FLOAT"}, "_cloned": {"b": true}, "Tidx": {"type": "DT_INT32"}, "N": {"i": "4"}}}, {"name": "StatefulPartitionedCall/functional_1/tf_op_layer_NonMaxSuppressionV4/NonMaxSuppressionV4", "op": "NonMaxSuppressionV4", "input": ["StatefulPartitionedCall/functional_1/tf_op_layer_concat_12/concat_12", "StatefulPartitionedCall/functional_1/tf_op_layer_Mul_8/Mul_8", "StatefulPartitionedCall/functional_1/tf_op_layer_NonMaxSuppressionV4/NonMaxSuppressionV4/max_output_size", "StatefulPartitionedCall/functional_1/tf_op_layer_NonMaxSuppressionV4/NonMaxSuppressionV4/iou_threshold", "StatefulPartitionedCall/functional_1/tf_op_layer_NonMaxSuppressionV4/NonMaxSuppressionV4/score_threshold"], "attr": {"_cloned": {"b": true}, "T": {"type": "DT_FLOAT"}, "T_threshold": {"type": "DT_FLOAT"}, "pad_to_max_output_size": {"b": true}}}, {"name": "StatefulPartitionedCall/functional_1/tf_op_layer_GatherV2/GatherV2", "op": "GatherV2", "input": ["StatefulPartitionedCall/functional_1/tf_op_layer_concat_12/concat_12", "StatefulPartitionedCall/functional_1/tf_op_layer_NonMaxSuppressionV4/NonMaxSuppressionV4", "StatefulPartitionedCall/functional_1/tf_op_layer_GatherV2/GatherV2/axis"], "attr": {"Tparams": {"type": "DT_FLOAT"}, "Tindices": {"type": "DT_INT32"}, "Taxis": {"type": "DT_INT32"}, "batch_dims": {"i": "0"}, "_cloned": {"b": true}}}, {"name": "StatefulPartitionedCall/functional_1/tf_op_layer_ExpandDims_1/ExpandDims_1", "op": "ExpandDims", "input": ["StatefulPartitionedCall/functional_1/tf_op_layer_NonMaxSuppressionV4/NonMaxSuppressionV4:1", "StatefulPartitionedCall/functional_1/tf_op_layer_ExpandDims_1/ExpandDims_1/dim"], "attr": {"T": {"type": "DT_INT32"}, "Tdim": {"type": "DT_INT32"}, "_cloned": {"b": true}}}, {"name": "StatefulPartitionedCall/functional_1/tf_op_layer_GatherV2_1/GatherV2_1", "op": "GatherV2", "input": ["StatefulPartitionedCall/functional_1/tf_op_layer_ArgMax/ArgMax", "StatefulPartitionedCall/functional_1/tf_op_layer_NonMaxSuppressionV4/NonMaxSuppressionV4", "StatefulPartitionedCall/functional_1/tf_op_layer_GatherV2_1/GatherV2_1/axis"], "attr": {"Taxis": {"type": "DT_INT32"}, "_cloned": {"b": true}, "Tindices": {"type": "DT_INT32"}, "Tparams": {"type": "DT_INT64"}, "batch_dims": {"i": "0"}}}, {"name": "StatefulPartitionedCall/functional_1/tf_op_layer_Cast/Cast", "op": "Cast", "input": ["StatefulPartitionedCall/functional_1/tf_op_layer_GatherV2/GatherV2"], "attr": {"_cloned": {"b": true}, "SrcT": {"type": "DT_FLOAT"}, "DstT": {"type": "DT_INT32"}, "Truncate": {"b": false}}}, {"name": "Identity", "op": "Identity", "input": ["StatefulPartitionedCall/functional_1/tf_op_layer_ExpandDims_1/ExpandDims_1"], "attr": {"T": {"type": "DT_INT32"}}}, {"name": "StatefulPartitionedCall/functional_1/tf_op_layer_ExpandDims/ExpandDims", "op": "ExpandDims", "input": ["StatefulPartitionedCall/functional_1/tf_op_layer_GatherV2_1/GatherV2_1", "StatefulPartitionedCall/functional_1/tf_op_layer_ExpandDims/ExpandDims/dim"], "attr": {"_cloned": {"b": true}, "T": {"type": "DT_INT64"}, "Tdim": {"type": "DT_INT32"}}}, {"name": "StatefulPartitionedCall/functional_1/tf_op_layer_Cast_1/Cast_1", "op": "Cast", "input": ["StatefulPartitionedCall/functional_1/tf_op_layer_ExpandDims/ExpandDims"], "attr": {"SrcT": {"type": "DT_INT64"}, "DstT": {"type": "DT_INT32"}, "Truncate": {"b": false}, "_cloned": {"b": true}}}, {"name": "StatefulPartitionedCall/functional_1/tf_op_layer_concat_13/concat_13", "op": "ConcatV2", "input": ["StatefulPartitionedCall/functional_1/tf_op_layer_Cast/Cast", "StatefulPartitionedCall/functional_1/tf_op_layer_Cast_1/Cast_1", "StatefulPartitionedCall/functional_1/tf_op_layer_concat_13/concat_13/axis"], "attr": {"Tidx": {"type": "DT_INT32"}, "T": {"type": "DT_INT32"}, "N": {"i": "2"}, "_cloned": {"b": true}}}, {"name": "Identity_1", "op": "Identity", "input": ["StatefulPartitionedCall/functional_1/tf_op_layer_concat_13/concat_13"], "attr": {"T": {"type": "DT_INT32"}}}], "library": {}, "versions": {"producer": 440}}, "weightsManifest": [{"paths": ["group1-shard1of1.bin"], "weights": [{"name": "StatefulPartitionedCall/functional_1/tf_op_layer_ExpandDims_1/ExpandDims_1/dim", "shape": [], "dtype": "int32"}, {"name": "StatefulPartitionedCall/functional_1/tf_op_layer_GatherV2/GatherV2/axis", "shape": [], "dtype": "int32"}, {"name": "StatefulPartitionedCall/functional_1/tf_op_layer_Mul_4/Mul_4/x", "shape": [], "dtype": "float32"}, {"name": "StatefulPartitionedCall/functional_1/tf_op_layer_Mul_5/Mul_5/x", "shape": [], "dtype": "float32"}, {"name": "StatefulPartitionedCall/functional_1/tf_op_layer_strided_slice_1/strided_slice_1/begin", "shape": [2], "dtype": "int32"}, {"name": "StatefulPartitionedCall/functional_1/tf_op_layer_strided_slice_1/strided_slice_1/end", "shape": [2], "dtype": "int32"}, {"name": "StatefulPartitionedCall/functional_1/tf_op_layer_strided_slice_1/strided_slice_1/strides", "shape": [2], "dtype": "int32"}, {"name": "StatefulPartitionedCall/functional_1/tf_op_layer_Mul/Mul/y", "shape": [5376, 1], "dtype": "float32"}, {"name": "StatefulPartitionedCall/functional_1/tf_op_layer_AddV2/AddV2/y", "shape": [5376, 1], "dtype": "float32"}, {"name": "StatefulPartitionedCall/functional_1/tf_op_layer_Mul_6/Mul_6/x", "shape": [], "dtype": "float32"}, {"name": "StatefulPartitionedCall/functional_1/tf_op_layer_Pow/Pow/x", "shape": [], "dtype": "float32"}, {"name": "StatefulPartitionedCall/functional_1/tf_op_layer_strided_slice_3/strided_slice_3/begin", "shape": [2], "dtype": "int32"}, {"name": "StatefulPartitionedCall/functional_1/tf_op_layer_strided_slice_3/strided_slice_3/end", "shape": [2], "dtype": "int32"}, {"name": "StatefulPartitionedCall/functional_1/tf_op_layer_strided_slice_3/strided_slice_3/strides", "shape": [2], "dtype": "int32"}, {"name": "StatefulPartitionedCall/functional_1/tf_op_layer_Mul_2/Mul/y", "shape": [5376, 1], "dtype": "float32"}, {"name": "StatefulPartitionedCall/functional_1/tf_op_layer_strided_slice_2/strided_slice_2/begin", "shape": [2], "dtype": "int32"}, {"name": "StatefulPartitionedCall/functional_1/tf_op_layer_strided_slice_2/strided_slice_2/end", "shape": [2], "dtype": "int32"}, {"name": "StatefulPartitionedCall/functional_1/tf_op_layer_strided_slice_2/strided_slice_2/strides", "shape": [2], "dtype": "int32"}, {"name": "StatefulPartitionedCall/functional_1/tf_op_layer_Mul_1/Mul_1/y", "shape": [5376, 1], "dtype": "float32"}, {"name": "StatefulPartitionedCall/functional_1/tf_op_layer_AddV2_1/AddV2_1/y", "shape": [5376, 1], "dtype": "float32"}, {"name": "StatefulPartitionedCall/functional_1/tf_op_layer_Mul_7/Mul_7/x", "shape": [], "dtype": "float32"}, {"name": "StatefulPartitionedCall/functional_1/tf_op_layer_Pow_1/Pow_1/x", "shape": [], "dtype": "float32"}, {"name": "StatefulPartitionedCall/functional_1/tf_op_layer_strided_slice/strided_slice/begin", "shape": [2], "dtype": "int32"}, {"name": "StatefulPartitionedCall/functional_1/tf_op_layer_strided_slice/strided_slice/end", "shape": [2], "dtype": "int32"}, {"name": "StatefulPartitionedCall/functional_1/tf_op_layer_strided_slice/strided_slice/strides", "shape": [2], "dtype": "int32"}, {"name": "StatefulPartitionedCall/functional_1/tf_op_layer_strided_slice_4/strided_slice_4/begin", "shape": [2], "dtype": "int32"}, {"name": "StatefulPartitionedCall/functional_1/tf_op_layer_strided_slice_4/strided_slice_4/end", "shape": [2], "dtype": "int32"}, {"name": "StatefulPartitionedCall/functional_1/tf_op_layer_strided_slice_4/strided_slice_4/strides", "shape": [2], "dtype": "int32"}, {"name": "StatefulPartitionedCall/functional_1/tf_op_layer_Mul_3/Mul_1/y", "shape": [5376, 1], "dtype": "float32"}, {"name": "StatefulPartitionedCall/functional_1/tf_op_layer_concat_12/concat_12/axis", "shape": [], "dtype": "int32"}, {"name": "StatefulPartitionedCall/functional_1/tf_op_layer_Max/Max/reduction_indices", "shape": [], "dtype": "int32"}, {"name": "StatefulPartitionedCall/functional_1/tf_op_layer_concat_8/concat_8/axis", "shape": [], "dtype": "int32"}, {"name": "StatefulPartitionedCall/functional_1/up_sampling2d/strided_slice/stack", "shape": [1], "dtype": "int32"}, {"name": "StatefulPartitionedCall/functional_1/up_sampling2d/strided_slice/stack_1", "shape": [1], "dtype": "int32"}, {"name": "StatefulPartitionedCall/functional_1/up_sampling2d/strided_slice/stack_2", "shape": [1], "dtype": "int32"}, {"name": "StatefulPartitionedCall/functional_1/up_sampling2d/Const", "shape": [2], "dtype": "int32"}, {"name": "unknown_783", "shape": [1, 1, 20, 6], "dtype": "float32"}, {"name": "unknown_784", "shape": [6], "dtype": "float32"}, {"name": "StatefulPartitionedCall/functional_1/tf_op_layer_Reshape_2/Reshape_2/shape", "shape": [2], "dtype": "int32"}, {"name": "StatefulPartitionedCall/functional_1/tf_op_layer_split_2/split_2/size_splits", "shape": [2], "dtype": "int32"}, {"name": "StatefulPartitionedCall/functional_1/tf_op_layer_split_2/split_2/split_dim", "shape": [], "dtype": "int32"}, {"name": "StatefulPartitionedCall/functional_1/tf_op_layer_concat_10/concat_10/axis", "shape": [], "dtype": "int32"}, {"name": "StatefulPartitionedCall/functional_1/tf_op_layer_concat/concat/axis", "shape": [], "dtype": "int32"}, {"name": "StatefulPartitionedCall/functional_1/up_sampling2d_1/strided_slice/stack", "shape": [1], "dtype": "int32"}, {"name": "StatefulPartitionedCall/functional_1/up_sampling2d_1/strided_slice/stack_1", "shape": [1], "dtype": "int32"}, {"name": "StatefulPartitionedCall/functional_1/up_sampling2d_1/strided_slice/stack_2", "shape": [1], "dtype": "int32"}, {"name": "StatefulPartitionedCall/functional_1/up_sampling2d_1/Const", "shape": [2], "dtype": "int32"}, {"name": "unknown_781", "shape": [1, 1, 20, 6], "dtype": "float32"}, {"name": "unknown_782", "shape": [6], "dtype": "float32"}, {"name": "StatefulPartitionedCall/functional_1/tf_op_layer_Reshape/Reshape/shape", "shape": [2], "dtype": "int32"}, {"name": "StatefulPartitionedCall/functional_1/tf_op_layer_split/split/size_splits", "shape": [2], "dtype": "int32"}, {"name": "StatefulPartitionedCall/functional_1/tf_op_layer_split/split/split_dim", "shape": [], "dtype": "int32"}, {"name": "StatefulPartitionedCall/functional_1/tf_op_layer_concat_2/concat_2/axis", "shape": [], "dtype": "int32"}, {"name": "StatefulPartitionedCall/functional_1/tf_op_layer_concat_4/concat_4/axis", "shape": [], "dtype": "int32"}, {"name": "unknown_779", "shape": [1, 1, 20, 6], "dtype": "float32"}, {"name": "unknown_780", "shape": [6], "dtype": "float32"}, {"name": "StatefulPartitionedCall/functional_1/tf_op_layer_Reshape_1/Reshape_1/shape", "shape": [2], "dtype": "int32"}, {"name": "StatefulPartitionedCall/functional_1/tf_op_layer_split_1/split_1/size_splits", "shape": [2], "dtype": "int32"}, {"name": "StatefulPartitionedCall/functional_1/tf_op_layer_split_1/split_1/split_dim", "shape": [], "dtype": "int32"}, {"name": "StatefulPartitionedCall/functional_1/tf_op_layer_concat_6/concat_6/axis", "shape": [], "dtype": "int32"}, {"name": "StatefulPartitionedCall/functional_1/tf_op_layer_concat_11/concat_11/axis", "shape": [], "dtype": "int32"}, {"name": "StatefulPartitionedCall/functional_1/tf_op_layer_strided_slice_5/strided_slice_5/begin", "shape": [2], "dtype": "int32"}, {"name": "StatefulPartitionedCall/functional_1/tf_op_layer_strided_slice_5/strided_slice_5/end", "shape": [2], "dtype": "int32"}, {"name": "StatefulPartitionedCall/functional_1/tf_op_layer_strided_slice_5/strided_slice_5/strides", "shape": [2], "dtype": "int32"}, {"name": "StatefulPartitionedCall/functional_1/tf_op_layer_ArgMax/ArgMax/dimension", "shape": [], "dtype": "int32"}, {"name": "StatefulPartitionedCall/functional_1/tf_op_layer_Less/Less/y", "shape": [5376], "dtype": "int32"}, {"name": "StatefulPartitionedCall/functional_1/tf_op_layer_SelectV2/SelectV2/t", "shape": [5376], "dtype": "float32"}, {"name": "StatefulPartitionedCall/functional_1/tf_op_layer_SelectV2/SelectV2/e", "shape": [5376], "dtype": "float32"}, {"name": "StatefulPartitionedCall/functional_1/tf_op_layer_NonMaxSuppressionV4/NonMaxSuppressionV4/max_output_size", "shape": [], "dtype": "int32"}, {"name": "StatefulPartitionedCall/functional_1/tf_op_layer_NonMaxSuppressionV4/NonMaxSuppressionV4/iou_threshold", "shape": [], "dtype": "float32"}, {"name": "StatefulPartitionedCall/functional_1/tf_op_layer_NonMaxSuppressionV4/NonMaxSuppressionV4/score_threshold", "shape": [], "dtype": "float32"}, {"name": "StatefulPartitionedCall/functional_1/tf_op_layer_GatherV2_1/GatherV2_1/axis", "shape": [], "dtype": "int32"}, {"name": "StatefulPartitionedCall/functional_1/tf_op_layer_ExpandDims/ExpandDims/dim", "shape": [], "dtype": "int32"}, {"name": "StatefulPartitionedCall/functional_1/tf_op_layer_concat_13/concat_13/axis", "shape": [], "dtype": "int32"}, {"name": "StatefulPartitionedCall/functional_1/CONV2D_BLOCK0_0_conv/Conv2D_weights", "shape": [7, 7, 3, 10], "dtype": "float32"}, {"name": "StatefulPartitionedCall/functional_1/RFE_BLOCK2_conv3_3/Conv2D_bn_offset", "shape": [5], "dtype": "float32"}, {"name": "StatefulPartitionedCall/functional_1/CONV2D_BLOCK0_0_conv/Conv2D_bn_offset", "shape": [10], "dtype": "float32"}, {"name": "StatefulPartitionedCall/functional_1/RESNET_IDENTITY_BLOCK2_12__conv3/Conv2D_bn_offset", "shape": [160], "dtype": "float32"}, {"name": "StatefulPartitionedCall/functional_1/RESNET_SIDENTITY_BLOCK0_conv1/Conv2D_weights", "shape": [1, 1, 10, 10], "dtype": "float32"}, {"name": "StatefulPartitionedCall/functional_1/RESNET_SIDENTITY_BLOCK0_conv1/Conv2D_bn_offset", "shape": [10], "dtype": "float32"}, {"name": "StatefulPartitionedCall/functional_1/RESNET_SIDENTITY_BLOCK0_conv4/Conv2D_weights", "shape": [1, 1, 10, 40], "dtype": "float32"}, {"name": "StatefulPartitionedCall/functional_1/RESNET_SIDENTITY_BLOCK0_conv4/Conv2D_bn_offset", "shape": [40], "dtype": "float32"}, {"name": "StatefulPartitionedCall/functional_1/RESNET_SIDENTITY_BLOCK0_conv2/Conv2D_weights", "shape": [3, 3, 10, 10], "dtype": "float32"}, {"name": "StatefulPartitionedCall/functional_1/RESNET_IDENTITY_BLOCK2_13__conv1/Conv2D_weights", "shape": [1, 1, 160, 40], "dtype": "float32"}, {"name": "StatefulPartitionedCall/functional_1/RESNET_SIDENTITY_BLOCK0_conv2/Conv2D_bn_offset", "shape": [10], "dtype": "float32"}, {"name": "StatefulPartitionedCall/functional_1/RESNET_SIDENTITY_BLOCK0_conv3/Conv2D_weights", "shape": [1, 1, 10, 40], "dtype": "float32"}, {"name": "StatefulPartitionedCall/functional_1/RESNET_IDENTITY_BLOCK2_13__conv1/Conv2D_bn_offset", "shape": [40], "dtype": "float32"}, {"name": "StatefulPartitionedCall/functional_1/RESNET_SIDENTITY_BLOCK0_conv3/Conv2D_bn_offset", "shape": [40], "dtype": "float32"}, {"name": "StatefulPartitionedCall/functional_1/RESNET_IDENTITY_BLOCK0_0__conv1/Conv2D_weights", "shape": [1, 1, 40, 10], "dtype": "float32"}, {"name": "StatefulPartitionedCall/functional_1/RESNET_IDENTITY_BLOCK0_0__conv1/Conv2D_bn_offset", "shape": [10], "dtype": "float32"}, {"name": "StatefulPartitionedCall/functional_1/RESNET_IDENTITY_BLOCK0_0__conv2/Conv2D_weights", "shape": [3, 3, 10, 10], "dtype": "float32"}, {"name": "StatefulPartitionedCall/functional_1/RESNET_IDENTITY_BLOCK2_13__conv2/Conv2D_weights", "shape": [3, 3, 40, 40], "dtype": "float32"}, {"name": "StatefulPartitionedCall/functional_1/RESNET_IDENTITY_BLOCK0_0__conv2/Conv2D_bn_offset", "shape": [10], "dtype": "float32"}, {"name": "StatefulPartitionedCall/functional_1/RESNET_IDENTITY_BLOCK0_0__conv3/Conv2D_weights", "shape": [1, 1, 10, 40], "dtype": "float32"}, {"name": "StatefulPartitionedCall/functional_1/RESNET_IDENTITY_BLOCK2_13__conv2/Conv2D_bn_offset", "shape": [40], "dtype": "float32"}, {"name": "StatefulPartitionedCall/functional_1/RESNET_IDENTITY_BLOCK0_0__conv3/Conv2D_bn_offset", "shape": [40], "dtype": "float32"}, {"name": "StatefulPartitionedCall/functional_1/RESNET_IDENTITY_BLOCK0_1__conv1/Conv2D_weights", "shape": [1, 1, 40, 10], "dtype": "float32"}, {"name": "StatefulPartitionedCall/functional_1/RFE_BLOCK1rfe_conv4/Conv2D_weights", "shape": [1, 1, 20, 20], "dtype": "float32"}, {"name": "StatefulPartitionedCall/functional_1/RESNET_IDENTITY_BLOCK0_1__conv1/Conv2D_bn_offset", "shape": [10], "dtype": "float32"}, {"name": "StatefulPartitionedCall/functional_1/RESNET_IDENTITY_BLOCK0_1__conv2/Conv2D_weights", "shape": [3, 3, 10, 10], "dtype": "float32"}, {"name": "StatefulPartitionedCall/functional_1/RESNET_IDENTITY_BLOCK2_13__conv3/Conv2D_weights", "shape": [1, 1, 40, 160], "dtype": "float32"}, {"name": "StatefulPartitionedCall/functional_1/RESNET_IDENTITY_BLOCK0_1__conv2/Conv2D_bn_offset", "shape": [10], "dtype": "float32"}, {"name": "StatefulPartitionedCall/functional_1/RESNET_IDENTITY_BLOCK0_1__conv3/Conv2D_weights", "shape": [1, 1, 10, 40], "dtype": "float32"}, {"name": "StatefulPartitionedCall/functional_1/RESNET_IDENTITY_BLOCK2_13__conv3/Conv2D_bn_offset", "shape": [160], "dtype": "float32"}, {"name": "StatefulPartitionedCall/functional_1/RESNET_IDENTITY_BLOCK0_1__conv3/Conv2D_bn_offset", "shape": [40], "dtype": "float32"}, {"name": "StatefulPartitionedCall/functional_1/RESNET_IDENTITY_BLOCK0_2__conv1/Conv2D_weights", "shape": [1, 1, 40, 10], "dtype": "float32"}, {"name": "StatefulPartitionedCall/functional_1/RESNET_IDENTITY_BLOCK0_2__conv1/Conv2D_bn_offset", "shape": [10], "dtype": "float32"}, {"name": "StatefulPartitionedCall/functional_1/RESNET_IDENTITY_BLOCK0_2__conv2/Conv2D_weights", "shape": [3, 3, 10, 10], "dtype": "float32"}, {"name": "StatefulPartitionedCall/functional_1/RESNET_IDENTITY_BLOCK0_2__conv2/Conv2D_bn_offset", "shape": [10], "dtype": "float32"}, {"name": "StatefulPartitionedCall/functional_1/RESNET_IDENTITY_BLOCK2_14__conv1/Conv2D_weights", "shape": [1, 1, 160, 40], "dtype": "float32"}, {"name": "StatefulPartitionedCall/functional_1/RESNET_IDENTITY_BLOCK0_2__conv3/Conv2D_weights", "shape": [1, 1, 10, 40], "dtype": "float32"}, {"name": "StatefulPartitionedCall/functional_1/RFE_BLOCK1rfe_conv4/Conv2D_bn_offset", "shape": [20], "dtype": "float32"}, {"name": "StatefulPartitionedCall/functional_1/RESNET_IDENTITY_BLOCK0_2__conv3/Conv2D_bn_offset", "shape": [40], "dtype": "float32"}, {"name": "StatefulPartitionedCall/functional_1/CONV2D_BLOCK2_0_conv/Conv2D_weights", "shape": [3, 3, 40, 20], "dtype": "float32"}, {"name": "StatefulPartitionedCall/functional_1/RESNET_IDENTITY_BLOCK2_14__conv1/Conv2D_bn_offset", "shape": [40], "dtype": "float32"}, {"name": "StatefulPartitionedCall/functional_1/CONV2D_BLOCK2_0_conv/Conv2D_bn_offset", "shape": [20], "dtype": "float32"}, {"name": "StatefulPartitionedCall/functional_1/RESNET_SIDENTITY_BLOCK1_conv1/Conv2D_weights", "shape": [1, 1, 40, 20], "dtype": "float32"}, {"name": "StatefulPartitionedCall/functional_1/RESNET_SIDENTITY_BLOCK1_conv1/Conv2D_bn_offset", "shape": [20], "dtype": "float32"}, {"name": "StatefulPartitionedCall/functional_1/RESNET_IDENTITY_BLOCK2_14__conv2/Conv2D_weights", "shape": [3, 3, 40, 40], "dtype": "float32"}, {"name": "StatefulPartitionedCall/functional_1/RESNET_SIDENTITY_BLOCK1_conv4/Conv2D_weights", "shape": [1, 1, 40, 80], "dtype": "float32"}, {"name": "StatefulPartitionedCall/functional_1/RESNET_SIDENTITY_BLOCK1_conv4/Conv2D_bn_offset", "shape": [80], "dtype": "float32"}, {"name": "StatefulPartitionedCall/functional_1/RESNET_SIDENTITY_BLOCK1_conv2/Conv2D_weights", "shape": [3, 3, 20, 20], "dtype": "float32"}, {"name": "StatefulPartitionedCall/functional_1/RESNET_IDENTITY_BLOCK2_14__conv2/Conv2D_bn_offset", "shape": [40], "dtype": "float32"}, {"name": "StatefulPartitionedCall/functional_1/RESNET_SIDENTITY_BLOCK1_conv2/Conv2D_bn_offset", "shape": [20], "dtype": "float32"}, {"name": "StatefulPartitionedCall/functional_1/RESNET_SIDENTITY_BLOCK1_conv3/Conv2D_weights", "shape": [1, 1, 20, 80], "dtype": "float32"}, {"name": "StatefulPartitionedCall/functional_1/RESNET_SIDENTITY_BLOCK1_conv3/Conv2D_bn_offset", "shape": [80], "dtype": "float32"}, {"name": "StatefulPartitionedCall/functional_1/RESNET_IDENTITY_BLOCK1_0__conv1/Conv2D_weights", "shape": [1, 1, 80, 20], "dtype": "float32"}, {"name": "StatefulPartitionedCall/functional_1/RESNET_IDENTITY_BLOCK2_14__conv3/Conv2D_weights", "shape": [1, 1, 40, 160], "dtype": "float32"}, {"name": "StatefulPartitionedCall/functional_1/RESNET_IDENTITY_BLOCK1_0__conv1/Conv2D_bn_offset", "shape": [20], "dtype": "float32"}, {"name": "StatefulPartitionedCall/functional_1/RESNET_IDENTITY_BLOCK1_0__conv2/Conv2D_weights", "shape": [3, 3, 20, 20], "dtype": "float32"}, {"name": "StatefulPartitionedCall/functional_1/RESNET_IDENTITY_BLOCK2_14__conv3/Conv2D_bn_offset", "shape": [160], "dtype": "float32"}, {"name": "StatefulPartitionedCall/functional_1/RESNET_IDENTITY_BLOCK1_0__conv2/Conv2D_bn_offset", "shape": [20], "dtype": "float32"}, {"name": "StatefulPartitionedCall/functional_1/RESNET_IDENTITY_BLOCK1_0__conv3/Conv2D_weights", "shape": [1, 1, 20, 80], "dtype": "float32"}, {"name": "StatefulPartitionedCall/functional_1/RESNET_IDENTITY_BLOCK1_0__conv3/Conv2D_bn_offset", "shape": [80], "dtype": "float32"}, {"name": "StatefulPartitionedCall/functional_1/RESNET_IDENTITY_BLOCK1_1__conv1/Conv2D_weights", "shape": [1, 1, 80, 20], "dtype": "float32"}, {"name": "StatefulPartitionedCall/functional_1/RESNET_IDENTITY_BLOCK1_1__conv1/Conv2D_bn_offset", "shape": [20], "dtype": "float32"}, {"name": "StatefulPartitionedCall/functional_1/CONV2D_BLOCK5_0_conv/Conv2D_weights", "shape": [3, 3, 160, 20], "dtype": "float32"}, {"name": "StatefulPartitionedCall/functional_1/RESNET_IDENTITY_BLOCK1_1__conv2/Conv2D_weights", "shape": [3, 3, 20, 20], "dtype": "float32"}, {"name": "StatefulPartitionedCall/functional_1/RESNET_IDENTITY_BLOCK1_1__conv2/Conv2D_bn_offset", "shape": [20], "dtype": "float32"}, {"name": "StatefulPartitionedCall/functional_1/CONV2D_BLOCK5_0_conv/Conv2D_bn_offset", "shape": [20], "dtype": "float32"}, {"name": "StatefulPartitionedCall/functional_1/RESNET_IDENTITY_BLOCK1_1__conv3/Conv2D_weights", "shape": [1, 1, 20, 80], "dtype": "float32"}, {"name": "StatefulPartitionedCall/functional_1/RESNET_IDENTITY_BLOCK1_1__conv3/Conv2D_bn_offset", "shape": [80], "dtype": "float32"}, {"name": "StatefulPartitionedCall/functional_1/RESNET_IDENTITY_BLOCK1_2__conv1/Conv2D_weights", "shape": [1, 1, 80, 20], "dtype": "float32"}, {"name": "StatefulPartitionedCall/functional_1/RESNET_IDENTITY_BLOCK1_2__conv1/Conv2D_bn_offset", "shape": [20], "dtype": "float32"}, {"name": "StatefulPartitionedCall/functional_1/RESNET_IDENTITY_BLOCK1_2__conv2/Conv2D_weights", "shape": [3, 3, 20, 20], "dtype": "float32"}, {"name": "StatefulPartitionedCall/functional_1/RESNET_IDENTITY_BLOCK1_2__conv2/Conv2D_bn_offset", "shape": [20], "dtype": "float32"}, {"name": "StatefulPartitionedCall/functional_1/RESNET_IDENTITY_BLOCK1_2__conv3/Conv2D_weights", "shape": [1, 1, 20, 80], "dtype": "float32"}, {"name": "StatefulPartitionedCall/functional_1/RESNET_IDENTITY_BLOCK1_2__conv3/Conv2D_bn_offset", "shape": [80], "dtype": "float32"}, {"name": "StatefulPartitionedCall/functional_1/RESNET_IDENTITY_BLOCK1_3__conv1/Conv2D_weights", "shape": [1, 1, 80, 20], "dtype": "float32"}, {"name": "StatefulPartitionedCall/functional_1/RESNET_IDENTITY_BLOCK1_3__conv1/Conv2D_bn_offset", "shape": [20], "dtype": "float32"}, {"name": "StatefulPartitionedCall/functional_1/RFE_BLOCK1_conv1_0/Conv2D_weights", "shape": [1, 1, 20, 5], "dtype": "float32"}, {"name": "StatefulPartitionedCall/functional_1/RESNET_IDENTITY_BLOCK1_3__conv2/Conv2D_weights", "shape": [3, 3, 20, 20], "dtype": "float32"}, {"name": "StatefulPartitionedCall/functional_1/RESNET_IDENTITY_BLOCK1_3__conv2/Conv2D_bn_offset", "shape": [20], "dtype": "float32"}, {"name": "StatefulPartitionedCall/functional_1/RFE_BLOCK1_conv1_0/Conv2D_bn_offset", "shape": [5], "dtype": "float32"}, {"name": "StatefulPartitionedCall/functional_1/RESNET_IDENTITY_BLOCK1_3__conv3/Conv2D_weights", "shape": [1, 1, 20, 80], "dtype": "float32"}, {"name": "StatefulPartitionedCall/functional_1/RESNET_IDENTITY_BLOCK1_3__conv3/Conv2D_bn_offset", "shape": [80], "dtype": "float32"}, {"name": "StatefulPartitionedCall/functional_1/RESNET_IDENTITY_BLOCK1_4__conv1/Conv2D_weights", "shape": [1, 1, 80, 20], "dtype": "float32"}, {"name": "StatefulPartitionedCall/functional_1/RESNET_IDENTITY_BLOCK1_4__conv1/Conv2D_bn_offset", "shape": [20], "dtype": "float32"}, {"name": "StatefulPartitionedCall/functional_1/RFE_BLOCK1_conv1_1/Conv2D_weights", "shape": [1, 1, 20, 5], "dtype": "float32"}, {"name": "StatefulPartitionedCall/functional_1/RESNET_IDENTITY_BLOCK1_4__conv2/Conv2D_weights", "shape": [3, 3, 20, 20], "dtype": "float32"}, {"name": "StatefulPartitionedCall/functional_1/RESNET_IDENTITY_BLOCK1_4__conv2/Conv2D_bn_offset", "shape": [20], "dtype": "float32"}, {"name": "StatefulPartitionedCall/functional_1/RFE_BLOCK1_conv1_1/Conv2D_bn_offset", "shape": [5], "dtype": "float32"}, {"name": "StatefulPartitionedCall/functional_1/RESNET_IDENTITY_BLOCK1_4__conv3/Conv2D_weights", "shape": [1, 1, 20, 80], "dtype": "float32"}, {"name": "StatefulPartitionedCall/functional_1/RFE_BLOCK2rfe_conv4/Conv2D_weights", "shape": [1, 1, 20, 20], "dtype": "float32"}, {"name": "StatefulPartitionedCall/functional_1/RESNET_IDENTITY_BLOCK1_4__conv3/Conv2D_bn_offset", "shape": [80], "dtype": "float32"}, {"name": "StatefulPartitionedCall/functional_1/RESNET_IDENTITY_BLOCK1_5__conv1/Conv2D_weights", "shape": [1, 1, 80, 20], "dtype": "float32"}, {"name": "StatefulPartitionedCall/functional_1/RESNET_IDENTITY_BLOCK1_5__conv1/Conv2D_bn_offset", "shape": [20], "dtype": "float32"}, {"name": "StatefulPartitionedCall/functional_1/RFE_BLOCK1_conv1_2/Conv2D_weights", "shape": [1, 1, 20, 5], "dtype": "float32"}, {"name": "StatefulPartitionedCall/functional_1/RESNET_IDENTITY_BLOCK1_5__conv2/Conv2D_weights", "shape": [3, 3, 20, 20], "dtype": "float32"}, {"name": "StatefulPartitionedCall/functional_1/RESNET_IDENTITY_BLOCK1_5__conv2/Conv2D_bn_offset", "shape": [20], "dtype": "float32"}, {"name": "StatefulPartitionedCall/functional_1/RFE_BLOCK1_conv1_2/Conv2D_bn_offset", "shape": [5], "dtype": "float32"}, {"name": "StatefulPartitionedCall/functional_1/RESNET_IDENTITY_BLOCK1_5__conv3/Conv2D_weights", "shape": [1, 1, 20, 80], "dtype": "float32"}, {"name": "StatefulPartitionedCall/functional_1/RFE_BLOCK2rfe_conv4/Conv2D_bn_offset", "shape": [20], "dtype": "float32"}, {"name": "StatefulPartitionedCall/functional_1/RESNET_IDENTITY_BLOCK1_5__conv3/Conv2D_bn_offset", "shape": [80], "dtype": "float32"}, {"name": "StatefulPartitionedCall/functional_1/RESNET_IDENTITY_BLOCK1_6__conv1/Conv2D_weights", "shape": [1, 1, 80, 20], "dtype": "float32"}, {"name": "StatefulPartitionedCall/functional_1/RESNET_IDENTITY_BLOCK1_6__conv1/Conv2D_bn_offset", "shape": [20], "dtype": "float32"}, {"name": "StatefulPartitionedCall/functional_1/RFE_BLOCK1_conv1_3/Conv2D_weights", "shape": [1, 1, 20, 5], "dtype": "float32"}, {"name": "StatefulPartitionedCall/functional_1/RESNET_IDENTITY_BLOCK1_6__conv2/Conv2D_weights", "shape": [3, 3, 20, 20], "dtype": "float32"}, {"name": "StatefulPartitionedCall/functional_1/RESNET_IDENTITY_BLOCK1_6__conv2/Conv2D_bn_offset", "shape": [20], "dtype": "float32"}, {"name": "StatefulPartitionedCall/functional_1/RFE_BLOCK1_conv1_3/Conv2D_bn_offset", "shape": [5], "dtype": "float32"}, {"name": "StatefulPartitionedCall/functional_1/RESNET_IDENTITY_BLOCK1_6__conv3/Conv2D_weights", "shape": [1, 1, 20, 80], "dtype": "float32"}, {"name": "StatefulPartitionedCall/functional_1/RESNET_IDENTITY_BLOCK1_6__conv3/Conv2D_bn_offset", "shape": [80], "dtype": "float32"}, {"name": "StatefulPartitionedCall/functional_1/CONV2D_BLOCK1_0_conv/Conv2D_weights", "shape": [3, 3, 80, 20], "dtype": "float32"}, {"name": "StatefulPartitionedCall/functional_1/CONV2D_BLOCK1_0_conv/Conv2D_bn_offset", "shape": [20], "dtype": "float32"}, {"name": "StatefulPartitionedCall/functional_1/RFE_BLOCK1_conv2_0/Conv2D_weights", "shape": [1, 3, 5, 5], "dtype": "float32"}, {"name": "StatefulPartitionedCall/functional_1/RESNET_SIDENTITY_BLOCK2_conv1/Conv2D_weights", "shape": [1, 1, 80, 40], "dtype": "float32"}, {"name": "StatefulPartitionedCall/functional_1/RESNET_SIDENTITY_BLOCK2_conv1/Conv2D_bn_offset", "shape": [40], "dtype": "float32"}, {"name": "StatefulPartitionedCall/functional_1/RFE_BLOCK1_conv2_0/Conv2D_bn_offset", "shape": [5], "dtype": "float32"}, {"name": "StatefulPartitionedCall/functional_1/RESNET_SIDENTITY_BLOCK2_conv4/Conv2D_weights", "shape": [1, 1, 80, 160], "dtype": "float32"}, {"name": "StatefulPartitionedCall/functional_1/RESNET_SIDENTITY_BLOCK2_conv4/Conv2D_bn_offset", "shape": [160], "dtype": "float32"}, {"name": "StatefulPartitionedCall/functional_1/RESNET_SIDENTITY_BLOCK2_conv2/Conv2D_weights", "shape": [3, 3, 40, 40], "dtype": "float32"}, {"name": "StatefulPartitionedCall/functional_1/RESNET_SIDENTITY_BLOCK2_conv2/Conv2D_bn_offset", "shape": [40], "dtype": "float32"}, {"name": "StatefulPartitionedCall/functional_1/RFE_BLOCK1_conv2_1/Conv2D_weights", "shape": [1, 5, 5, 5], "dtype": "float32"}, {"name": "StatefulPartitionedCall/functional_1/RESNET_SIDENTITY_BLOCK2_conv3/Conv2D_weights", "shape": [1, 1, 40, 160], "dtype": "float32"}, {"name": "StatefulPartitionedCall/functional_1/RESNET_SIDENTITY_BLOCK2_conv3/Conv2D_bn_offset", "shape": [160], "dtype": "float32"}, {"name": "StatefulPartitionedCall/functional_1/rfe_conv1_0/Conv2D_weights", "shape": [1, 1, 20, 5], "dtype": "float32"}, {"name": "StatefulPartitionedCall/functional_1/RFE_BLOCK1_conv2_1/Conv2D_bn_offset", "shape": [5], "dtype": "float32"}, {"name": "StatefulPartitionedCall/functional_1/rfe_conv1_0/Conv2D_bn_offset", "shape": [5], "dtype": "float32"}, {"name": "StatefulPartitionedCall/functional_1/rfe_conv1_1/Conv2D_weights", "shape": [1, 1, 20, 5], "dtype": "float32"}, {"name": "StatefulPartitionedCall/functional_1/rfe_conv1_1/Conv2D_bn_offset", "shape": [5], "dtype": "float32"}, {"name": "StatefulPartitionedCall/functional_1/RFE_BLOCK1_conv2_2/Conv2D_weights", "shape": [3, 1, 5, 5], "dtype": "float32"}, {"name": "StatefulPartitionedCall/functional_1/rfe_conv1_2/Conv2D_weights", "shape": [1, 1, 20, 5], "dtype": "float32"}, {"name": "StatefulPartitionedCall/functional_1/rfe_conv1_2/Conv2D_bn_offset", "shape": [5], "dtype": "float32"}, {"name": "StatefulPartitionedCall/functional_1/RFE_BLOCK1_conv2_2/Conv2D_bn_offset", "shape": [5], "dtype": "float32"}, {"name": "StatefulPartitionedCall/functional_1/rfe_conv1_3/Conv2D_weights", "shape": [1, 1, 20, 5], "dtype": "float32"}, {"name": "StatefulPartitionedCall/functional_1/rfe_conv1_3/Conv2D_bn_offset", "shape": [5], "dtype": "float32"}, {"name": "StatefulPartitionedCall/functional_1/rfe_conv2_0/Conv2D_weights", "shape": [1, 3, 5, 5], "dtype": "float32"}, {"name": "StatefulPartitionedCall/functional_1/RFE_BLOCK1_conv2_3/Conv2D_weights", "shape": [5, 1, 5, 5], "dtype": "float32"}, {"name": "StatefulPartitionedCall/functional_1/rfe_conv2_0/Conv2D_bn_offset", "shape": [5], "dtype": "float32"}, {"name": "StatefulPartitionedCall/functional_1/rfe_conv2_1/Conv2D_weights", "shape": [1, 5, 5, 5], "dtype": "float32"}, {"name": "StatefulPartitionedCall/functional_1/RFE_BLOCK1_conv2_3/Conv2D_bn_offset", "shape": [5], "dtype": "float32"}, {"name": "StatefulPartitionedCall/functional_1/rfe_conv2_1/Conv2D_bn_offset", "shape": [5], "dtype": "float32"}, {"name": "StatefulPartitionedCall/functional_1/rfe_conv2_2/Conv2D_weights", "shape": [3, 1, 5, 5], "dtype": "float32"}, {"name": "StatefulPartitionedCall/functional_1/rfe_conv2_2/Conv2D_bn_offset", "shape": [5], "dtype": "float32"}, {"name": "StatefulPartitionedCall/functional_1/RFE_BLOCK2_conv1_0/Conv2D_weights", "shape": [1, 1, 20, 5], "dtype": "float32"}, {"name": "StatefulPartitionedCall/functional_1/rfe_conv2_3/Conv2D_weights", "shape": [5, 1, 5, 5], "dtype": "float32"}, {"name": "StatefulPartitionedCall/functional_1/rfe_conv2_3/Conv2D_bn_offset", "shape": [5], "dtype": "float32"}, {"name": "StatefulPartitionedCall/functional_1/RFE_BLOCK2_conv1_0/Conv2D_bn_offset", "shape": [5], "dtype": "float32"}, {"name": "StatefulPartitionedCall/functional_1/RESNET_IDENTITY_BLOCK2_0__conv1/Conv2D_weights", "shape": [1, 1, 160, 40], "dtype": "float32"}, {"name": "StatefulPartitionedCall/functional_1/RESNET_IDENTITY_BLOCK2_0__conv1/Conv2D_bn_offset", "shape": [40], "dtype": "float32"}, {"name": "StatefulPartitionedCall/functional_1/rfe_conv3_0/Conv2D_weights", "shape": [1, 1, 5, 5], "dtype": "float32"}, {"name": "StatefulPartitionedCall/functional_1/RFE_BLOCK2_conv1_1/Conv2D_weights", "shape": [1, 1, 20, 5], "dtype": "float32"}, {"name": "StatefulPartitionedCall/functional_1/rfe_conv3_0/Conv2D_bn_offset", "shape": [5], "dtype": "float32"}, {"name": "StatefulPartitionedCall/functional_1/rfe_conv3_1/Conv2D_weights", "shape": [1, 1, 5, 5], "dtype": "float32"}, {"name": "StatefulPartitionedCall/functional_1/RFE_BLOCK2_conv1_1/Conv2D_bn_offset", "shape": [5], "dtype": "float32"}, {"name": "StatefulPartitionedCall/functional_1/rfe_conv3_1/Conv2D_bn_offset", "shape": [5], "dtype": "float32"}, {"name": "StatefulPartitionedCall/functional_1/rfe_conv3_2/Conv2D_weights", "shape": [1, 1, 5, 5], "dtype": "float32"}, {"name": "StatefulPartitionedCall/functional_1/rfe_conv3_2/Conv2D_bn_offset", "shape": [5], "dtype": "float32"}, {"name": "StatefulPartitionedCall/functional_1/RFE_BLOCK2_conv1_2/Conv2D_weights", "shape": [1, 1, 20, 5], "dtype": "float32"}, {"name": "StatefulPartitionedCall/functional_1/rfe_conv3_3/Conv2D_weights", "shape": [1, 1, 5, 5], "dtype": "float32"}, {"name": "StatefulPartitionedCall/functional_1/rfe_conv3_3/Conv2D_bn_offset", "shape": [5], "dtype": "float32"}, {"name": "StatefulPartitionedCall/functional_1/RFE_BLOCK2_conv1_2/Conv2D_bn_offset", "shape": [5], "dtype": "float32"}, {"name": "StatefulPartitionedCall/functional_1/RESNET_IDENTITY_BLOCK2_0__conv2/Conv2D_weights", "shape": [3, 3, 40, 40], "dtype": "float32"}, {"name": "StatefulPartitionedCall/functional_1/RESNET_IDENTITY_BLOCK2_0__conv2/Conv2D_bn_offset", "shape": [40], "dtype": "float32"}, {"name": "StatefulPartitionedCall/functional_1/RESNET_IDENTITY_BLOCK2_0__conv3/Conv2D_weights", "shape": [1, 1, 40, 160], "dtype": "float32"}, {"name": "StatefulPartitionedCall/functional_1/RFE_BLOCK2_conv1_3/Conv2D_weights", "shape": [1, 1, 20, 5], "dtype": "float32"}, {"name": "StatefulPartitionedCall/functional_1/RESNET_IDENTITY_BLOCK2_0__conv3/Conv2D_bn_offset", "shape": [160], "dtype": "float32"}, {"name": "StatefulPartitionedCall/functional_1/rferfe_conv4/Conv2D_weights", "shape": [1, 1, 20, 20], "dtype": "float32"}, {"name": "StatefulPartitionedCall/functional_1/rferfe_conv4/Conv2D_bn_offset", "shape": [20], "dtype": "float32"}, {"name": "StatefulPartitionedCall/functional_1/RFE_BLOCK2_conv1_3/Conv2D_bn_offset", "shape": [5], "dtype": "float32"}, {"name": "StatefulPartitionedCall/functional_1/RESNET_IDENTITY_BLOCK2_1__conv1/Conv2D_weights", "shape": [1, 1, 160, 40], "dtype": "float32"}, {"name": "StatefulPartitionedCall/functional_1/RESNET_IDENTITY_BLOCK2_1__conv1/Conv2D_bn_offset", "shape": [40], "dtype": "float32"}, {"name": "StatefulPartitionedCall/functional_1/RFE_BLOCK1_conv3_0/Conv2D_weights", "shape": [1, 1, 5, 5], "dtype": "float32"}, {"name": "StatefulPartitionedCall/functional_1/RESNET_IDENTITY_BLOCK2_1__conv2/Conv2D_weights", "shape": [3, 3, 40, 40], "dtype": "float32"}, {"name": "StatefulPartitionedCall/functional_1/RESNET_IDENTITY_BLOCK2_1__conv2/Conv2D_bn_offset", "shape": [40], "dtype": "float32"}, {"name": "StatefulPartitionedCall/functional_1/RFE_BLOCK1_conv3_0/Conv2D_bn_offset", "shape": [5], "dtype": "float32"}, {"name": "StatefulPartitionedCall/functional_1/RESNET_IDENTITY_BLOCK2_1__conv3/Conv2D_weights", "shape": [1, 1, 40, 160], "dtype": "float32"}, {"name": "StatefulPartitionedCall/functional_1/RESNET_IDENTITY_BLOCK2_1__conv3/Conv2D_bn_offset", "shape": [160], "dtype": "float32"}, {"name": "StatefulPartitionedCall/functional_1/RESNET_IDENTITY_BLOCK2_2__conv1/Conv2D_weights", "shape": [1, 1, 160, 40], "dtype": "float32"}, {"name": "StatefulPartitionedCall/functional_1/RESNET_IDENTITY_BLOCK2_2__conv1/Conv2D_bn_offset", "shape": [40], "dtype": "float32"}, {"name": "StatefulPartitionedCall/functional_1/RFE_BLOCK1_conv3_1/Conv2D_weights", "shape": [1, 1, 5, 5], "dtype": "float32"}, {"name": "StatefulPartitionedCall/functional_1/RESNET_IDENTITY_BLOCK2_2__conv2/Conv2D_weights", "shape": [3, 3, 40, 40], "dtype": "float32"}, {"name": "StatefulPartitionedCall/functional_1/RESNET_IDENTITY_BLOCK2_2__conv2/Conv2D_bn_offset", "shape": [40], "dtype": "float32"}, {"name": "StatefulPartitionedCall/functional_1/RFE_BLOCK1_conv3_1/Conv2D_bn_offset", "shape": [5], "dtype": "float32"}, {"name": "StatefulPartitionedCall/functional_1/RESNET_IDENTITY_BLOCK2_2__conv3/Conv2D_weights", "shape": [1, 1, 40, 160], "dtype": "float32"}, {"name": "StatefulPartitionedCall/functional_1/RESNET_IDENTITY_BLOCK2_2__conv3/Conv2D_bn_offset", "shape": [160], "dtype": "float32"}, {"name": "StatefulPartitionedCall/functional_1/RESNET_IDENTITY_BLOCK2_3__conv1/Conv2D_weights", "shape": [1, 1, 160, 40], "dtype": "float32"}, {"name": "StatefulPartitionedCall/functional_1/RESNET_IDENTITY_BLOCK2_3__conv1/Conv2D_bn_offset", "shape": [40], "dtype": "float32"}, {"name": "StatefulPartitionedCall/functional_1/RFE_BLOCK1_conv3_2/Conv2D_weights", "shape": [1, 1, 5, 5], "dtype": "float32"}, {"name": "StatefulPartitionedCall/functional_1/RESNET_IDENTITY_BLOCK2_3__conv2/Conv2D_weights", "shape": [3, 3, 40, 40], "dtype": "float32"}, {"name": "StatefulPartitionedCall/functional_1/RESNET_IDENTITY_BLOCK2_3__conv2/Conv2D_bn_offset", "shape": [40], "dtype": "float32"}, {"name": "StatefulPartitionedCall/functional_1/RFE_BLOCK1_conv3_2/Conv2D_bn_offset", "shape": [5], "dtype": "float32"}, {"name": "StatefulPartitionedCall/functional_1/RESNET_IDENTITY_BLOCK2_3__conv3/Conv2D_weights", "shape": [1, 1, 40, 160], "dtype": "float32"}, {"name": "StatefulPartitionedCall/functional_1/RESNET_IDENTITY_BLOCK2_3__conv3/Conv2D_bn_offset", "shape": [160], "dtype": "float32"}, {"name": "StatefulPartitionedCall/functional_1/RESNET_IDENTITY_BLOCK2_4__conv1/Conv2D_weights", "shape": [1, 1, 160, 40], "dtype": "float32"}, {"name": "StatefulPartitionedCall/functional_1/RESNET_IDENTITY_BLOCK2_4__conv1/Conv2D_bn_offset", "shape": [40], "dtype": "float32"}, {"name": "StatefulPartitionedCall/functional_1/RFE_BLOCK1_conv3_3/Conv2D_weights", "shape": [1, 1, 5, 5], "dtype": "float32"}, {"name": "StatefulPartitionedCall/functional_1/RESNET_IDENTITY_BLOCK2_4__conv2/Conv2D_weights", "shape": [3, 3, 40, 40], "dtype": "float32"}, {"name": "StatefulPartitionedCall/functional_1/RESNET_IDENTITY_BLOCK2_4__conv2/Conv2D_bn_offset", "shape": [40], "dtype": "float32"}, {"name": "StatefulPartitionedCall/functional_1/RFE_BLOCK1_conv3_3/Conv2D_bn_offset", "shape": [5], "dtype": "float32"}, {"name": "StatefulPartitionedCall/functional_1/RESNET_IDENTITY_BLOCK2_4__conv3/Conv2D_weights", "shape": [1, 1, 40, 160], "dtype": "float32"}, {"name": "StatefulPartitionedCall/functional_1/RESNET_IDENTITY_BLOCK2_4__conv3/Conv2D_bn_offset", "shape": [160], "dtype": "float32"}, {"name": "StatefulPartitionedCall/functional_1/RESNET_IDENTITY_BLOCK2_5__conv1/Conv2D_weights", "shape": [1, 1, 160, 40], "dtype": "float32"}, {"name": "StatefulPartitionedCall/functional_1/RESNET_IDENTITY_BLOCK2_5__conv1/Conv2D_bn_offset", "shape": [40], "dtype": "float32"}, {"name": "StatefulPartitionedCall/functional_1/RESNET_IDENTITY_BLOCK2_5__conv2/Conv2D_weights", "shape": [3, 3, 40, 40], "dtype": "float32"}, {"name": "StatefulPartitionedCall/functional_1/RFE_BLOCK2_conv2_0/Conv2D_weights", "shape": [1, 3, 5, 5], "dtype": "float32"}, {"name": "StatefulPartitionedCall/functional_1/RESNET_IDENTITY_BLOCK2_5__conv2/Conv2D_bn_offset", "shape": [40], "dtype": "float32"}, {"name": "StatefulPartitionedCall/functional_1/RESNET_IDENTITY_BLOCK2_5__conv3/Conv2D_weights", "shape": [1, 1, 40, 160], "dtype": "float32"}, {"name": "StatefulPartitionedCall/functional_1/RFE_BLOCK2_conv2_0/Conv2D_bn_offset", "shape": [5], "dtype": "float32"}, {"name": "StatefulPartitionedCall/functional_1/RESNET_IDENTITY_BLOCK2_5__conv3/Conv2D_bn_offset", "shape": [160], "dtype": "float32"}, {"name": "StatefulPartitionedCall/functional_1/RESNET_IDENTITY_BLOCK2_6__conv1/Conv2D_weights", "shape": [1, 1, 160, 40], "dtype": "float32"}, {"name": "StatefulPartitionedCall/functional_1/RESNET_IDENTITY_BLOCK2_6__conv1/Conv2D_bn_offset", "shape": [40], "dtype": "float32"}, {"name": "StatefulPartitionedCall/functional_1/RESNET_IDENTITY_BLOCK2_6__conv2/Conv2D_weights", "shape": [3, 3, 40, 40], "dtype": "float32"}, {"name": "StatefulPartitionedCall/functional_1/RFE_BLOCK2_conv2_1/Conv2D_weights", "shape": [1, 5, 5, 5], "dtype": "float32"}, {"name": "StatefulPartitionedCall/functional_1/RESNET_IDENTITY_BLOCK2_6__conv2/Conv2D_bn_offset", "shape": [40], "dtype": "float32"}, {"name": "StatefulPartitionedCall/functional_1/RESNET_IDENTITY_BLOCK2_6__conv3/Conv2D_weights", "shape": [1, 1, 40, 160], "dtype": "float32"}, {"name": "StatefulPartitionedCall/functional_1/RFE_BLOCK2_conv2_1/Conv2D_bn_offset", "shape": [5], "dtype": "float32"}, {"name": "StatefulPartitionedCall/functional_1/RESNET_IDENTITY_BLOCK2_6__conv3/Conv2D_bn_offset", "shape": [160], "dtype": "float32"}, {"name": "StatefulPartitionedCall/functional_1/RESNET_IDENTITY_BLOCK2_7__conv1/Conv2D_weights", "shape": [1, 1, 160, 40], "dtype": "float32"}, {"name": "StatefulPartitionedCall/functional_1/RESNET_IDENTITY_BLOCK2_7__conv1/Conv2D_bn_offset", "shape": [40], "dtype": "float32"}, {"name": "StatefulPartitionedCall/functional_1/RESNET_IDENTITY_BLOCK2_7__conv2/Conv2D_weights", "shape": [3, 3, 40, 40], "dtype": "float32"}, {"name": "StatefulPartitionedCall/functional_1/RFE_BLOCK2_conv2_2/Conv2D_weights", "shape": [3, 1, 5, 5], "dtype": "float32"}, {"name": "StatefulPartitionedCall/functional_1/RESNET_IDENTITY_BLOCK2_7__conv2/Conv2D_bn_offset", "shape": [40], "dtype": "float32"}, {"name": "StatefulPartitionedCall/functional_1/RESNET_IDENTITY_BLOCK2_7__conv3/Conv2D_weights", "shape": [1, 1, 40, 160], "dtype": "float32"}, {"name": "StatefulPartitionedCall/functional_1/RFE_BLOCK2_conv2_2/Conv2D_bn_offset", "shape": [5], "dtype": "float32"}, {"name": "StatefulPartitionedCall/functional_1/RESNET_IDENTITY_BLOCK2_7__conv3/Conv2D_bn_offset", "shape": [160], "dtype": "float32"}, {"name": "StatefulPartitionedCall/functional_1/RESNET_IDENTITY_BLOCK2_8__conv1/Conv2D_weights", "shape": [1, 1, 160, 40], "dtype": "float32"}, {"name": "StatefulPartitionedCall/functional_1/RESNET_IDENTITY_BLOCK2_8__conv1/Conv2D_bn_offset", "shape": [40], "dtype": "float32"}, {"name": "StatefulPartitionedCall/functional_1/RESNET_IDENTITY_BLOCK2_8__conv2/Conv2D_weights", "shape": [3, 3, 40, 40], "dtype": "float32"}, {"name": "StatefulPartitionedCall/functional_1/RFE_BLOCK2_conv2_3/Conv2D_weights", "shape": [5, 1, 5, 5], "dtype": "float32"}, {"name": "StatefulPartitionedCall/functional_1/RESNET_IDENTITY_BLOCK2_8__conv2/Conv2D_bn_offset", "shape": [40], "dtype": "float32"}, {"name": "StatefulPartitionedCall/functional_1/RESNET_IDENTITY_BLOCK2_8__conv3/Conv2D_weights", "shape": [1, 1, 40, 160], "dtype": "float32"}, {"name": "StatefulPartitionedCall/functional_1/RFE_BLOCK2_conv2_3/Conv2D_bn_offset", "shape": [5], "dtype": "float32"}, {"name": "StatefulPartitionedCall/functional_1/RESNET_IDENTITY_BLOCK2_8__conv3/Conv2D_bn_offset", "shape": [160], "dtype": "float32"}, {"name": "StatefulPartitionedCall/functional_1/RESNET_IDENTITY_BLOCK2_9__conv1/Conv2D_weights", "shape": [1, 1, 160, 40], "dtype": "float32"}, {"name": "StatefulPartitionedCall/functional_1/RESNET_IDENTITY_BLOCK2_9__conv1/Conv2D_bn_offset", "shape": [40], "dtype": "float32"}, {"name": "StatefulPartitionedCall/functional_1/RESNET_IDENTITY_BLOCK2_9__conv2/Conv2D_weights", "shape": [3, 3, 40, 40], "dtype": "float32"}, {"name": "StatefulPartitionedCall/functional_1/RFE_BLOCK2_conv3_0/Conv2D_weights", "shape": [1, 1, 5, 5], "dtype": "float32"}, {"name": "StatefulPartitionedCall/functional_1/RESNET_IDENTITY_BLOCK2_9__conv2/Conv2D_bn_offset", "shape": [40], "dtype": "float32"}, {"name": "StatefulPartitionedCall/functional_1/RESNET_IDENTITY_BLOCK2_9__conv3/Conv2D_weights", "shape": [1, 1, 40, 160], "dtype": "float32"}, {"name": "StatefulPartitionedCall/functional_1/RFE_BLOCK2_conv3_0/Conv2D_bn_offset", "shape": [5], "dtype": "float32"}, {"name": "StatefulPartitionedCall/functional_1/RESNET_IDENTITY_BLOCK2_9__conv3/Conv2D_bn_offset", "shape": [160], "dtype": "float32"}, {"name": "StatefulPartitionedCall/functional_1/RESNET_IDENTITY_BLOCK2_10__conv1/Conv2D_weights", "shape": [1, 1, 160, 40], "dtype": "float32"}, {"name": "StatefulPartitionedCall/functional_1/RESNET_IDENTITY_BLOCK2_10__conv1/Conv2D_bn_offset", "shape": [40], "dtype": "float32"}, {"name": "StatefulPartitionedCall/functional_1/RESNET_IDENTITY_BLOCK2_10__conv2/Conv2D_weights", "shape": [3, 3, 40, 40], "dtype": "float32"}, {"name": "StatefulPartitionedCall/functional_1/RFE_BLOCK2_conv3_1/Conv2D_weights", "shape": [1, 1, 5, 5], "dtype": "float32"}, {"name": "StatefulPartitionedCall/functional_1/RESNET_IDENTITY_BLOCK2_10__conv2/Conv2D_bn_offset", "shape": [40], "dtype": "float32"}, {"name": "StatefulPartitionedCall/functional_1/RESNET_IDENTITY_BLOCK2_10__conv3/Conv2D_weights", "shape": [1, 1, 40, 160], "dtype": "float32"}, {"name": "StatefulPartitionedCall/functional_1/RFE_BLOCK2_conv3_1/Conv2D_bn_offset", "shape": [5], "dtype": "float32"}, {"name": "StatefulPartitionedCall/functional_1/RESNET_IDENTITY_BLOCK2_10__conv3/Conv2D_bn_offset", "shape": [160], "dtype": "float32"}, {"name": "StatefulPartitionedCall/functional_1/RESNET_IDENTITY_BLOCK2_11__conv1/Conv2D_weights", "shape": [1, 1, 160, 40], "dtype": "float32"}, {"name": "StatefulPartitionedCall/functional_1/RESNET_IDENTITY_BLOCK2_11__conv1/Conv2D_bn_offset", "shape": [40], "dtype": "float32"}, {"name": "StatefulPartitionedCall/functional_1/RESNET_IDENTITY_BLOCK2_11__conv2/Conv2D_weights", "shape": [3, 3, 40, 40], "dtype": "float32"}, {"name": "StatefulPartitionedCall/functional_1/RFE_BLOCK2_conv3_2/Conv2D_weights", "shape": [1, 1, 5, 5], "dtype": "float32"}, {"name": "StatefulPartitionedCall/functional_1/RESNET_IDENTITY_BLOCK2_11__conv2/Conv2D_bn_offset", "shape": [40], "dtype": "float32"}, {"name": "StatefulPartitionedCall/functional_1/RESNET_IDENTITY_BLOCK2_11__conv3/Conv2D_weights", "shape": [1, 1, 40, 160], "dtype": "float32"}, {"name": "StatefulPartitionedCall/functional_1/RFE_BLOCK2_conv3_2/Conv2D_bn_offset", "shape": [5], "dtype": "float32"}, {"name": "StatefulPartitionedCall/functional_1/RESNET_IDENTITY_BLOCK2_11__conv3/Conv2D_bn_offset", "shape": [160], "dtype": "float32"}, {"name": "StatefulPartitionedCall/functional_1/RESNET_IDENTITY_BLOCK2_12__conv1/Conv2D_weights", "shape": [1, 1, 160, 40], "dtype": "float32"}, {"name": "StatefulPartitionedCall/functional_1/RESNET_IDENTITY_BLOCK2_12__conv1/Conv2D_bn_offset", "shape": [40], "dtype": "float32"}, {"name": "StatefulPartitionedCall/functional_1/RESNET_IDENTITY_BLOCK2_12__conv2/Conv2D_weights", "shape": [3, 3, 40, 40], "dtype": "float32"}, {"name": "StatefulPartitionedCall/functional_1/RFE_BLOCK2_conv3_3/Conv2D_weights", "shape": [1, 1, 5, 5], "dtype": "float32"}, {"name": "StatefulPartitionedCall/functional_1/RESNET_IDENTITY_BLOCK2_12__conv2/Conv2D_bn_offset", "shape": [40], "dtype": "float32"}, {"name": "StatefulPartitionedCall/functional_1/RESNET_IDENTITY_BLOCK2_12__conv3/Conv2D_weights", "shape": [1, 1, 40, 160], "dtype": "float32"}]}]}