{"format": "graph-model", "generatedBy": "2.3.1", "convertedBy": "TensorFlow.js Converter v2.7.0", "userDefinedMetadata": {"signature": {"inputs": {"input:0": {"name": "input:0", "dtype": "DT_UINT8", "tensorShape": {"dim": [{"size": "-1"}, {"size": "240"}, {"size": "200"}, {"size": "3"}]}}}, "outputs": {"Identity_1:0": {"name": "Identity_1:0", "dtype": "DT_FLOAT", "tensorShape": {"dim": [{"size": "330"}, {"size": "5"}]}}, "Identity:0": {"name": "Identity:0", "dtype": "DT_FLOAT", "tensorShape": {"dim": [{"size": "1"}]}}}}}, "modelTopology": {"node": [{"name": "StatefulPartitionedCall/functional_1/tf_op_layer_ExpandDims_1/ExpandDims_1/dim", "op": "Const", "attr": {"value": {"tensor": {"dtype": "DT_INT32", "tensorShape": {}}}, "dtype": {"type": "DT_INT32"}}}, {"name": "StatefulPartitionedCall/functional_1/tf_op_layer_GatherV2/GatherV2/axis", "op": "Const", "attr": {"dtype": {"type": "DT_INT32"}, "value": {"tensor": {"dtype": "DT_INT32", "tensorShape": {}}}}}, {"name": "StatefulPartitionedCall/functional_1/tf_op_layer_Mul_4/Mul_4/x", "op": "Const", "attr": {"dtype": {"type": "DT_FLOAT"}, "value": {"tensor": {"dtype": "DT_FLOAT", "tensorShape": {}}}}}, {"name": "StatefulPartitionedCall/functional_1/tf_op_layer_Mul_5/Mul_5/x", "op": "Const", "attr": {"dtype": {"type": "DT_FLOAT"}, "value": {"tensor": {"dtype": "DT_FLOAT", "tensorShape": {}}}}}, {"name": "StatefulPartitionedCall/functional_1/tf_op_layer_strided_slice_3/strided_slice_3/begin", "op": "Const", "attr": {"value": {"tensor": {"dtype": "DT_INT32", "tensorShape": {"dim": [{"size": "2"}]}}}, "dtype": {"type": "DT_INT32"}}}, {"name": "StatefulPartitionedCall/functional_1/tf_op_layer_strided_slice_3/strided_slice_3/end", "op": "Const", "attr": {"dtype": {"type": "DT_INT32"}, "value": {"tensor": {"dtype": "DT_INT32", "tensorShape": {"dim": [{"size": "2"}]}}}}}, {"name": "StatefulPartitionedCall/functional_1/tf_op_layer_strided_slice_3/strided_slice_3/strides", "op": "Const", "attr": {"value": {"tensor": {"dtype": "DT_INT32", "tensorShape": {"dim": [{"size": "2"}]}}}, "dtype": {"type": "DT_INT32"}}}, {"name": "StatefulPartitionedCall/functional_1/tf_op_layer_Mul/Mul/y", "op": "Const", "attr": {"value": {"tensor": {"dtype": "DT_FLOAT", "tensorShape": {"dim": [{"size": "3000"}, {"size": "1"}]}}}, "dtype": {"type": "DT_FLOAT"}}}, {"name": "StatefulPartitionedCall/functional_1/tf_op_layer_AddV2/AddV2/y", "op": "Const", "attr": {"dtype": {"type": "DT_FLOAT"}, "value": {"tensor": {"dtype": "DT_FLOAT", "tensorShape": {"dim": [{"size": "3000"}, {"size": "1"}]}}}}}, {"name": "StatefulPartitionedCall/functional_1/tf_op_layer_Mul_6/Mul_6/x", "op": "Const", "attr": {"dtype": {"type": "DT_FLOAT"}, "value": {"tensor": {"dtype": "DT_FLOAT", "tensorShape": {}}}}}, {"name": "StatefulPartitionedCall/functional_1/tf_op_layer_Pow/Pow/x", "op": "Const", "attr": {"dtype": {"type": "DT_FLOAT"}, "value": {"tensor": {"dtype": "DT_FLOAT", "tensorShape": {}}}}}, {"name": "StatefulPartitionedCall/functional_1/tf_op_layer_strided_slice_5/strided_slice_5/begin", "op": "Const", "attr": {"value": {"tensor": {"dtype": "DT_INT32", "tensorShape": {"dim": [{"size": "2"}]}}}, "dtype": {"type": "DT_INT32"}}}, {"name": "StatefulPartitionedCall/functional_1/tf_op_layer_strided_slice_5/strided_slice_5/end", "op": "Const", "attr": {"value": {"tensor": {"dtype": "DT_INT32", "tensorShape": {"dim": [{"size": "2"}]}}}, "dtype": {"type": "DT_INT32"}}}, {"name": "StatefulPartitionedCall/functional_1/tf_op_layer_strided_slice_5/strided_slice_5/strides", "op": "Const", "attr": {"dtype": {"type": "DT_INT32"}, "value": {"tensor": {"dtype": "DT_INT32", "tensorShape": {"dim": [{"size": "2"}]}}}}}, {"name": "StatefulPartitionedCall/functional_1/tf_op_layer_Mul_2/Mul/y", "op": "Const", "attr": {"dtype": {"type": "DT_FLOAT"}, "value": {"tensor": {"dtype": "DT_FLOAT", "tensorShape": {"dim": [{"size": "3000"}, {"size": "1"}]}}}}}, {"name": "StatefulPartitionedCall/functional_1/tf_op_layer_strided_slice_4/strided_slice_4/begin", "op": "Const", "attr": {"value": {"tensor": {"dtype": "DT_INT32", "tensorShape": {"dim": [{"size": "2"}]}}}, "dtype": {"type": "DT_INT32"}}}, {"name": "StatefulPartitionedCall/functional_1/tf_op_layer_strided_slice_4/strided_slice_4/end", "op": "Const", "attr": {"dtype": {"type": "DT_INT32"}, "value": {"tensor": {"dtype": "DT_INT32", "tensorShape": {"dim": [{"size": "2"}]}}}}}, {"name": "StatefulPartitionedCall/functional_1/tf_op_layer_strided_slice_4/strided_slice_4/strides", "op": "Const", "attr": {"value": {"tensor": {"dtype": "DT_INT32", "tensorShape": {"dim": [{"size": "2"}]}}}, "dtype": {"type": "DT_INT32"}}}, {"name": "StatefulPartitionedCall/functional_1/tf_op_layer_Mul_1/Mul_1/y", "op": "Const", "attr": {"dtype": {"type": "DT_FLOAT"}, "value": {"tensor": {"dtype": "DT_FLOAT", "tensorShape": {"dim": [{"size": "3000"}, {"size": "1"}]}}}}}, {"name": "StatefulPartitionedCall/functional_1/tf_op_layer_AddV2_1/AddV2_1/y", "op": "Const", "attr": {"dtype": {"type": "DT_FLOAT"}, "value": {"tensor": {"dtype": "DT_FLOAT", "tensorShape": {"dim": [{"size": "3000"}, {"size": "1"}]}}}}}, {"name": "StatefulPartitionedCall/functional_1/tf_op_layer_Mul_7/Mul_7/x", "op": "Const", "attr": {"dtype": {"type": "DT_FLOAT"}, "value": {"tensor": {"dtype": "DT_FLOAT", "tensorShape": {}}}}}, {"name": "StatefulPartitionedCall/functional_1/tf_op_layer_Pow_1/Pow_1/x", "op": "Const", "attr": {"value": {"tensor": {"dtype": "DT_FLOAT", "tensorShape": {}}}, "dtype": {"type": "DT_FLOAT"}}}, {"name": "StatefulPartitionedCall/functional_1/tf_op_layer_strided_slice_2/strided_slice_2/begin", "op": "Const", "attr": {"value": {"tensor": {"dtype": "DT_INT32", "tensorShape": {"dim": [{"size": "2"}]}}}, "dtype": {"type": "DT_INT32"}}}, {"name": "StatefulPartitionedCall/functional_1/tf_op_layer_strided_slice_2/strided_slice_2/end", "op": "Const", "attr": {"dtype": {"type": "DT_INT32"}, "value": {"tensor": {"dtype": "DT_INT32", "tensorShape": {"dim": [{"size": "2"}]}}}}}, {"name": "StatefulPartitionedCall/functional_1/tf_op_layer_strided_slice_2/strided_slice_2/strides", "op": "Const", "attr": {"value": {"tensor": {"dtype": "DT_INT32", "tensorShape": {"dim": [{"size": "2"}]}}}, "dtype": {"type": "DT_INT32"}}}, {"name": "StatefulPartitionedCall/functional_1/tf_op_layer_strided_slice_6/strided_slice_6/begin", "op": "Const", "attr": {"dtype": {"type": "DT_INT32"}, "value": {"tensor": {"dtype": "DT_INT32", "tensorShape": {"dim": [{"size": "2"}]}}}}}, {"name": "StatefulPartitionedCall/functional_1/tf_op_layer_strided_slice_6/strided_slice_6/end", "op": "Const", "attr": {"value": {"tensor": {"dtype": "DT_INT32", "tensorShape": {"dim": [{"size": "2"}]}}}, "dtype": {"type": "DT_INT32"}}}, {"name": "StatefulPartitionedCall/functional_1/tf_op_layer_strided_slice_6/strided_slice_6/strides", "op": "Const", "attr": {"dtype": {"type": "DT_INT32"}, "value": {"tensor": {"dtype": "DT_INT32", "tensorShape": {"dim": [{"size": "2"}]}}}}}, {"name": "StatefulPartitionedCall/functional_1/tf_op_layer_Mul_3/Mul_1/y", "op": "Const", "attr": {"dtype": {"type": "DT_FLOAT"}, "value": {"tensor": {"dtype": "DT_FLOAT", "tensorShape": {"dim": [{"size": "3000"}, {"size": "1"}]}}}}}, {"name": "StatefulPartitionedCall/functional_1/tf_op_layer_concat_1/concat_1/axis", "op": "Const", "attr": {"dtype": {"type": "DT_INT32"}, "value": {"tensor": {"dtype": "DT_INT32", "tensorShape": {}}}}}, {"name": "StatefulPartitionedCall/functional_1/tf_op_layer_Max/Max/reduction_indices", "op": "Const", "attr": {"dtype": {"type": "DT_INT32"}, "value": {"tensor": {"dtype": "DT_INT32", "tensorShape": {}}}}}, {"name": "StatefulPartitionedCall/functional_1/tf_op_layer_strided_slice/strided_slice/begin", "op": "Const", "attr": {"dtype": {"type": "DT_INT32"}, "value": {"tensor": {"dtype": "DT_INT32", "tensorShape": {"dim": [{"size": "2"}]}}}}}, {"name": "StatefulPartitionedCall/functional_1/tf_op_layer_strided_slice/strided_slice/end", "op": "Const", "attr": {"value": {"tensor": {"dtype": "DT_INT32", "tensorShape": {"dim": [{"size": "2"}]}}}, "dtype": {"type": "DT_INT32"}}}, {"name": "StatefulPartitionedCall/functional_1/tf_op_layer_strided_slice/strided_slice/strides", "op": "Const", "attr": {"dtype": {"type": "DT_INT32"}, "value": {"tensor": {"dtype": "DT_INT32", "tensorShape": {"dim": [{"size": "2"}]}}}}}, {"name": "unknown_203", "op": "Const", "attr": {"dtype": {"type": "DT_FLOAT"}, "value": {"tensor": {"dtype": "DT_FLOAT", "tensorShape": {"dim": [{"size": "1"}, {"size": "1"}, {"size": "40"}, {"size": "7"}]}}}}}, {"name": "unknown_204", "op": "Const", "attr": {"value": {"tensor": {"dtype": "DT_FLOAT", "tensorShape": {"dim": [{"size": "7"}]}}}, "dtype": {"type": "DT_FLOAT"}}}, {"name": "StatefulPartitionedCall/functional_1/tf_op_layer_Reshape/Reshape/shape", "op": "Const", "attr": {"value": {"tensor": {"dtype": "DT_INT32", "tensorShape": {"dim": [{"size": "2"}]}}}, "dtype": {"type": "DT_INT32"}}}, {"name": "StatefulPartitionedCall/functional_1/tf_op_layer_strided_slice_1/strided_slice_1/begin", "op": "Const", "attr": {"value": {"tensor": {"dtype": "DT_INT32", "tensorShape": {"dim": [{"size": "2"}]}}}, "dtype": {"type": "DT_INT32"}}}, {"name": "StatefulPartitionedCall/functional_1/tf_op_layer_strided_slice_1/strided_slice_1/end", "op": "Const", "attr": {"value": {"tensor": {"dtype": "DT_INT32", "tensorShape": {"dim": [{"size": "2"}]}}}, "dtype": {"type": "DT_INT32"}}}, {"name": "StatefulPartitionedCall/functional_1/tf_op_layer_strided_slice_1/strided_slice_1/strides", "op": "Const", "attr": {"value": {"tensor": {"dtype": "DT_INT32", "tensorShape": {"dim": [{"size": "2"}]}}}, "dtype": {"type": "DT_INT32"}}}, {"name": "StatefulPartitionedCall/functional_1/tf_op_layer_concat/concat/axis", "op": "Const", "attr": {"dtype": {"type": "DT_INT32"}, "value": {"tensor": {"dtype": "DT_INT32", "tensorShape": {}}}}}, {"name": "StatefulPartitionedCall/functional_1/tf_op_layer_strided_slice_7/strided_slice_7/begin", "op": "Const", "attr": {"value": {"tensor": {"dtype": "DT_INT32", "tensorShape": {"dim": [{"size": "2"}]}}}, "dtype": {"type": "DT_INT32"}}}, {"name": "StatefulPartitionedCall/functional_1/tf_op_layer_strided_slice_7/strided_slice_7/end", "op": "Const", "attr": {"dtype": {"type": "DT_INT32"}, "value": {"tensor": {"dtype": "DT_INT32", "tensorShape": {"dim": [{"size": "2"}]}}}}}, {"name": "StatefulPartitionedCall/functional_1/tf_op_layer_strided_slice_7/strided_slice_7/strides", "op": "Const", "attr": {"dtype": {"type": "DT_INT32"}, "value": {"tensor": {"dtype": "DT_INT32", "tensorShape": {"dim": [{"size": "2"}]}}}}}, {"name": "StatefulPartitionedCall/functional_1/tf_op_layer_ArgMax/ArgMax/dimension", "op": "Const", "attr": {"dtype": {"type": "DT_INT32"}, "value": {"tensor": {"dtype": "DT_INT32", "tensorShape": {}}}}}, {"name": "StatefulPartitionedCall/functional_1/tf_op_layer_Less/Less/y", "op": "Const", "attr": {"dtype": {"type": "DT_INT64"}, "value": {"tensor": {"dtype": "DT_INT64", "tensorShape": {"dim": [{"size": "3000"}]}}}}}, {"name": "StatefulPartitionedCall/functional_1/tf_op_layer_SelectV2/SelectV2/t", "op": "Const", "attr": {"dtype": {"type": "DT_FLOAT"}, "value": {"tensor": {"dtype": "DT_FLOAT", "tensorShape": {"dim": [{"size": "3000"}]}}}}}, {"name": "StatefulPartitionedCall/functional_1/tf_op_layer_SelectV2/SelectV2/e", "op": "Const", "attr": {"value": {"tensor": {"dtype": "DT_FLOAT", "tensorShape": {"dim": [{"size": "3000"}]}}}, "dtype": {"type": "DT_FLOAT"}}}, {"name": "StatefulPartitionedCall/functional_1/tf_op_layer_NonMaxSuppressionV4/NonMaxSuppressionV4/max_output_size", "op": "Const", "attr": {"value": {"tensor": {"dtype": "DT_INT32", "tensorShape": {}}}, "dtype": {"type": "DT_INT32"}}}, {"name": "StatefulPartitionedCall/functional_1/tf_op_layer_NonMaxSuppressionV4/NonMaxSuppressionV4/iou_threshold", "op": "Const", "attr": {"value": {"tensor": {"dtype": "DT_FLOAT", "tensorShape": {}}}, "dtype": {"type": "DT_FLOAT"}}}, {"name": "StatefulPartitionedCall/functional_1/tf_op_layer_NonMaxSuppressionV4/NonMaxSuppressionV4/score_threshold", "op": "Const", "attr": {"value": {"tensor": {"dtype": "DT_FLOAT", "tensorShape": {}}}, "dtype": {"type": "DT_FLOAT"}}}, {"name": "StatefulPartitionedCall/functional_1/tf_op_layer_GatherV2_1/GatherV2_1/axis", "op": "Const", "attr": {"dtype": {"type": "DT_INT32"}, "value": {"tensor": {"dtype": "DT_INT32", "tensorShape": {}}}}}, {"name": "StatefulPartitionedCall/functional_1/tf_op_layer_ExpandDims/ExpandDims/dim", "op": "Const", "attr": {"dtype": {"type": "DT_INT32"}, "value": {"tensor": {"dtype": "DT_INT32", "tensorShape": {}}}}}, {"name": "StatefulPartitionedCall/functional_1/tf_op_layer_concat_2/concat_2/axis", "op": "Const", "attr": {"dtype": {"type": "DT_INT32"}, "value": {"tensor": {"dtype": "DT_INT32", "tensorShape": {}}}}}, {"name": "input", "op": "Placeholder", "attr": {"dtype": {"type": "DT_UINT8"}, "shape": {"shape": {"dim": [{"size": "-1"}, {"size": "240"}, {"size": "200"}, {"size": "3"}]}}}}, {"name": "StatefulPartitionedCall/functional_1/conv1/Conv2D_weights", "op": "Const", "attr": {"dtype": {"type": "DT_FLOAT"}, "value": {"tensor": {"dtype": "DT_FLOAT", "tensorShape": {"dim": [{"size": "7"}, {"size": "7"}, {"size": "3"}, {"size": "5"}]}}}}}, {"name": "StatefulPartitionedCall/functional_1/conv1/Conv2D_bn_offset", "op": "Const", "attr": {"value": {"tensor": {"dtype": "DT_FLOAT", "tensorShape": {"dim": [{"size": "5"}]}}}, "dtype": {"type": "DT_FLOAT"}}}, {"name": "StatefulPartitionedCall/functional_1/stg2_blk7__conv3/Conv2D_weights", "op": "Const", "attr": {"value": {"tensor": {"dtype": "DT_FLOAT", "tensorShape": {"dim": [{"size": "1"}, {"size": "1"}, {"size": "10"}, {"size": "40"}]}}}, "dtype": {"type": "DT_FLOAT"}}}, {"name": "StatefulPartitionedCall/functional_1/stg1_blk0__conv1/Conv2D_weights", "op": "Const", "attr": {"dtype": {"type": "DT_FLOAT"}, "value": {"tensor": {"dtype": "DT_FLOAT", "tensorShape": {"dim": [{"size": "1"}, {"size": "1"}, {"size": "5"}, {"size": "5"}]}}}}}, {"name": "StatefulPartitionedCall/functional_1/stg1_blk0__conv1/Conv2D_bn_offset", "op": "Const", "attr": {"dtype": {"type": "DT_FLOAT"}, "value": {"tensor": {"dtype": "DT_FLOAT", "tensorShape": {"dim": [{"size": "5"}]}}}}}, {"name": "StatefulPartitionedCall/functional_1/stg2_blk7__conv3/Conv2D_bn_offset", "op": "Const", "attr": {"value": {"tensor": {"dtype": "DT_FLOAT", "tensorShape": {"dim": [{"size": "40"}]}}}, "dtype": {"type": "DT_FLOAT"}}}, {"name": "StatefulPartitionedCall/functional_1/stg1_blk0__conv4/Conv2D_weights", "op": "Const", "attr": {"value": {"tensor": {"dtype": "DT_FLOAT", "tensorShape": {"dim": [{"size": "1"}, {"size": "1"}, {"size": "5"}, {"size": "20"}]}}}, "dtype": {"type": "DT_FLOAT"}}}, {"name": "StatefulPartitionedCall/functional_1/stg1_blk0__conv4/Conv2D_bn_offset", "op": "Const", "attr": {"value": {"tensor": {"dtype": "DT_FLOAT", "tensorShape": {"dim": [{"size": "20"}]}}}, "dtype": {"type": "DT_FLOAT"}}}, {"name": "StatefulPartitionedCall/functional_1/stg1_blk0__conv2/Conv2D_weights", "op": "Const", "attr": {"value": {"tensor": {"dtype": "DT_FLOAT", "tensorShape": {"dim": [{"size": "3"}, {"size": "3"}, {"size": "5"}, {"size": "5"}]}}}, "dtype": {"type": "DT_FLOAT"}}}, {"name": "StatefulPartitionedCall/functional_1/stg1_blk0__conv2/Conv2D_bn_offset", "op": "Const", "attr": {"dtype": {"type": "DT_FLOAT"}, "value": {"tensor": {"dtype": "DT_FLOAT", "tensorShape": {"dim": [{"size": "5"}]}}}}}, {"name": "StatefulPartitionedCall/functional_1/stg1_blk0__conv3/Conv2D_weights", "op": "Const", "attr": {"value": {"tensor": {"dtype": "DT_FLOAT", "tensorShape": {"dim": [{"size": "1"}, {"size": "1"}, {"size": "5"}, {"size": "20"}]}}}, "dtype": {"type": "DT_FLOAT"}}}, {"name": "StatefulPartitionedCall/functional_1/conv6/Conv2D_weights", "op": "Const", "attr": {"dtype": {"type": "DT_FLOAT"}, "value": {"tensor": {"dtype": "DT_FLOAT", "tensorShape": {"dim": [{"size": "3"}, {"size": "3"}, {"size": "40"}, {"size": "40"}]}}}}}, {"name": "StatefulPartitionedCall/functional_1/stg1_blk0__conv3/Conv2D_bn_offset", "op": "Const", "attr": {"dtype": {"type": "DT_FLOAT"}, "value": {"tensor": {"dtype": "DT_FLOAT", "tensorShape": {"dim": [{"size": "20"}]}}}}}, {"name": "StatefulPartitionedCall/functional_1/stg1_blk1__conv1/Conv2D_weights", "op": "Const", "attr": {"value": {"tensor": {"dtype": "DT_FLOAT", "tensorShape": {"dim": [{"size": "1"}, {"size": "1"}, {"size": "20"}, {"size": "5"}]}}}, "dtype": {"type": "DT_FLOAT"}}}, {"name": "StatefulPartitionedCall/functional_1/stg1_blk1__conv1/Conv2D_bn_offset", "op": "Const", "attr": {"dtype": {"type": "DT_FLOAT"}, "value": {"tensor": {"dtype": "DT_FLOAT", "tensorShape": {"dim": [{"size": "5"}]}}}}}, {"name": "StatefulPartitionedCall/functional_1/conv6/Conv2D_bn_offset", "op": "Const", "attr": {"value": {"tensor": {"dtype": "DT_FLOAT", "tensorShape": {"dim": [{"size": "40"}]}}}, "dtype": {"type": "DT_FLOAT"}}}, {"name": "StatefulPartitionedCall/functional_1/stg1_blk1__conv2/Conv2D_weights", "op": "Const", "attr": {"dtype": {"type": "DT_FLOAT"}, "value": {"tensor": {"dtype": "DT_FLOAT", "tensorShape": {"dim": [{"size": "3"}, {"size": "3"}, {"size": "5"}, {"size": "5"}]}}}}}, {"name": "StatefulPartitionedCall/functional_1/stg1_blk1__conv2/Conv2D_bn_offset", "op": "Const", "attr": {"value": {"tensor": {"dtype": "DT_FLOAT", "tensorShape": {"dim": [{"size": "5"}]}}}, "dtype": {"type": "DT_FLOAT"}}}, {"name": "StatefulPartitionedCall/functional_1/stg1_blk1__conv3/Conv2D_weights", "op": "Const", "attr": {"dtype": {"type": "DT_FLOAT"}, "value": {"tensor": {"dtype": "DT_FLOAT", "tensorShape": {"dim": [{"size": "1"}, {"size": "1"}, {"size": "5"}, {"size": "20"}]}}}}}, {"name": "StatefulPartitionedCall/functional_1/stg1_blk1__conv3/Conv2D_bn_offset", "op": "Const", "attr": {"dtype": {"type": "DT_FLOAT"}, "value": {"tensor": {"dtype": "DT_FLOAT", "tensorShape": {"dim": [{"size": "20"}]}}}}}, {"name": "StatefulPartitionedCall/functional_1/stg2_blk0__conv1/Conv2D_weights", "op": "Const", "attr": {"value": {"tensor": {"dtype": "DT_FLOAT", "tensorShape": {"dim": [{"size": "1"}, {"size": "1"}, {"size": "20"}, {"size": "10"}]}}}, "dtype": {"type": "DT_FLOAT"}}}, {"name": "StatefulPartitionedCall/functional_1/stg2_blk0__conv1/Conv2D_bn_offset", "op": "Const", "attr": {"value": {"tensor": {"dtype": "DT_FLOAT", "tensorShape": {"dim": [{"size": "10"}]}}}, "dtype": {"type": "DT_FLOAT"}}}, {"name": "StatefulPartitionedCall/functional_1/stg2_blk0__conv4/Conv2D_weights", "op": "Const", "attr": {"value": {"tensor": {"dtype": "DT_FLOAT", "tensorShape": {"dim": [{"size": "1"}, {"size": "1"}, {"size": "20"}, {"size": "40"}]}}}, "dtype": {"type": "DT_FLOAT"}}}, {"name": "StatefulPartitionedCall/functional_1/stg2_blk0__conv4/Conv2D_bn_offset", "op": "Const", "attr": {"dtype": {"type": "DT_FLOAT"}, "value": {"tensor": {"dtype": "DT_FLOAT", "tensorShape": {"dim": [{"size": "40"}]}}}}}, {"name": "StatefulPartitionedCall/functional_1/stg2_blk0__conv2/Conv2D_weights", "op": "Const", "attr": {"dtype": {"type": "DT_FLOAT"}, "value": {"tensor": {"dtype": "DT_FLOAT", "tensorShape": {"dim": [{"size": "3"}, {"size": "3"}, {"size": "10"}, {"size": "10"}]}}}}}, {"name": "StatefulPartitionedCall/functional_1/stg2_blk0__conv2/Conv2D_bn_offset", "op": "Const", "attr": {"value": {"tensor": {"dtype": "DT_FLOAT", "tensorShape": {"dim": [{"size": "10"}]}}}, "dtype": {"type": "DT_FLOAT"}}}, {"name": "StatefulPartitionedCall/functional_1/stg2_blk0__conv3/Conv2D_weights", "op": "Const", "attr": {"value": {"tensor": {"dtype": "DT_FLOAT", "tensorShape": {"dim": [{"size": "1"}, {"size": "1"}, {"size": "10"}, {"size": "40"}]}}}, "dtype": {"type": "DT_FLOAT"}}}, {"name": "StatefulPartitionedCall/functional_1/stg2_blk0__conv3/Conv2D_bn_offset", "op": "Const", "attr": {"dtype": {"type": "DT_FLOAT"}, "value": {"tensor": {"dtype": "DT_FLOAT", "tensorShape": {"dim": [{"size": "40"}]}}}}}, {"name": "StatefulPartitionedCall/functional_1/stg2_blk1__conv1/Conv2D_weights", "op": "Const", "attr": {"dtype": {"type": "DT_FLOAT"}, "value": {"tensor": {"dtype": "DT_FLOAT", "tensorShape": {"dim": [{"size": "1"}, {"size": "1"}, {"size": "40"}, {"size": "10"}]}}}}}, {"name": "StatefulPartitionedCall/functional_1/stg2_blk1__conv1/Conv2D_bn_offset", "op": "Const", "attr": {"value": {"tensor": {"dtype": "DT_FLOAT", "tensorShape": {"dim": [{"size": "10"}]}}}, "dtype": {"type": "DT_FLOAT"}}}, {"name": "StatefulPartitionedCall/functional_1/stg2_blk1__conv2/Conv2D_weights", "op": "Const", "attr": {"dtype": {"type": "DT_FLOAT"}, "value": {"tensor": {"dtype": "DT_FLOAT", "tensorShape": {"dim": [{"size": "3"}, {"size": "3"}, {"size": "10"}, {"size": "10"}]}}}}}, {"name": "StatefulPartitionedCall/functional_1/stg2_blk1__conv2/Conv2D_bn_offset", "op": "Const", "attr": {"value": {"tensor": {"dtype": "DT_FLOAT", "tensorShape": {"dim": [{"size": "10"}]}}}, "dtype": {"type": "DT_FLOAT"}}}, {"name": "StatefulPartitionedCall/functional_1/stg2_blk1__conv3/Conv2D_weights", "op": "Const", "attr": {"dtype": {"type": "DT_FLOAT"}, "value": {"tensor": {"dtype": "DT_FLOAT", "tensorShape": {"dim": [{"size": "1"}, {"size": "1"}, {"size": "10"}, {"size": "40"}]}}}}}, {"name": "StatefulPartitionedCall/functional_1/stg2_blk1__conv3/Conv2D_bn_offset", "op": "Const", "attr": {"value": {"tensor": {"dtype": "DT_FLOAT", "tensorShape": {"dim": [{"size": "40"}]}}}, "dtype": {"type": "DT_FLOAT"}}}, {"name": "StatefulPartitionedCall/functional_1/stg2_blk2__conv1/Conv2D_weights", "op": "Const", "attr": {"dtype": {"type": "DT_FLOAT"}, "value": {"tensor": {"dtype": "DT_FLOAT", "tensorShape": {"dim": [{"size": "1"}, {"size": "1"}, {"size": "40"}, {"size": "10"}]}}}}}, {"name": "StatefulPartitionedCall/functional_1/stg2_blk2__conv1/Conv2D_bn_offset", "op": "Const", "attr": {"value": {"tensor": {"dtype": "DT_FLOAT", "tensorShape": {"dim": [{"size": "10"}]}}}, "dtype": {"type": "DT_FLOAT"}}}, {"name": "StatefulPartitionedCall/functional_1/stg2_blk2__conv2/Conv2D_weights", "op": "Const", "attr": {"dtype": {"type": "DT_FLOAT"}, "value": {"tensor": {"dtype": "DT_FLOAT", "tensorShape": {"dim": [{"size": "3"}, {"size": "3"}, {"size": "10"}, {"size": "10"}]}}}}}, {"name": "StatefulPartitionedCall/functional_1/stg2_blk2__conv2/Conv2D_bn_offset", "op": "Const", "attr": {"dtype": {"type": "DT_FLOAT"}, "value": {"tensor": {"dtype": "DT_FLOAT", "tensorShape": {"dim": [{"size": "10"}]}}}}}, {"name": "StatefulPartitionedCall/functional_1/stg2_blk2__conv3/Conv2D_weights", "op": "Const", "attr": {"value": {"tensor": {"dtype": "DT_FLOAT", "tensorShape": {"dim": [{"size": "1"}, {"size": "1"}, {"size": "10"}, {"size": "40"}]}}}, "dtype": {"type": "DT_FLOAT"}}}, {"name": "StatefulPartitionedCall/functional_1/stg2_blk2__conv3/Conv2D_bn_offset", "op": "Const", "attr": {"dtype": {"type": "DT_FLOAT"}, "value": {"tensor": {"dtype": "DT_FLOAT", "tensorShape": {"dim": [{"size": "40"}]}}}}}, {"name": "StatefulPartitionedCall/functional_1/stg2_blk3__conv1/Conv2D_weights", "op": "Const", "attr": {"dtype": {"type": "DT_FLOAT"}, "value": {"tensor": {"dtype": "DT_FLOAT", "tensorShape": {"dim": [{"size": "1"}, {"size": "1"}, {"size": "40"}, {"size": "10"}]}}}}}, {"name": "StatefulPartitionedCall/functional_1/stg2_blk3__conv1/Conv2D_bn_offset", "op": "Const", "attr": {"value": {"tensor": {"dtype": "DT_FLOAT", "tensorShape": {"dim": [{"size": "10"}]}}}, "dtype": {"type": "DT_FLOAT"}}}, {"name": "StatefulPartitionedCall/functional_1/stg2_blk3__conv2/Conv2D_weights", "op": "Const", "attr": {"value": {"tensor": {"dtype": "DT_FLOAT", "tensorShape": {"dim": [{"size": "3"}, {"size": "3"}, {"size": "10"}, {"size": "10"}]}}}, "dtype": {"type": "DT_FLOAT"}}}, {"name": "StatefulPartitionedCall/functional_1/stg2_blk3__conv2/Conv2D_bn_offset", "op": "Const", "attr": {"dtype": {"type": "DT_FLOAT"}, "value": {"tensor": {"dtype": "DT_FLOAT", "tensorShape": {"dim": [{"size": "10"}]}}}}}, {"name": "StatefulPartitionedCall/functional_1/stg2_blk3__conv3/Conv2D_weights", "op": "Const", "attr": {"value": {"tensor": {"dtype": "DT_FLOAT", "tensorShape": {"dim": [{"size": "1"}, {"size": "1"}, {"size": "10"}, {"size": "40"}]}}}, "dtype": {"type": "DT_FLOAT"}}}, {"name": "StatefulPartitionedCall/functional_1/stg2_blk3__conv3/Conv2D_bn_offset", "op": "Const", "attr": {"value": {"tensor": {"dtype": "DT_FLOAT", "tensorShape": {"dim": [{"size": "40"}]}}}, "dtype": {"type": "DT_FLOAT"}}}, {"name": "StatefulPartitionedCall/functional_1/stg2_blk4__conv1/Conv2D_weights", "op": "Const", "attr": {"value": {"tensor": {"dtype": "DT_FLOAT", "tensorShape": {"dim": [{"size": "1"}, {"size": "1"}, {"size": "40"}, {"size": "10"}]}}}, "dtype": {"type": "DT_FLOAT"}}}, {"name": "StatefulPartitionedCall/functional_1/stg2_blk4__conv1/Conv2D_bn_offset", "op": "Const", "attr": {"dtype": {"type": "DT_FLOAT"}, "value": {"tensor": {"dtype": "DT_FLOAT", "tensorShape": {"dim": [{"size": "10"}]}}}}}, {"name": "StatefulPartitionedCall/functional_1/stg2_blk4__conv2/Conv2D_weights", "op": "Const", "attr": {"value": {"tensor": {"dtype": "DT_FLOAT", "tensorShape": {"dim": [{"size": "3"}, {"size": "3"}, {"size": "10"}, {"size": "10"}]}}}, "dtype": {"type": "DT_FLOAT"}}}, {"name": "StatefulPartitionedCall/functional_1/stg2_blk4__conv2/Conv2D_bn_offset", "op": "Const", "attr": {"value": {"tensor": {"dtype": "DT_FLOAT", "tensorShape": {"dim": [{"size": "10"}]}}}, "dtype": {"type": "DT_FLOAT"}}}, {"name": "StatefulPartitionedCall/functional_1/stg2_blk4__conv3/Conv2D_weights", "op": "Const", "attr": {"dtype": {"type": "DT_FLOAT"}, "value": {"tensor": {"dtype": "DT_FLOAT", "tensorShape": {"dim": [{"size": "1"}, {"size": "1"}, {"size": "10"}, {"size": "40"}]}}}}}, {"name": "StatefulPartitionedCall/functional_1/stg2_blk4__conv3/Conv2D_bn_offset", "op": "Const", "attr": {"dtype": {"type": "DT_FLOAT"}, "value": {"tensor": {"dtype": "DT_FLOAT", "tensorShape": {"dim": [{"size": "40"}]}}}}}, {"name": "StatefulPartitionedCall/functional_1/stg2_blk5__conv1/Conv2D_weights", "op": "Const", "attr": {"value": {"tensor": {"dtype": "DT_FLOAT", "tensorShape": {"dim": [{"size": "1"}, {"size": "1"}, {"size": "40"}, {"size": "10"}]}}}, "dtype": {"type": "DT_FLOAT"}}}, {"name": "StatefulPartitionedCall/functional_1/stg2_blk5__conv1/Conv2D_bn_offset", "op": "Const", "attr": {"dtype": {"type": "DT_FLOAT"}, "value": {"tensor": {"dtype": "DT_FLOAT", "tensorShape": {"dim": [{"size": "10"}]}}}}}, {"name": "StatefulPartitionedCall/functional_1/stg2_blk5__conv2/Conv2D_weights", "op": "Const", "attr": {"dtype": {"type": "DT_FLOAT"}, "value": {"tensor": {"dtype": "DT_FLOAT", "tensorShape": {"dim": [{"size": "3"}, {"size": "3"}, {"size": "10"}, {"size": "10"}]}}}}}, {"name": "StatefulPartitionedCall/functional_1/stg2_blk5__conv2/Conv2D_bn_offset", "op": "Const", "attr": {"dtype": {"type": "DT_FLOAT"}, "value": {"tensor": {"dtype": "DT_FLOAT", "tensorShape": {"dim": [{"size": "10"}]}}}}}, {"name": "StatefulPartitionedCall/functional_1/stg2_blk5__conv3/Conv2D_weights", "op": "Const", "attr": {"dtype": {"type": "DT_FLOAT"}, "value": {"tensor": {"dtype": "DT_FLOAT", "tensorShape": {"dim": [{"size": "1"}, {"size": "1"}, {"size": "10"}, {"size": "40"}]}}}}}, {"name": "StatefulPartitionedCall/functional_1/stg2_blk5__conv3/Conv2D_bn_offset", "op": "Const", "attr": {"value": {"tensor": {"dtype": "DT_FLOAT", "tensorShape": {"dim": [{"size": "40"}]}}}, "dtype": {"type": "DT_FLOAT"}}}, {"name": "StatefulPartitionedCall/functional_1/stg2_blk6__conv1/Conv2D_weights", "op": "Const", "attr": {"dtype": {"type": "DT_FLOAT"}, "value": {"tensor": {"dtype": "DT_FLOAT", "tensorShape": {"dim": [{"size": "1"}, {"size": "1"}, {"size": "40"}, {"size": "10"}]}}}}}, {"name": "StatefulPartitionedCall/functional_1/stg2_blk6__conv1/Conv2D_bn_offset", "op": "Const", "attr": {"dtype": {"type": "DT_FLOAT"}, "value": {"tensor": {"dtype": "DT_FLOAT", "tensorShape": {"dim": [{"size": "10"}]}}}}}, {"name": "StatefulPartitionedCall/functional_1/stg2_blk6__conv2/Conv2D_weights", "op": "Const", "attr": {"dtype": {"type": "DT_FLOAT"}, "value": {"tensor": {"dtype": "DT_FLOAT", "tensorShape": {"dim": [{"size": "3"}, {"size": "3"}, {"size": "10"}, {"size": "10"}]}}}}}, {"name": "StatefulPartitionedCall/functional_1/stg2_blk6__conv2/Conv2D_bn_offset", "op": "Const", "attr": {"dtype": {"type": "DT_FLOAT"}, "value": {"tensor": {"dtype": "DT_FLOAT", "tensorShape": {"dim": [{"size": "10"}]}}}}}, {"name": "StatefulPartitionedCall/functional_1/stg2_blk6__conv3/Conv2D_weights", "op": "Const", "attr": {"value": {"tensor": {"dtype": "DT_FLOAT", "tensorShape": {"dim": [{"size": "1"}, {"size": "1"}, {"size": "10"}, {"size": "40"}]}}}, "dtype": {"type": "DT_FLOAT"}}}, {"name": "StatefulPartitionedCall/functional_1/stg2_blk6__conv3/Conv2D_bn_offset", "op": "Const", "attr": {"dtype": {"type": "DT_FLOAT"}, "value": {"tensor": {"dtype": "DT_FLOAT", "tensorShape": {"dim": [{"size": "40"}]}}}}}, {"name": "StatefulPartitionedCall/functional_1/stg2_blk7__conv1/Conv2D_weights", "op": "Const", "attr": {"value": {"tensor": {"dtype": "DT_FLOAT", "tensorShape": {"dim": [{"size": "1"}, {"size": "1"}, {"size": "40"}, {"size": "10"}]}}}, "dtype": {"type": "DT_FLOAT"}}}, {"name": "StatefulPartitionedCall/functional_1/stg2_blk7__conv1/Conv2D_bn_offset", "op": "Const", "attr": {"value": {"tensor": {"dtype": "DT_FLOAT", "tensorShape": {"dim": [{"size": "10"}]}}}, "dtype": {"type": "DT_FLOAT"}}}, {"name": "StatefulPartitionedCall/functional_1/stg2_blk7__conv2/Conv2D_weights", "op": "Const", "attr": {"value": {"tensor": {"dtype": "DT_FLOAT", "tensorShape": {"dim": [{"size": "3"}, {"size": "3"}, {"size": "10"}, {"size": "10"}]}}}, "dtype": {"type": "DT_FLOAT"}}}, {"name": "StatefulPartitionedCall/functional_1/stg2_blk7__conv2/Conv2D_bn_offset", "op": "Const", "attr": {"value": {"tensor": {"dtype": "DT_FLOAT", "tensorShape": {"dim": [{"size": "10"}]}}}, "dtype": {"type": "DT_FLOAT"}}}, {"name": "StatefulPartitionedCall/functional_1/tf_op_layer_Cast/Cast", "op": "Cast", "input": ["input"], "attr": {"SrcT": {"type": "DT_UINT8"}, "DstT": {"type": "DT_FLOAT"}, "Truncate": {"b": false}, "_cloned": {"b": true}}}, {"name": "StatefulPartitionedCall/functional_1/activation/Relu", "op": "_FusedConv2D", "input": ["StatefulPartitionedCall/functional_1/tf_op_layer_Cast/Cast", "StatefulPartitionedCall/functional_1/conv1/Conv2D_weights", "StatefulPartitionedCall/functional_1/conv1/Conv2D_bn_offset"], "device": "/device:CPU:0", "attr": {"use_cudnn_on_gpu": {"b": true}, "padding": {"s": "U0FNRQ=="}, "epsilon": {"f": 0.0}, "T": {"type": "DT_FLOAT"}, "strides": {"list": {"i": ["1", "2", "2", "1"]}}, "explicit_paddings": {"list": {}}, "fused_ops": {"list": {"s": ["Qmlhc0FkZA==", "UmVsdQ=="]}}, "data_format": {"s": "TkhXQw=="}, "num_args": {"i": "1"}, "dilations": {"list": {"i": ["1", "1", "1", "1"]}}}}, {"name": "StatefulPartitionedCall/functional_1/max_pooling2d/MaxPool", "op": "MaxPool", "input": ["StatefulPartitionedCall/functional_1/activation/Relu"], "attr": {"padding": {"s": "U0FNRQ=="}, "data_format": {"s": "TkhXQw=="}, "T": {"type": "DT_FLOAT"}, "ksize": {"list": {"i": ["1", "3", "3", "1"]}}, "strides": {"list": {"i": ["1", "1", "1", "1"]}}}}, {"name": "StatefulPartitionedCall/functional_1/activation_1/Relu", "op": "_FusedConv2D", "input": ["StatefulPartitionedCall/functional_1/max_pooling2d/MaxPool", "StatefulPartitionedCall/functional_1/stg1_blk0__conv1/Conv2D_weights", "StatefulPartitionedCall/functional_1/stg1_blk0__conv1/Conv2D_bn_offset"], "device": "/device:CPU:0", "attr": {"data_format": {"s": "TkhXQw=="}, "num_args": {"i": "1"}, "T": {"type": "DT_FLOAT"}, "explicit_paddings": {"list": {}}, "epsilon": {"f": 0.0}, "use_cudnn_on_gpu": {"b": true}, "padding": {"s": "VkFMSUQ="}, "strides": {"list": {"i": ["1", "1", "1", "1"]}}, "dilations": {"list": {"i": ["1", "1", "1", "1"]}}, "fused_ops": {"list": {"s": ["Qmlhc0FkZA==", "UmVsdQ=="]}}}}, {"name": "StatefulPartitionedCall/functional_1/stg1_blk0__conv4_bn/FusedBatchNormV3", "op": "_FusedConv2D", "input": ["StatefulPartitionedCall/functional_1/max_pooling2d/MaxPool", "StatefulPartitionedCall/functional_1/stg1_blk0__conv4/Conv2D_weights", "StatefulPartitionedCall/functional_1/stg1_blk0__conv4/Conv2D_bn_offset"], "device": "/device:CPU:0", "attr": {"T": {"type": "DT_FLOAT"}, "fused_ops": {"list": {"s": ["Qmlhc0FkZA=="]}}, "use_cudnn_on_gpu": {"b": true}, "explicit_paddings": {"list": {}}, "epsilon": {"f": 0.0}, "padding": {"s": "VkFMSUQ="}, "strides": {"list": {"i": ["1", "1", "1", "1"]}}, "data_format": {"s": "TkhXQw=="}, "num_args": {"i": "1"}, "dilations": {"list": {"i": ["1", "1", "1", "1"]}}}}, {"name": "StatefulPartitionedCall/functional_1/activation_2/Relu", "op": "_FusedConv2D", "input": ["StatefulPartitionedCall/functional_1/activation_1/Relu", "StatefulPartitionedCall/functional_1/stg1_blk0__conv2/Conv2D_weights", "StatefulPartitionedCall/functional_1/stg1_blk0__conv2/Conv2D_bn_offset"], "device": "/device:CPU:0", "attr": {"fused_ops": {"list": {"s": ["Qmlhc0FkZA==", "UmVsdQ=="]}}, "use_cudnn_on_gpu": {"b": true}, "explicit_paddings": {"list": {}}, "epsilon": {"f": 0.0}, "padding": {"s": "U0FNRQ=="}, "dilations": {"list": {"i": ["1", "1", "1", "1"]}}, "data_format": {"s": "TkhXQw=="}, "strides": {"list": {"i": ["1", "1", "1", "1"]}}, "num_args": {"i": "1"}, "T": {"type": "DT_FLOAT"}}}, {"name": "StatefulPartitionedCall/functional_1/stg1_blk0__conv3_bn/FusedBatchNormV3", "op": "_FusedConv2D", "input": ["StatefulPartitionedCall/functional_1/activation_2/Relu", "StatefulPartitionedCall/functional_1/stg1_blk0__conv3/Conv2D_weights", "StatefulPartitionedCall/functional_1/stg1_blk0__conv3/Conv2D_bn_offset"], "device": "/device:CPU:0", "attr": {"fused_ops": {"list": {"s": ["Qmlhc0FkZA=="]}}, "strides": {"list": {"i": ["1", "1", "1", "1"]}}, "use_cudnn_on_gpu": {"b": true}, "dilations": {"list": {"i": ["1", "1", "1", "1"]}}, "epsilon": {"f": 0.0}, "explicit_paddings": {"list": {}}, "padding": {"s": "VkFMSUQ="}, "T": {"type": "DT_FLOAT"}, "num_args": {"i": "1"}, "data_format": {"s": "TkhXQw=="}}}, {"name": "StatefulPartitionedCall/functional_1/add/add", "op": "AddV2", "input": ["StatefulPartitionedCall/functional_1/stg1_blk0__conv3_bn/FusedBatchNormV3", "StatefulPartitionedCall/functional_1/stg1_blk0__conv4_bn/FusedBatchNormV3"], "attr": {"T": {"type": "DT_FLOAT"}}}, {"name": "StatefulPartitionedCall/functional_1/activation_3/Relu", "op": "Relu", "input": ["StatefulPartitionedCall/functional_1/add/add"], "attr": {"T": {"type": "DT_FLOAT"}}}, {"name": "StatefulPartitionedCall/functional_1/activation_4/Relu", "op": "_FusedConv2D", "input": ["StatefulPartitionedCall/functional_1/activation_3/Relu", "StatefulPartitionedCall/functional_1/stg1_blk1__conv1/Conv2D_weights", "StatefulPartitionedCall/functional_1/stg1_blk1__conv1/Conv2D_bn_offset"], "device": "/device:CPU:0", "attr": {"strides": {"list": {"i": ["1", "1", "1", "1"]}}, "dilations": {"list": {"i": ["1", "1", "1", "1"]}}, "data_format": {"s": "TkhXQw=="}, "T": {"type": "DT_FLOAT"}, "num_args": {"i": "1"}, "use_cudnn_on_gpu": {"b": true}, "fused_ops": {"list": {"s": ["Qmlhc0FkZA==", "UmVsdQ=="]}}, "epsilon": {"f": 0.0}, "padding": {"s": "VkFMSUQ="}, "explicit_paddings": {"list": {}}}}, {"name": "StatefulPartitionedCall/functional_1/activation_5/Relu", "op": "_FusedConv2D", "input": ["StatefulPartitionedCall/functional_1/activation_4/Relu", "StatefulPartitionedCall/functional_1/stg1_blk1__conv2/Conv2D_weights", "StatefulPartitionedCall/functional_1/stg1_blk1__conv2/Conv2D_bn_offset"], "device": "/device:CPU:0", "attr": {"fused_ops": {"list": {"s": ["Qmlhc0FkZA==", "UmVsdQ=="]}}, "padding": {"s": "U0FNRQ=="}, "strides": {"list": {"i": ["1", "1", "1", "1"]}}, "explicit_paddings": {"list": {}}, "num_args": {"i": "1"}, "use_cudnn_on_gpu": {"b": true}, "data_format": {"s": "TkhXQw=="}, "dilations": {"list": {"i": ["1", "1", "1", "1"]}}, "epsilon": {"f": 0.0}, "T": {"type": "DT_FLOAT"}}}, {"name": "StatefulPartitionedCall/functional_1/stg1_blk1__conv3_bn/FusedBatchNormV3", "op": "_FusedConv2D", "input": ["StatefulPartitionedCall/functional_1/activation_5/Relu", "StatefulPartitionedCall/functional_1/stg1_blk1__conv3/Conv2D_weights", "StatefulPartitionedCall/functional_1/stg1_blk1__conv3/Conv2D_bn_offset"], "device": "/device:CPU:0", "attr": {"padding": {"s": "VkFMSUQ="}, "fused_ops": {"list": {"s": ["Qmlhc0FkZA=="]}}, "num_args": {"i": "1"}, "data_format": {"s": "TkhXQw=="}, "use_cudnn_on_gpu": {"b": true}, "epsilon": {"f": 0.0}, "T": {"type": "DT_FLOAT"}, "explicit_paddings": {"list": {}}, "dilations": {"list": {"i": ["1", "1", "1", "1"]}}, "strides": {"list": {"i": ["1", "1", "1", "1"]}}}}, {"name": "StatefulPartitionedCall/functional_1/add_1/add", "op": "AddV2", "input": ["StatefulPartitionedCall/functional_1/stg1_blk1__conv3_bn/FusedBatchNormV3", "StatefulPartitionedCall/functional_1/activation_3/Relu"], "attr": {"T": {"type": "DT_FLOAT"}}}, {"name": "StatefulPartitionedCall/functional_1/activation_6/Relu", "op": "Relu", "input": ["StatefulPartitionedCall/functional_1/add_1/add"], "attr": {"T": {"type": "DT_FLOAT"}}}, {"name": "StatefulPartitionedCall/functional_1/activation_7/Relu", "op": "_FusedConv2D", "input": ["StatefulPartitionedCall/functional_1/activation_6/Relu", "StatefulPartitionedCall/functional_1/stg2_blk0__conv1/Conv2D_weights", "StatefulPartitionedCall/functional_1/stg2_blk0__conv1/Conv2D_bn_offset"], "device": "/device:CPU:0", "attr": {"padding": {"s": "VkFMSUQ="}, "num_args": {"i": "1"}, "T": {"type": "DT_FLOAT"}, "data_format": {"s": "TkhXQw=="}, "use_cudnn_on_gpu": {"b": true}, "strides": {"list": {"i": ["1", "2", "2", "1"]}}, "fused_ops": {"list": {"s": ["Qmlhc0FkZA==", "UmVsdQ=="]}}, "dilations": {"list": {"i": ["1", "1", "1", "1"]}}, "explicit_paddings": {"list": {}}, "epsilon": {"f": 0.0}}}, {"name": "StatefulPartitionedCall/functional_1/stg2_blk0__conv4_bn/FusedBatchNormV3", "op": "_FusedConv2D", "input": ["StatefulPartitionedCall/functional_1/activation_6/Relu", "StatefulPartitionedCall/functional_1/stg2_blk0__conv4/Conv2D_weights", "StatefulPartitionedCall/functional_1/stg2_blk0__conv4/Conv2D_bn_offset"], "device": "/device:CPU:0", "attr": {"padding": {"s": "VkFMSUQ="}, "dilations": {"list": {"i": ["1", "1", "1", "1"]}}, "T": {"type": "DT_FLOAT"}, "epsilon": {"f": 0.0}, "data_format": {"s": "TkhXQw=="}, "explicit_paddings": {"list": {}}, "num_args": {"i": "1"}, "strides": {"list": {"i": ["1", "2", "2", "1"]}}, "use_cudnn_on_gpu": {"b": true}, "fused_ops": {"list": {"s": ["Qmlhc0FkZA=="]}}}}, {"name": "StatefulPartitionedCall/functional_1/activation_8/Relu", "op": "_FusedConv2D", "input": ["StatefulPartitionedCall/functional_1/activation_7/Relu", "StatefulPartitionedCall/functional_1/stg2_blk0__conv2/Conv2D_weights", "StatefulPartitionedCall/functional_1/stg2_blk0__conv2/Conv2D_bn_offset"], "device": "/device:CPU:0", "attr": {"padding": {"s": "U0FNRQ=="}, "use_cudnn_on_gpu": {"b": true}, "T": {"type": "DT_FLOAT"}, "explicit_paddings": {"list": {}}, "fused_ops": {"list": {"s": ["Qmlhc0FkZA==", "UmVsdQ=="]}}, "strides": {"list": {"i": ["1", "1", "1", "1"]}}, "dilations": {"list": {"i": ["1", "1", "1", "1"]}}, "data_format": {"s": "TkhXQw=="}, "epsilon": {"f": 0.0}, "num_args": {"i": "1"}}}, {"name": "StatefulPartitionedCall/functional_1/stg2_blk0__conv3_bn/FusedBatchNormV3", "op": "_FusedConv2D", "input": ["StatefulPartitionedCall/functional_1/activation_8/Relu", "StatefulPartitionedCall/functional_1/stg2_blk0__conv3/Conv2D_weights", "StatefulPartitionedCall/functional_1/stg2_blk0__conv3/Conv2D_bn_offset"], "device": "/device:CPU:0", "attr": {"dilations": {"list": {"i": ["1", "1", "1", "1"]}}, "T": {"type": "DT_FLOAT"}, "strides": {"list": {"i": ["1", "1", "1", "1"]}}, "explicit_paddings": {"list": {}}, "use_cudnn_on_gpu": {"b": true}, "data_format": {"s": "TkhXQw=="}, "fused_ops": {"list": {"s": ["Qmlhc0FkZA=="]}}, "num_args": {"i": "1"}, "epsilon": {"f": 0.0}, "padding": {"s": "VkFMSUQ="}}}, {"name": "StatefulPartitionedCall/functional_1/add_2/add", "op": "AddV2", "input": ["StatefulPartitionedCall/functional_1/stg2_blk0__conv3_bn/FusedBatchNormV3", "StatefulPartitionedCall/functional_1/stg2_blk0__conv4_bn/FusedBatchNormV3"], "attr": {"T": {"type": "DT_FLOAT"}}}, {"name": "StatefulPartitionedCall/functional_1/activation_9/Relu", "op": "Relu", "input": ["StatefulPartitionedCall/functional_1/add_2/add"], "attr": {"T": {"type": "DT_FLOAT"}}}, {"name": "StatefulPartitionedCall/functional_1/activation_10/Relu", "op": "_FusedConv2D", "input": ["StatefulPartitionedCall/functional_1/activation_9/Relu", "StatefulPartitionedCall/functional_1/stg2_blk1__conv1/Conv2D_weights", "StatefulPartitionedCall/functional_1/stg2_blk1__conv1/Conv2D_bn_offset"], "device": "/device:CPU:0", "attr": {"data_format": {"s": "TkhXQw=="}, "num_args": {"i": "1"}, "padding": {"s": "VkFMSUQ="}, "fused_ops": {"list": {"s": ["Qmlhc0FkZA==", "UmVsdQ=="]}}, "T": {"type": "DT_FLOAT"}, "strides": {"list": {"i": ["1", "1", "1", "1"]}}, "explicit_paddings": {"list": {}}, "use_cudnn_on_gpu": {"b": true}, "epsilon": {"f": 0.0}, "dilations": {"list": {"i": ["1", "1", "1", "1"]}}}}, {"name": "StatefulPartitionedCall/functional_1/activation_11/Relu", "op": "_FusedConv2D", "input": ["StatefulPartitionedCall/functional_1/activation_10/Relu", "StatefulPartitionedCall/functional_1/stg2_blk1__conv2/Conv2D_weights", "StatefulPartitionedCall/functional_1/stg2_blk1__conv2/Conv2D_bn_offset"], "device": "/device:CPU:0", "attr": {"T": {"type": "DT_FLOAT"}, "epsilon": {"f": 0.0}, "explicit_paddings": {"list": {}}, "data_format": {"s": "TkhXQw=="}, "num_args": {"i": "1"}, "fused_ops": {"list": {"s": ["Qmlhc0FkZA==", "UmVsdQ=="]}}, "use_cudnn_on_gpu": {"b": true}, "padding": {"s": "U0FNRQ=="}, "dilations": {"list": {"i": ["1", "1", "1", "1"]}}, "strides": {"list": {"i": ["1", "1", "1", "1"]}}}}, {"name": "StatefulPartitionedCall/functional_1/stg2_blk1__conv3_bn/FusedBatchNormV3", "op": "_FusedConv2D", "input": ["StatefulPartitionedCall/functional_1/activation_11/Relu", "StatefulPartitionedCall/functional_1/stg2_blk1__conv3/Conv2D_weights", "StatefulPartitionedCall/functional_1/stg2_blk1__conv3/Conv2D_bn_offset"], "device": "/device:CPU:0", "attr": {"epsilon": {"f": 0.0}, "explicit_paddings": {"list": {}}, "num_args": {"i": "1"}, "strides": {"list": {"i": ["1", "1", "1", "1"]}}, "fused_ops": {"list": {"s": ["Qmlhc0FkZA=="]}}, "data_format": {"s": "TkhXQw=="}, "use_cudnn_on_gpu": {"b": true}, "T": {"type": "DT_FLOAT"}, "padding": {"s": "VkFMSUQ="}, "dilations": {"list": {"i": ["1", "1", "1", "1"]}}}}, {"name": "StatefulPartitionedCall/functional_1/add_3/add", "op": "AddV2", "input": ["StatefulPartitionedCall/functional_1/stg2_blk1__conv3_bn/FusedBatchNormV3", "StatefulPartitionedCall/functional_1/activation_9/Relu"], "attr": {"T": {"type": "DT_FLOAT"}}}, {"name": "StatefulPartitionedCall/functional_1/activation_12/Relu", "op": "Relu", "input": ["StatefulPartitionedCall/functional_1/add_3/add"], "attr": {"T": {"type": "DT_FLOAT"}}}, {"name": "StatefulPartitionedCall/functional_1/activation_13/Relu", "op": "_FusedConv2D", "input": ["StatefulPartitionedCall/functional_1/activation_12/Relu", "StatefulPartitionedCall/functional_1/stg2_blk2__conv1/Conv2D_weights", "StatefulPartitionedCall/functional_1/stg2_blk2__conv1/Conv2D_bn_offset"], "device": "/device:CPU:0", "attr": {"dilations": {"list": {"i": ["1", "1", "1", "1"]}}, "T": {"type": "DT_FLOAT"}, "fused_ops": {"list": {"s": ["Qmlhc0FkZA==", "UmVsdQ=="]}}, "data_format": {"s": "TkhXQw=="}, "explicit_paddings": {"list": {}}, "use_cudnn_on_gpu": {"b": true}, "padding": {"s": "VkFMSUQ="}, "num_args": {"i": "1"}, "strides": {"list": {"i": ["1", "1", "1", "1"]}}, "epsilon": {"f": 0.0}}}, {"name": "StatefulPartitionedCall/functional_1/activation_14/Relu", "op": "_FusedConv2D", "input": ["StatefulPartitionedCall/functional_1/activation_13/Relu", "StatefulPartitionedCall/functional_1/stg2_blk2__conv2/Conv2D_weights", "StatefulPartitionedCall/functional_1/stg2_blk2__conv2/Conv2D_bn_offset"], "device": "/device:CPU:0", "attr": {"padding": {"s": "U0FNRQ=="}, "dilations": {"list": {"i": ["1", "1", "1", "1"]}}, "strides": {"list": {"i": ["1", "1", "1", "1"]}}, "data_format": {"s": "TkhXQw=="}, "use_cudnn_on_gpu": {"b": true}, "explicit_paddings": {"list": {}}, "T": {"type": "DT_FLOAT"}, "fused_ops": {"list": {"s": ["Qmlhc0FkZA==", "UmVsdQ=="]}}, "num_args": {"i": "1"}, "epsilon": {"f": 0.0}}}, {"name": "StatefulPartitionedCall/functional_1/stg2_blk2__conv3_bn/FusedBatchNormV3", "op": "_FusedConv2D", "input": ["StatefulPartitionedCall/functional_1/activation_14/Relu", "StatefulPartitionedCall/functional_1/stg2_blk2__conv3/Conv2D_weights", "StatefulPartitionedCall/functional_1/stg2_blk2__conv3/Conv2D_bn_offset"], "device": "/device:CPU:0", "attr": {"epsilon": {"f": 0.0}, "num_args": {"i": "1"}, "explicit_paddings": {"list": {}}, "T": {"type": "DT_FLOAT"}, "use_cudnn_on_gpu": {"b": true}, "padding": {"s": "VkFMSUQ="}, "strides": {"list": {"i": ["1", "1", "1", "1"]}}, "data_format": {"s": "TkhXQw=="}, "fused_ops": {"list": {"s": ["Qmlhc0FkZA=="]}}, "dilations": {"list": {"i": ["1", "1", "1", "1"]}}}}, {"name": "StatefulPartitionedCall/functional_1/add_4/add", "op": "AddV2", "input": ["StatefulPartitionedCall/functional_1/stg2_blk2__conv3_bn/FusedBatchNormV3", "StatefulPartitionedCall/functional_1/activation_12/Relu"], "attr": {"T": {"type": "DT_FLOAT"}}}, {"name": "StatefulPartitionedCall/functional_1/activation_15/Relu", "op": "Relu", "input": ["StatefulPartitionedCall/functional_1/add_4/add"], "attr": {"T": {"type": "DT_FLOAT"}}}, {"name": "StatefulPartitionedCall/functional_1/activation_16/Relu", "op": "_FusedConv2D", "input": ["StatefulPartitionedCall/functional_1/activation_15/Relu", "StatefulPartitionedCall/functional_1/stg2_blk3__conv1/Conv2D_weights", "StatefulPartitionedCall/functional_1/stg2_blk3__conv1/Conv2D_bn_offset"], "device": "/device:CPU:0", "attr": {"epsilon": {"f": 0.0}, "T": {"type": "DT_FLOAT"}, "data_format": {"s": "TkhXQw=="}, "explicit_paddings": {"list": {}}, "padding": {"s": "VkFMSUQ="}, "num_args": {"i": "1"}, "dilations": {"list": {"i": ["1", "1", "1", "1"]}}, "strides": {"list": {"i": ["1", "1", "1", "1"]}}, "fused_ops": {"list": {"s": ["Qmlhc0FkZA==", "UmVsdQ=="]}}, "use_cudnn_on_gpu": {"b": true}}}, {"name": "StatefulPartitionedCall/functional_1/activation_17/Relu", "op": "_FusedConv2D", "input": ["StatefulPartitionedCall/functional_1/activation_16/Relu", "StatefulPartitionedCall/functional_1/stg2_blk3__conv2/Conv2D_weights", "StatefulPartitionedCall/functional_1/stg2_blk3__conv2/Conv2D_bn_offset"], "device": "/device:CPU:0", "attr": {"explicit_paddings": {"list": {}}, "data_format": {"s": "TkhXQw=="}, "fused_ops": {"list": {"s": ["Qmlhc0FkZA==", "UmVsdQ=="]}}, "num_args": {"i": "1"}, "strides": {"list": {"i": ["1", "1", "1", "1"]}}, "use_cudnn_on_gpu": {"b": true}, "epsilon": {"f": 0.0}, "padding": {"s": "U0FNRQ=="}, "T": {"type": "DT_FLOAT"}, "dilations": {"list": {"i": ["1", "1", "1", "1"]}}}}, {"name": "StatefulPartitionedCall/functional_1/stg2_blk3__conv3_bn/FusedBatchNormV3", "op": "_FusedConv2D", "input": ["StatefulPartitionedCall/functional_1/activation_17/Relu", "StatefulPartitionedCall/functional_1/stg2_blk3__conv3/Conv2D_weights", "StatefulPartitionedCall/functional_1/stg2_blk3__conv3/Conv2D_bn_offset"], "device": "/device:CPU:0", "attr": {"data_format": {"s": "TkhXQw=="}, "fused_ops": {"list": {"s": ["Qmlhc0FkZA=="]}}, "T": {"type": "DT_FLOAT"}, "epsilon": {"f": 0.0}, "num_args": {"i": "1"}, "explicit_paddings": {"list": {}}, "padding": {"s": "VkFMSUQ="}, "strides": {"list": {"i": ["1", "1", "1", "1"]}}, "dilations": {"list": {"i": ["1", "1", "1", "1"]}}, "use_cudnn_on_gpu": {"b": true}}}, {"name": "StatefulPartitionedCall/functional_1/add_5/add", "op": "AddV2", "input": ["StatefulPartitionedCall/functional_1/stg2_blk3__conv3_bn/FusedBatchNormV3", "StatefulPartitionedCall/functional_1/activation_15/Relu"], "attr": {"T": {"type": "DT_FLOAT"}}}, {"name": "StatefulPartitionedCall/functional_1/activation_18/Relu", "op": "Relu", "input": ["StatefulPartitionedCall/functional_1/add_5/add"], "attr": {"T": {"type": "DT_FLOAT"}}}, {"name": "StatefulPartitionedCall/functional_1/activation_19/Relu", "op": "_FusedConv2D", "input": ["StatefulPartitionedCall/functional_1/activation_18/Relu", "StatefulPartitionedCall/functional_1/stg2_blk4__conv1/Conv2D_weights", "StatefulPartitionedCall/functional_1/stg2_blk4__conv1/Conv2D_bn_offset"], "device": "/device:CPU:0", "attr": {"padding": {"s": "VkFMSUQ="}, "data_format": {"s": "TkhXQw=="}, "epsilon": {"f": 0.0}, "explicit_paddings": {"list": {}}, "num_args": {"i": "1"}, "strides": {"list": {"i": ["1", "1", "1", "1"]}}, "use_cudnn_on_gpu": {"b": true}, "T": {"type": "DT_FLOAT"}, "dilations": {"list": {"i": ["1", "1", "1", "1"]}}, "fused_ops": {"list": {"s": ["Qmlhc0FkZA==", "UmVsdQ=="]}}}}, {"name": "StatefulPartitionedCall/functional_1/activation_20/Relu", "op": "_FusedConv2D", "input": ["StatefulPartitionedCall/functional_1/activation_19/Relu", "StatefulPartitionedCall/functional_1/stg2_blk4__conv2/Conv2D_weights", "StatefulPartitionedCall/functional_1/stg2_blk4__conv2/Conv2D_bn_offset"], "device": "/device:CPU:0", "attr": {"dilations": {"list": {"i": ["1", "1", "1", "1"]}}, "T": {"type": "DT_FLOAT"}, "explicit_paddings": {"list": {}}, "fused_ops": {"list": {"s": ["Qmlhc0FkZA==", "UmVsdQ=="]}}, "strides": {"list": {"i": ["1", "1", "1", "1"]}}, "num_args": {"i": "1"}, "epsilon": {"f": 0.0}, "use_cudnn_on_gpu": {"b": true}, "data_format": {"s": "TkhXQw=="}, "padding": {"s": "U0FNRQ=="}}}, {"name": "StatefulPartitionedCall/functional_1/stg2_blk4__conv3_bn/FusedBatchNormV3", "op": "_FusedConv2D", "input": ["StatefulPartitionedCall/functional_1/activation_20/Relu", "StatefulPartitionedCall/functional_1/stg2_blk4__conv3/Conv2D_weights", "StatefulPartitionedCall/functional_1/stg2_blk4__conv3/Conv2D_bn_offset"], "device": "/device:CPU:0", "attr": {"padding": {"s": "VkFMSUQ="}, "fused_ops": {"list": {"s": ["Qmlhc0FkZA=="]}}, "epsilon": {"f": 0.0}, "explicit_paddings": {"list": {}}, "data_format": {"s": "TkhXQw=="}, "T": {"type": "DT_FLOAT"}, "use_cudnn_on_gpu": {"b": true}, "strides": {"list": {"i": ["1", "1", "1", "1"]}}, "dilations": {"list": {"i": ["1", "1", "1", "1"]}}, "num_args": {"i": "1"}}}, {"name": "StatefulPartitionedCall/functional_1/add_6/add", "op": "AddV2", "input": ["StatefulPartitionedCall/functional_1/stg2_blk4__conv3_bn/FusedBatchNormV3", "StatefulPartitionedCall/functional_1/activation_18/Relu"], "attr": {"T": {"type": "DT_FLOAT"}}}, {"name": "StatefulPartitionedCall/functional_1/activation_21/Relu", "op": "Relu", "input": ["StatefulPartitionedCall/functional_1/add_6/add"], "attr": {"T": {"type": "DT_FLOAT"}}}, {"name": "StatefulPartitionedCall/functional_1/activation_22/Relu", "op": "_FusedConv2D", "input": ["StatefulPartitionedCall/functional_1/activation_21/Relu", "StatefulPartitionedCall/functional_1/stg2_blk5__conv1/Conv2D_weights", "StatefulPartitionedCall/functional_1/stg2_blk5__conv1/Conv2D_bn_offset"], "device": "/device:CPU:0", "attr": {"data_format": {"s": "TkhXQw=="}, "explicit_paddings": {"list": {}}, "use_cudnn_on_gpu": {"b": true}, "strides": {"list": {"i": ["1", "1", "1", "1"]}}, "epsilon": {"f": 0.0}, "T": {"type": "DT_FLOAT"}, "fused_ops": {"list": {"s": ["Qmlhc0FkZA==", "UmVsdQ=="]}}, "padding": {"s": "VkFMSUQ="}, "dilations": {"list": {"i": ["1", "1", "1", "1"]}}, "num_args": {"i": "1"}}}, {"name": "StatefulPartitionedCall/functional_1/activation_23/Relu", "op": "_FusedConv2D", "input": ["StatefulPartitionedCall/functional_1/activation_22/Relu", "StatefulPartitionedCall/functional_1/stg2_blk5__conv2/Conv2D_weights", "StatefulPartitionedCall/functional_1/stg2_blk5__conv2/Conv2D_bn_offset"], "device": "/device:CPU:0", "attr": {"fused_ops": {"list": {"s": ["Qmlhc0FkZA==", "UmVsdQ=="]}}, "data_format": {"s": "TkhXQw=="}, "strides": {"list": {"i": ["1", "1", "1", "1"]}}, "T": {"type": "DT_FLOAT"}, "num_args": {"i": "1"}, "use_cudnn_on_gpu": {"b": true}, "epsilon": {"f": 0.0}, "padding": {"s": "U0FNRQ=="}, "dilations": {"list": {"i": ["1", "1", "1", "1"]}}, "explicit_paddings": {"list": {}}}}, {"name": "StatefulPartitionedCall/functional_1/stg2_blk5__conv3_bn/FusedBatchNormV3", "op": "_FusedConv2D", "input": ["StatefulPartitionedCall/functional_1/activation_23/Relu", "StatefulPartitionedCall/functional_1/stg2_blk5__conv3/Conv2D_weights", "StatefulPartitionedCall/functional_1/stg2_blk5__conv3/Conv2D_bn_offset"], "device": "/device:CPU:0", "attr": {"data_format": {"s": "TkhXQw=="}, "use_cudnn_on_gpu": {"b": true}, "strides": {"list": {"i": ["1", "1", "1", "1"]}}, "padding": {"s": "VkFMSUQ="}, "fused_ops": {"list": {"s": ["Qmlhc0FkZA=="]}}, "epsilon": {"f": 0.0}, "dilations": {"list": {"i": ["1", "1", "1", "1"]}}, "T": {"type": "DT_FLOAT"}, "num_args": {"i": "1"}, "explicit_paddings": {"list": {}}}}, {"name": "StatefulPartitionedCall/functional_1/add_7/add", "op": "AddV2", "input": ["StatefulPartitionedCall/functional_1/stg2_blk5__conv3_bn/FusedBatchNormV3", "StatefulPartitionedCall/functional_1/activation_21/Relu"], "attr": {"T": {"type": "DT_FLOAT"}}}, {"name": "StatefulPartitionedCall/functional_1/activation_24/Relu", "op": "Relu", "input": ["StatefulPartitionedCall/functional_1/add_7/add"], "attr": {"T": {"type": "DT_FLOAT"}}}, {"name": "StatefulPartitionedCall/functional_1/activation_25/Relu", "op": "_FusedConv2D", "input": ["StatefulPartitionedCall/functional_1/activation_24/Relu", "StatefulPartitionedCall/functional_1/stg2_blk6__conv1/Conv2D_weights", "StatefulPartitionedCall/functional_1/stg2_blk6__conv1/Conv2D_bn_offset"], "device": "/device:CPU:0", "attr": {"epsilon": {"f": 0.0}, "data_format": {"s": "TkhXQw=="}, "fused_ops": {"list": {"s": ["Qmlhc0FkZA==", "UmVsdQ=="]}}, "dilations": {"list": {"i": ["1", "1", "1", "1"]}}, "padding": {"s": "VkFMSUQ="}, "use_cudnn_on_gpu": {"b": true}, "T": {"type": "DT_FLOAT"}, "explicit_paddings": {"list": {}}, "num_args": {"i": "1"}, "strides": {"list": {"i": ["1", "1", "1", "1"]}}}}, {"name": "StatefulPartitionedCall/functional_1/activation_26/Relu", "op": "_FusedConv2D", "input": ["StatefulPartitionedCall/functional_1/activation_25/Relu", "StatefulPartitionedCall/functional_1/stg2_blk6__conv2/Conv2D_weights", "StatefulPartitionedCall/functional_1/stg2_blk6__conv2/Conv2D_bn_offset"], "device": "/device:CPU:0", "attr": {"fused_ops": {"list": {"s": ["Qmlhc0FkZA==", "UmVsdQ=="]}}, "dilations": {"list": {"i": ["1", "1", "1", "1"]}}, "use_cudnn_on_gpu": {"b": true}, "T": {"type": "DT_FLOAT"}, "data_format": {"s": "TkhXQw=="}, "padding": {"s": "U0FNRQ=="}, "num_args": {"i": "1"}, "explicit_paddings": {"list": {}}, "strides": {"list": {"i": ["1", "1", "1", "1"]}}, "epsilon": {"f": 0.0}}}, {"name": "StatefulPartitionedCall/functional_1/stg2_blk6__conv3_bn/FusedBatchNormV3", "op": "_FusedConv2D", "input": ["StatefulPartitionedCall/functional_1/activation_26/Relu", "StatefulPartitionedCall/functional_1/stg2_blk6__conv3/Conv2D_weights", "StatefulPartitionedCall/functional_1/stg2_blk6__conv3/Conv2D_bn_offset"], "device": "/device:CPU:0", "attr": {"use_cudnn_on_gpu": {"b": true}, "strides": {"list": {"i": ["1", "1", "1", "1"]}}, "T": {"type": "DT_FLOAT"}, "explicit_paddings": {"list": {}}, "data_format": {"s": "TkhXQw=="}, "fused_ops": {"list": {"s": ["Qmlhc0FkZA=="]}}, "dilations": {"list": {"i": ["1", "1", "1", "1"]}}, "num_args": {"i": "1"}, "epsilon": {"f": 0.0}, "padding": {"s": "VkFMSUQ="}}}, {"name": "StatefulPartitionedCall/functional_1/add_8/add", "op": "AddV2", "input": ["StatefulPartitionedCall/functional_1/stg2_blk6__conv3_bn/FusedBatchNormV3", "StatefulPartitionedCall/functional_1/activation_24/Relu"], "attr": {"T": {"type": "DT_FLOAT"}}}, {"name": "StatefulPartitionedCall/functional_1/activation_27/Relu", "op": "Relu", "input": ["StatefulPartitionedCall/functional_1/add_8/add"], "attr": {"T": {"type": "DT_FLOAT"}}}, {"name": "StatefulPartitionedCall/functional_1/activation_28/Relu", "op": "_FusedConv2D", "input": ["StatefulPartitionedCall/functional_1/activation_27/Relu", "StatefulPartitionedCall/functional_1/stg2_blk7__conv1/Conv2D_weights", "StatefulPartitionedCall/functional_1/stg2_blk7__conv1/Conv2D_bn_offset"], "device": "/device:CPU:0", "attr": {"num_args": {"i": "1"}, "data_format": {"s": "TkhXQw=="}, "explicit_paddings": {"list": {}}, "strides": {"list": {"i": ["1", "1", "1", "1"]}}, "dilations": {"list": {"i": ["1", "1", "1", "1"]}}, "padding": {"s": "VkFMSUQ="}, "epsilon": {"f": 0.0}, "fused_ops": {"list": {"s": ["Qmlhc0FkZA==", "UmVsdQ=="]}}, "T": {"type": "DT_FLOAT"}, "use_cudnn_on_gpu": {"b": true}}}, {"name": "StatefulPartitionedCall/functional_1/activation_29/Relu", "op": "_FusedConv2D", "input": ["StatefulPartitionedCall/functional_1/activation_28/Relu", "StatefulPartitionedCall/functional_1/stg2_blk7__conv2/Conv2D_weights", "StatefulPartitionedCall/functional_1/stg2_blk7__conv2/Conv2D_bn_offset"], "device": "/device:CPU:0", "attr": {"epsilon": {"f": 0.0}, "padding": {"s": "U0FNRQ=="}, "data_format": {"s": "TkhXQw=="}, "strides": {"list": {"i": ["1", "1", "1", "1"]}}, "num_args": {"i": "1"}, "dilations": {"list": {"i": ["1", "1", "1", "1"]}}, "T": {"type": "DT_FLOAT"}, "explicit_paddings": {"list": {}}, "fused_ops": {"list": {"s": ["Qmlhc0FkZA==", "UmVsdQ=="]}}, "use_cudnn_on_gpu": {"b": true}}}, {"name": "StatefulPartitionedCall/functional_1/stg2_blk7__conv3_bn/FusedBatchNormV3", "op": "_FusedConv2D", "input": ["StatefulPartitionedCall/functional_1/activation_29/Relu", "StatefulPartitionedCall/functional_1/stg2_blk7__conv3/Conv2D_weights", "StatefulPartitionedCall/functional_1/stg2_blk7__conv3/Conv2D_bn_offset"], "device": "/device:CPU:0", "attr": {"num_args": {"i": "1"}, "strides": {"list": {"i": ["1", "1", "1", "1"]}}, "data_format": {"s": "TkhXQw=="}, "padding": {"s": "VkFMSUQ="}, "epsilon": {"f": 0.0}, "fused_ops": {"list": {"s": ["Qmlhc0FkZA=="]}}, "use_cudnn_on_gpu": {"b": true}, "dilations": {"list": {"i": ["1", "1", "1", "1"]}}, "T": {"type": "DT_FLOAT"}, "explicit_paddings": {"list": {}}}}, {"name": "StatefulPartitionedCall/functional_1/add_9/add", "op": "AddV2", "input": ["StatefulPartitionedCall/functional_1/stg2_blk7__conv3_bn/FusedBatchNormV3", "StatefulPartitionedCall/functional_1/activation_27/Relu"], "attr": {"T": {"type": "DT_FLOAT"}}}, {"name": "StatefulPartitionedCall/functional_1/activation_30/Relu", "op": "Relu", "input": ["StatefulPartitionedCall/functional_1/add_9/add"], "attr": {"T": {"type": "DT_FLOAT"}}}, {"name": "StatefulPartitionedCall/functional_1/activation_31/Relu", "op": "_FusedConv2D", "input": ["StatefulPartitionedCall/functional_1/activation_30/Relu", "StatefulPartitionedCall/functional_1/conv6/Conv2D_weights", "StatefulPartitionedCall/functional_1/conv6/Conv2D_bn_offset"], "device": "/device:CPU:0", "attr": {"padding": {"s": "U0FNRQ=="}, "dilations": {"list": {"i": ["1", "1", "1", "1"]}}, "fused_ops": {"list": {"s": ["Qmlhc0FkZA==", "UmVsdQ=="]}}, "num_args": {"i": "1"}, "explicit_paddings": {"list": {}}, "data_format": {"s": "TkhXQw=="}, "T": {"type": "DT_FLOAT"}, "epsilon": {"f": 0.0}, "strides": {"list": {"i": ["1", "1", "1", "1"]}}, "use_cudnn_on_gpu": {"b": true}}}, {"name": "StatefulPartitionedCall/functional_1/conv7/BiasAdd", "op": "_FusedConv2D", "input": ["StatefulPartitionedCall/functional_1/activation_31/Relu", "unknown_203", "unknown_204"], "device": "/device:CPU:0", "attr": {"dilations": {"list": {"i": ["1", "1", "1", "1"]}}, "fused_ops": {"list": {"s": ["Qmlhc0FkZA=="]}}, "epsilon": {"f": 0.0}, "use_cudnn_on_gpu": {"b": true}, "padding": {"s": "U0FNRQ=="}, "T": {"type": "DT_FLOAT"}, "data_format": {"s": "TkhXQw=="}, "strides": {"list": {"i": ["1", "1", "1", "1"]}}, "explicit_paddings": {"list": {}}, "num_args": {"i": "1"}}}, {"name": "StatefulPartitionedCall/functional_1/tf_op_layer_Reshape/Reshape", "op": "Reshape", "input": ["StatefulPartitionedCall/functional_1/conv7/BiasAdd", "StatefulPartitionedCall/functional_1/tf_op_layer_Reshape/Reshape/shape"], "attr": {"T": {"type": "DT_FLOAT"}, "Tshape": {"type": "DT_INT32"}, "_cloned": {"b": true}}}, {"name": "StatefulPartitionedCall/functional_1/tf_op_layer_strided_slice/strided_slice", "op": "StridedSlice", "input": ["StatefulPartitionedCall/functional_1/tf_op_layer_Reshape/Reshape", "StatefulPartitionedCall/functional_1/tf_op_layer_strided_slice/strided_slice/begin", "StatefulPartitionedCall/functional_1/tf_op_layer_strided_slice/strided_slice/end", "StatefulPartitionedCall/functional_1/tf_op_layer_strided_slice/strided_slice/strides"], "attr": {"ellipsis_mask": {"i": "0"}, "shrink_axis_mask": {"i": "0"}, "T": {"type": "DT_FLOAT"}, "new_axis_mask": {"i": "0"}, "begin_mask": {"i": "3"}, "end_mask": {"i": "1"}, "_cloned": {"b": true}, "Index": {"type": "DT_INT32"}}}, {"name": "StatefulPartitionedCall/functional_1/tf_op_layer_strided_slice_1/strided_slice_1", "op": "StridedSlice", "input": ["StatefulPartitionedCall/functional_1/tf_op_layer_Reshape/Reshape", "StatefulPartitionedCall/functional_1/tf_op_layer_strided_slice_1/strided_slice_1/begin", "StatefulPartitionedCall/functional_1/tf_op_layer_strided_slice_1/strided_slice_1/end", "StatefulPartitionedCall/functional_1/tf_op_layer_strided_slice_1/strided_slice_1/strides"], "attr": {"T": {"type": "DT_FLOAT"}, "begin_mask": {"i": "1"}, "ellipsis_mask": {"i": "0"}, "_cloned": {"b": true}, "Index": {"type": "DT_INT32"}, "new_axis_mask": {"i": "0"}, "shrink_axis_mask": {"i": "0"}, "end_mask": {"i": "3"}}}, {"name": "StatefulPartitionedCall/functional_1/activation_32/Softmax", "op": "Softmax", "input": ["StatefulPartitionedCall/functional_1/tf_op_layer_strided_slice/strided_slice"], "attr": {"T": {"type": "DT_FLOAT"}}}, {"name": "StatefulPartitionedCall/functional_1/tf_op_layer_concat/concat", "op": "ConcatV2", "input": ["StatefulPartitionedCall/functional_1/activation_32/Softmax", "StatefulPartitionedCall/functional_1/tf_op_layer_strided_slice_1/strided_slice_1", "StatefulPartitionedCall/functional_1/tf_op_layer_concat/concat/axis"], "attr": {"T": {"type": "DT_FLOAT"}, "N": {"i": "2"}, "_cloned": {"b": true}, "Tidx": {"type": "DT_INT32"}}}, {"name": "StatefulPartitionedCall/functional_1/tf_op_layer_strided_slice_2/strided_slice_2", "op": "StridedSlice", "input": ["StatefulPartitionedCall/functional_1/tf_op_layer_concat/concat", "StatefulPartitionedCall/functional_1/tf_op_layer_strided_slice_2/strided_slice_2/begin", "StatefulPartitionedCall/functional_1/tf_op_layer_strided_slice_2/strided_slice_2/end", "StatefulPartitionedCall/functional_1/tf_op_layer_strided_slice_2/strided_slice_2/strides"], "attr": {"_cloned": {"b": true}, "ellipsis_mask": {"i": "0"}, "new_axis_mask": {"i": "0"}, "T": {"type": "DT_FLOAT"}, "shrink_axis_mask": {"i": "0"}, "begin_mask": {"i": "1"}, "Index": {"type": "DT_INT32"}, "end_mask": {"i": "3"}}}, {"name": "StatefulPartitionedCall/functional_1/tf_op_layer_strided_slice_7/strided_slice_7", "op": "StridedSlice", "input": ["StatefulPartitionedCall/functional_1/tf_op_layer_concat/concat", "StatefulPartitionedCall/functional_1/tf_op_layer_strided_slice_7/strided_slice_7/begin", "StatefulPartitionedCall/functional_1/tf_op_layer_strided_slice_7/strided_slice_7/end", "StatefulPartitionedCall/functional_1/tf_op_layer_strided_slice_7/strided_slice_7/strides"], "attr": {"ellipsis_mask": {"i": "0"}, "begin_mask": {"i": "3"}, "new_axis_mask": {"i": "0"}, "shrink_axis_mask": {"i": "0"}, "Index": {"type": "DT_INT32"}, "end_mask": {"i": "1"}, "_cloned": {"b": true}, "T": {"type": "DT_FLOAT"}}}, {"name": "StatefulPartitionedCall/functional_1/tf_op_layer_strided_slice_3/strided_slice_3", "op": "StridedSlice", "input": ["StatefulPartitionedCall/functional_1/tf_op_layer_strided_slice_2/strided_slice_2", "StatefulPartitionedCall/functional_1/tf_op_layer_strided_slice_3/strided_slice_3/begin", "StatefulPartitionedCall/functional_1/tf_op_layer_strided_slice_3/strided_slice_3/end", "StatefulPartitionedCall/functional_1/tf_op_layer_strided_slice_3/strided_slice_3/strides"], "attr": {"ellipsis_mask": {"i": "0"}, "new_axis_mask": {"i": "0"}, "begin_mask": {"i": "1"}, "_cloned": {"b": true}, "T": {"type": "DT_FLOAT"}, "shrink_axis_mask": {"i": "0"}, "end_mask": {"i": "1"}, "Index": {"type": "DT_INT32"}}}, {"name": "StatefulPartitionedCall/functional_1/tf_op_layer_strided_slice_5/strided_slice_5", "op": "StridedSlice", "input": ["StatefulPartitionedCall/functional_1/tf_op_layer_strided_slice_2/strided_slice_2", "StatefulPartitionedCall/functional_1/tf_op_layer_strided_slice_5/strided_slice_5/begin", "StatefulPartitionedCall/functional_1/tf_op_layer_strided_slice_5/strided_slice_5/end", "StatefulPartitionedCall/functional_1/tf_op_layer_strided_slice_5/strided_slice_5/strides"], "attr": {"begin_mask": {"i": "1"}, "_cloned": {"b": true}, "T": {"type": "DT_FLOAT"}, "end_mask": {"i": "1"}, "Index": {"type": "DT_INT32"}, "ellipsis_mask": {"i": "0"}, "shrink_axis_mask": {"i": "0"}, "new_axis_mask": {"i": "0"}}}, {"name": "StatefulPartitionedCall/functional_1/tf_op_layer_strided_slice_4/strided_slice_4", "op": "StridedSlice", "input": ["StatefulPartitionedCall/functional_1/tf_op_layer_strided_slice_2/strided_slice_2", "StatefulPartitionedCall/functional_1/tf_op_layer_strided_slice_4/strided_slice_4/begin", "StatefulPartitionedCall/functional_1/tf_op_layer_strided_slice_4/strided_slice_4/end", "StatefulPartitionedCall/functional_1/tf_op_layer_strided_slice_4/strided_slice_4/strides"], "attr": {"_cloned": {"b": true}, "T": {"type": "DT_FLOAT"}, "new_axis_mask": {"i": "0"}, "shrink_axis_mask": {"i": "0"}, "ellipsis_mask": {"i": "0"}, "begin_mask": {"i": "1"}, "end_mask": {"i": "1"}, "Index": {"type": "DT_INT32"}}}, {"name": "StatefulPartitionedCall/functional_1/tf_op_layer_strided_slice_6/strided_slice_6", "op": "StridedSlice", "input": ["StatefulPartitionedCall/functional_1/tf_op_layer_strided_slice_2/strided_slice_2", "StatefulPartitionedCall/functional_1/tf_op_layer_strided_slice_6/strided_slice_6/begin", "StatefulPartitionedCall/functional_1/tf_op_layer_strided_slice_6/strided_slice_6/end", "StatefulPartitionedCall/functional_1/tf_op_layer_strided_slice_6/strided_slice_6/strides"], "attr": {"new_axis_mask": {"i": "0"}, "begin_mask": {"i": "1"}, "T": {"type": "DT_FLOAT"}, "_cloned": {"b": true}, "ellipsis_mask": {"i": "0"}, "end_mask": {"i": "1"}, "shrink_axis_mask": {"i": "0"}, "Index": {"type": "DT_INT32"}}}, {"name": "StatefulPartitionedCall/functional_1/tf_op_layer_Max/Max", "op": "Max", "input": ["StatefulPartitionedCall/functional_1/tf_op_layer_strided_slice_7/strided_slice_7", "StatefulPartitionedCall/functional_1/tf_op_layer_Max/Max/reduction_indices"], "attr": {"_cloned": {"b": true}, "keep_dims": {"b": false}, "Tidx": {"type": "DT_INT32"}, "T": {"type": "DT_FLOAT"}}}, {"name": "StatefulPartitionedCall/functional_1/tf_op_layer_ArgMax/ArgMax", "op": "ArgMax", "input": ["StatefulPartitionedCall/functional_1/tf_op_layer_strided_slice_7/strided_slice_7", "StatefulPartitionedCall/functional_1/tf_op_layer_ArgMax/ArgMax/dimension"], "attr": {"_cloned": {"b": true}, "output_type": {"type": "DT_INT64"}, "T": {"type": "DT_FLOAT"}, "Tidx": {"type": "DT_INT32"}}}, {"name": "StatefulPartitionedCall/functional_1/tf_op_layer_Mul/Mul", "op": "Mul", "input": ["StatefulPartitionedCall/functional_1/tf_op_layer_strided_slice_3/strided_slice_3", "StatefulPartitionedCall/functional_1/tf_op_layer_Mul/Mul/y"], "attr": {"_cloned": {"b": true}, "T": {"type": "DT_FLOAT"}}}, {"name": "StatefulPartitionedCall/functional_1/tf_op_layer_Pow/Pow", "op": "Pow", "input": ["StatefulPartitionedCall/functional_1/tf_op_layer_Pow/Pow/x", "StatefulPartitionedCall/functional_1/tf_op_layer_strided_slice_5/strided_slice_5"], "attr": {"_cloned": {"b": true}, "T": {"type": "DT_FLOAT"}}}, {"name": "StatefulPartitionedCall/functional_1/tf_op_layer_Mul_1/Mul_1", "op": "Mul", "input": ["StatefulPartitionedCall/functional_1/tf_op_layer_strided_slice_4/strided_slice_4", "StatefulPartitionedCall/functional_1/tf_op_layer_Mul_1/Mul_1/y"], "attr": {"_cloned": {"b": true}, "T": {"type": "DT_FLOAT"}}}, {"name": "StatefulPartitionedCall/functional_1/tf_op_layer_Pow_1/Pow_1", "op": "Pow", "input": ["StatefulPartitionedCall/functional_1/tf_op_layer_Pow_1/Pow_1/x", "StatefulPartitionedCall/functional_1/tf_op_layer_strided_slice_6/strided_slice_6"], "attr": {"T": {"type": "DT_FLOAT"}, "_cloned": {"b": true}}}, {"name": "StatefulPartitionedCall/functional_1/tf_op_layer_Less/Less", "op": "Less", "input": ["StatefulPartitionedCall/functional_1/tf_op_layer_ArgMax/ArgMax", "StatefulPartitionedCall/functional_1/tf_op_layer_Less/Less/y"], "attr": {"_cloned": {"b": true}, "T": {"type": "DT_INT64"}}}, {"name": "StatefulPartitionedCall/functional_1/tf_op_layer_AddV2/AddV2", "op": "AddV2", "input": ["StatefulPartitionedCall/functional_1/tf_op_layer_Mul/Mul", "StatefulPartitionedCall/functional_1/tf_op_layer_AddV2/AddV2/y"], "attr": {"_cloned": {"b": true}, "T": {"type": "DT_FLOAT"}}}, {"name": "StatefulPartitionedCall/functional_1/tf_op_layer_Mul_2/Mul_2", "op": "Mul", "input": ["StatefulPartitionedCall/functional_1/tf_op_layer_Pow/Pow", "StatefulPartitionedCall/functional_1/tf_op_layer_Mul_2/Mul/y"], "attr": {"T": {"type": "DT_FLOAT"}, "_cloned": {"b": true}}}, {"name": "StatefulPartitionedCall/functional_1/tf_op_layer_AddV2_1/AddV2_1", "op": "AddV2", "input": ["StatefulPartitionedCall/functional_1/tf_op_layer_Mul_1/Mul_1", "StatefulPartitionedCall/functional_1/tf_op_layer_AddV2_1/AddV2_1/y"], "attr": {"T": {"type": "DT_FLOAT"}, "_cloned": {"b": true}}}, {"name": "StatefulPartitionedCall/functional_1/tf_op_layer_Mul_3/Mul_3", "op": "Mul", "input": ["StatefulPartitionedCall/functional_1/tf_op_layer_Pow_1/Pow_1", "StatefulPartitionedCall/functional_1/tf_op_layer_Mul_3/Mul_1/y"], "attr": {"T": {"type": "DT_FLOAT"}, "_cloned": {"b": true}}}, {"name": "StatefulPartitionedCall/functional_1/tf_op_layer_SelectV2/SelectV2", "op": "SelectV2", "input": ["StatefulPartitionedCall/functional_1/tf_op_layer_Less/Less", "StatefulPartitionedCall/functional_1/tf_op_layer_SelectV2/SelectV2/t", "StatefulPartitionedCall/functional_1/tf_op_layer_SelectV2/SelectV2/e"], "attr": {"T": {"type": "DT_FLOAT"}, "_cloned": {"b": true}}}, {"name": "StatefulPartitionedCall/functional_1/tf_op_layer_Mul_4/Mul_4", "op": "Mul", "input": ["StatefulPartitionedCall/functional_1/tf_op_layer_Mul_4/Mul_4/x", "StatefulPartitionedCall/functional_1/tf_op_layer_Mul_2/Mul_2"], "attr": {"_cloned": {"b": true}, "T": {"type": "DT_FLOAT"}}}, {"name": "StatefulPartitionedCall/functional_1/tf_op_layer_Mul_6/Mul_6", "op": "Mul", "input": ["StatefulPartitionedCall/functional_1/tf_op_layer_Mul_6/Mul_6/x", "StatefulPartitionedCall/functional_1/tf_op_layer_Mul_2/Mul_2"], "attr": {"T": {"type": "DT_FLOAT"}, "_cloned": {"b": true}}}, {"name": "StatefulPartitionedCall/functional_1/tf_op_layer_Mul_5/Mul_5", "op": "Mul", "input": ["StatefulPartitionedCall/functional_1/tf_op_layer_Mul_5/Mul_5/x", "StatefulPartitionedCall/functional_1/tf_op_layer_Mul_3/Mul_3"], "attr": {"_cloned": {"b": true}, "T": {"type": "DT_FLOAT"}}}, {"name": "StatefulPartitionedCall/functional_1/tf_op_layer_Mul_7/Mul_7", "op": "Mul", "input": ["StatefulPartitionedCall/functional_1/tf_op_layer_Mul_7/Mul_7/x", "StatefulPartitionedCall/functional_1/tf_op_layer_Mul_3/Mul_3"], "attr": {"T": {"type": "DT_FLOAT"}, "_cloned": {"b": true}}}, {"name": "StatefulPartitionedCall/functional_1/tf_op_layer_Mul_8/Mul_8", "op": "Mul", "input": ["StatefulPartitionedCall/functional_1/tf_op_layer_Max/Max", "StatefulPartitionedCall/functional_1/tf_op_layer_SelectV2/SelectV2"], "attr": {"_cloned": {"b": true}, "T": {"type": "DT_FLOAT"}}}, {"name": "StatefulPartitionedCall/functional_1/tf_op_layer_Sub/Sub", "op": "Sub", "input": ["StatefulPartitionedCall/functional_1/tf_op_layer_AddV2/AddV2", "StatefulPartitionedCall/functional_1/tf_op_layer_Mul_4/Mul_4"], "attr": {"_cloned": {"b": true}, "T": {"type": "DT_FLOAT"}}}, {"name": "StatefulPartitionedCall/functional_1/tf_op_layer_AddV2_2/AddV2_2", "op": "AddV2", "input": ["StatefulPartitionedCall/functional_1/tf_op_layer_AddV2/AddV2", "StatefulPartitionedCall/functional_1/tf_op_layer_Mul_6/Mul_6"], "attr": {"_cloned": {"b": true}, "T": {"type": "DT_FLOAT"}}}, {"name": "StatefulPartitionedCall/functional_1/tf_op_layer_Sub_1/Sub_1", "op": "Sub", "input": ["StatefulPartitionedCall/functional_1/tf_op_layer_AddV2_1/AddV2_1", "StatefulPartitionedCall/functional_1/tf_op_layer_Mul_5/Mul_5"], "attr": {"_cloned": {"b": true}, "T": {"type": "DT_FLOAT"}}}, {"name": "StatefulPartitionedCall/functional_1/tf_op_layer_AddV2_3/AddV2_3", "op": "AddV2", "input": ["StatefulPartitionedCall/functional_1/tf_op_layer_AddV2_1/AddV2_1", "StatefulPartitionedCall/functional_1/tf_op_layer_Mul_7/Mul_7"], "attr": {"T": {"type": "DT_FLOAT"}, "_cloned": {"b": true}}}, {"name": "StatefulPartitionedCall/functional_1/tf_op_layer_concat_1/concat_1", "op": "ConcatV2", "input": ["StatefulPartitionedCall/functional_1/tf_op_layer_Sub/Sub", "StatefulPartitionedCall/functional_1/tf_op_layer_Sub_1/Sub_1", "StatefulPartitionedCall/functional_1/tf_op_layer_AddV2_2/AddV2_2", "StatefulPartitionedCall/functional_1/tf_op_layer_AddV2_3/AddV2_3", "StatefulPartitionedCall/functional_1/tf_op_layer_concat_1/concat_1/axis"], "attr": {"_cloned": {"b": true}, "T": {"type": "DT_FLOAT"}, "N": {"i": "4"}, "Tidx": {"type": "DT_INT32"}}}, {"name": "StatefulPartitionedCall/functional_1/tf_op_layer_NonMaxSuppressionV4/NonMaxSuppressionV4", "op": "NonMaxSuppressionV4", "input": ["StatefulPartitionedCall/functional_1/tf_op_layer_concat_1/concat_1", "StatefulPartitionedCall/functional_1/tf_op_layer_Mul_8/Mul_8", "StatefulPartitionedCall/functional_1/tf_op_layer_NonMaxSuppressionV4/NonMaxSuppressionV4/max_output_size", "StatefulPartitionedCall/functional_1/tf_op_layer_NonMaxSuppressionV4/NonMaxSuppressionV4/iou_threshold", "StatefulPartitionedCall/functional_1/tf_op_layer_NonMaxSuppressionV4/NonMaxSuppressionV4/score_threshold"], "attr": {"pad_to_max_output_size": {"b": true}, "_cloned": {"b": true}, "T_threshold": {"type": "DT_FLOAT"}, "T": {"type": "DT_FLOAT"}}}, {"name": "StatefulPartitionedCall/functional_1/tf_op_layer_GatherV2/GatherV2", "op": "GatherV2", "input": ["StatefulPartitionedCall/functional_1/tf_op_layer_concat_1/concat_1", "StatefulPartitionedCall/functional_1/tf_op_layer_NonMaxSuppressionV4/NonMaxSuppressionV4", "StatefulPartitionedCall/functional_1/tf_op_layer_GatherV2/GatherV2/axis"], "attr": {"Tparams": {"type": "DT_FLOAT"}, "_cloned": {"b": true}, "batch_dims": {"i": "0"}, "Tindices": {"type": "DT_INT32"}, "Taxis": {"type": "DT_INT32"}}}, {"name": "StatefulPartitionedCall/functional_1/tf_op_layer_Cast_2/Cast_2", "op": "Cast", "input": ["StatefulPartitionedCall/functional_1/tf_op_layer_NonMaxSuppressionV4/NonMaxSuppressionV4:1"], "attr": {"_cloned": {"b": true}, "DstT": {"type": "DT_FLOAT"}, "Truncate": {"b": false}, "SrcT": {"type": "DT_INT32"}}}, {"name": "StatefulPartitionedCall/functional_1/tf_op_layer_GatherV2_1/GatherV2_1", "op": "GatherV2", "input": ["StatefulPartitionedCall/functional_1/tf_op_layer_ArgMax/ArgMax", "StatefulPartitionedCall/functional_1/tf_op_layer_NonMaxSuppressionV4/NonMaxSuppressionV4", "StatefulPartitionedCall/functional_1/tf_op_layer_GatherV2_1/GatherV2_1/axis"], "attr": {"Taxis": {"type": "DT_INT32"}, "Tparams": {"type": "DT_INT64"}, "Tindices": {"type": "DT_INT32"}, "_cloned": {"b": true}, "batch_dims": {"i": "0"}}}, {"name": "StatefulPartitionedCall/functional_1/tf_op_layer_ExpandDims_1/ExpandDims_1", "op": "ExpandDims", "input": ["StatefulPartitionedCall/functional_1/tf_op_layer_Cast_2/Cast_2", "StatefulPartitionedCall/functional_1/tf_op_layer_ExpandDims_1/ExpandDims_1/dim"], "attr": {"T": {"type": "DT_FLOAT"}, "_cloned": {"b": true}, "Tdim": {"type": "DT_INT32"}}}, {"name": "StatefulPartitionedCall/functional_1/tf_op_layer_ExpandDims/ExpandDims", "op": "ExpandDims", "input": ["StatefulPartitionedCall/functional_1/tf_op_layer_GatherV2_1/GatherV2_1", "StatefulPartitionedCall/functional_1/tf_op_layer_ExpandDims/ExpandDims/dim"], "attr": {"_cloned": {"b": true}, "Tdim": {"type": "DT_INT32"}, "T": {"type": "DT_INT64"}}}, {"name": "Identity", "op": "Identity", "input": ["StatefulPartitionedCall/functional_1/tf_op_layer_ExpandDims_1/ExpandDims_1"], "attr": {"T": {"type": "DT_FLOAT"}}}, {"name": "StatefulPartitionedCall/functional_1/tf_op_layer_Cast_1/Cast_1", "op": "Cast", "input": ["StatefulPartitionedCall/functional_1/tf_op_layer_ExpandDims/ExpandDims"], "attr": {"SrcT": {"type": "DT_INT64"}, "_cloned": {"b": true}, "Truncate": {"b": false}, "DstT": {"type": "DT_FLOAT"}}}, {"name": "StatefulPartitionedCall/functional_1/tf_op_layer_concat_2/concat_2", "op": "ConcatV2", "input": ["StatefulPartitionedCall/functional_1/tf_op_layer_GatherV2/GatherV2", "StatefulPartitionedCall/functional_1/tf_op_layer_Cast_1/Cast_1", "StatefulPartitionedCall/functional_1/tf_op_layer_concat_2/concat_2/axis"], "attr": {"N": {"i": "2"}, "T": {"type": "DT_FLOAT"}, "_cloned": {"b": true}, "Tidx": {"type": "DT_INT32"}}}, {"name": "Identity_1", "op": "Identity", "input": ["StatefulPartitionedCall/functional_1/tf_op_layer_concat_2/concat_2"], "attr": {"T": {"type": "DT_FLOAT"}}}], "library": {}, "versions": {"producer": 440}}, "weightsManifest": [{"paths": ["group1-shard1of1.bin"], "weights": [{"name": "StatefulPartitionedCall/functional_1/tf_op_layer_ExpandDims_1/ExpandDims_1/dim", "shape": [], "dtype": "int32"}, {"name": "StatefulPartitionedCall/functional_1/tf_op_layer_GatherV2/GatherV2/axis", "shape": [], "dtype": "int32"}, {"name": "StatefulPartitionedCall/functional_1/tf_op_layer_Mul_4/Mul_4/x", "shape": [], "dtype": "float32"}, {"name": "StatefulPartitionedCall/functional_1/tf_op_layer_Mul_5/Mul_5/x", "shape": [], "dtype": "float32"}, {"name": "StatefulPartitionedCall/functional_1/tf_op_layer_strided_slice_3/strided_slice_3/begin", "shape": [2], "dtype": "int32"}, {"name": "StatefulPartitionedCall/functional_1/tf_op_layer_strided_slice_3/strided_slice_3/end", "shape": [2], "dtype": "int32"}, {"name": "StatefulPartitionedCall/functional_1/tf_op_layer_strided_slice_3/strided_slice_3/strides", "shape": [2], "dtype": "int32"}, {"name": "StatefulPartitionedCall/functional_1/tf_op_layer_Mul/Mul/y", "shape": [3000, 1], "dtype": "float32"}, {"name": "StatefulPartitionedCall/functional_1/tf_op_layer_AddV2/AddV2/y", "shape": [3000, 1], "dtype": "float32"}, {"name": "StatefulPartitionedCall/functional_1/tf_op_layer_Mul_6/Mul_6/x", "shape": [], "dtype": "float32"}, {"name": "StatefulPartitionedCall/functional_1/tf_op_layer_Pow/Pow/x", "shape": [], "dtype": "float32"}, {"name": "StatefulPartitionedCall/functional_1/tf_op_layer_strided_slice_5/strided_slice_5/begin", "shape": [2], "dtype": "int32"}, {"name": "StatefulPartitionedCall/functional_1/tf_op_layer_strided_slice_5/strided_slice_5/end", "shape": [2], "dtype": "int32"}, {"name": "StatefulPartitionedCall/functional_1/tf_op_layer_strided_slice_5/strided_slice_5/strides", "shape": [2], "dtype": "int32"}, {"name": "StatefulPartitionedCall/functional_1/tf_op_layer_Mul_2/Mul/y", "shape": [3000, 1], "dtype": "float32"}, {"name": "StatefulPartitionedCall/functional_1/tf_op_layer_strided_slice_4/strided_slice_4/begin", "shape": [2], "dtype": "int32"}, {"name": "StatefulPartitionedCall/functional_1/tf_op_layer_strided_slice_4/strided_slice_4/end", "shape": [2], "dtype": "int32"}, {"name": "StatefulPartitionedCall/functional_1/tf_op_layer_strided_slice_4/strided_slice_4/strides", "shape": [2], "dtype": "int32"}, {"name": "StatefulPartitionedCall/functional_1/tf_op_layer_Mul_1/Mul_1/y", "shape": [3000, 1], "dtype": "float32"}, {"name": "StatefulPartitionedCall/functional_1/tf_op_layer_AddV2_1/AddV2_1/y", "shape": [3000, 1], "dtype": "float32"}, {"name": "StatefulPartitionedCall/functional_1/tf_op_layer_Mul_7/Mul_7/x", "shape": [], "dtype": "float32"}, {"name": "StatefulPartitionedCall/functional_1/tf_op_layer_Pow_1/Pow_1/x", "shape": [], "dtype": "float32"}, {"name": "StatefulPartitionedCall/functional_1/tf_op_layer_strided_slice_2/strided_slice_2/begin", "shape": [2], "dtype": "int32"}, {"name": "StatefulPartitionedCall/functional_1/tf_op_layer_strided_slice_2/strided_slice_2/end", "shape": [2], "dtype": "int32"}, {"name": "StatefulPartitionedCall/functional_1/tf_op_layer_strided_slice_2/strided_slice_2/strides", "shape": [2], "dtype": "int32"}, {"name": "StatefulPartitionedCall/functional_1/tf_op_layer_strided_slice_6/strided_slice_6/begin", "shape": [2], "dtype": "int32"}, {"name": "StatefulPartitionedCall/functional_1/tf_op_layer_strided_slice_6/strided_slice_6/end", "shape": [2], "dtype": "int32"}, {"name": "StatefulPartitionedCall/functional_1/tf_op_layer_strided_slice_6/strided_slice_6/strides", "shape": [2], "dtype": "int32"}, {"name": "StatefulPartitionedCall/functional_1/tf_op_layer_Mul_3/Mul_1/y", "shape": [3000, 1], "dtype": "float32"}, {"name": "StatefulPartitionedCall/functional_1/tf_op_layer_concat_1/concat_1/axis", "shape": [], "dtype": "int32"}, {"name": "StatefulPartitionedCall/functional_1/tf_op_layer_Max/Max/reduction_indices", "shape": [], "dtype": "int32"}, {"name": "StatefulPartitionedCall/functional_1/tf_op_layer_strided_slice/strided_slice/begin", "shape": [2], "dtype": "int32"}, {"name": "StatefulPartitionedCall/functional_1/tf_op_layer_strided_slice/strided_slice/end", "shape": [2], "dtype": "int32"}, {"name": "StatefulPartitionedCall/functional_1/tf_op_layer_strided_slice/strided_slice/strides", "shape": [2], "dtype": "int32"}, {"name": "unknown_203", "shape": [1, 1, 40, 7], "dtype": "float32"}, {"name": "unknown_204", "shape": [7], "dtype": "float32"}, {"name": "StatefulPartitionedCall/functional_1/tf_op_layer_Reshape/Reshape/shape", "shape": [2], "dtype": "int32"}, {"name": "StatefulPartitionedCall/functional_1/tf_op_layer_strided_slice_1/strided_slice_1/begin", "shape": [2], "dtype": "int32"}, {"name": "StatefulPartitionedCall/functional_1/tf_op_layer_strided_slice_1/strided_slice_1/end", "shape": [2], "dtype": "int32"}, {"name": "StatefulPartitionedCall/functional_1/tf_op_layer_strided_slice_1/strided_slice_1/strides", "shape": [2], "dtype": "int32"}, {"name": "StatefulPartitionedCall/functional_1/tf_op_layer_concat/concat/axis", "shape": [], "dtype": "int32"}, {"name": "StatefulPartitionedCall/functional_1/tf_op_layer_strided_slice_7/strided_slice_7/begin", "shape": [2], "dtype": "int32"}, {"name": "StatefulPartitionedCall/functional_1/tf_op_layer_strided_slice_7/strided_slice_7/end", "shape": [2], "dtype": "int32"}, {"name": "StatefulPartitionedCall/functional_1/tf_op_layer_strided_slice_7/strided_slice_7/strides", "shape": [2], "dtype": "int32"}, {"name": "StatefulPartitionedCall/functional_1/tf_op_layer_ArgMax/ArgMax/dimension", "shape": [], "dtype": "int32"}, {"name": "StatefulPartitionedCall/functional_1/tf_op_layer_Less/Less/y", "shape": [3000], "dtype": "int32"}, {"name": "StatefulPartitionedCall/functional_1/tf_op_layer_SelectV2/SelectV2/t", "shape": [3000], "dtype": "float32"}, {"name": "StatefulPartitionedCall/functional_1/tf_op_layer_SelectV2/SelectV2/e", "shape": [3000], "dtype": "float32"}, {"name": "StatefulPartitionedCall/functional_1/tf_op_layer_NonMaxSuppressionV4/NonMaxSuppressionV4/max_output_size", "shape": [], "dtype": "int32"}, {"name": "StatefulPartitionedCall/functional_1/tf_op_layer_NonMaxSuppressionV4/NonMaxSuppressionV4/iou_threshold", "shape": [], "dtype": "float32"}, {"name": "StatefulPartitionedCall/functional_1/tf_op_layer_NonMaxSuppressionV4/NonMaxSuppressionV4/score_threshold", "shape": [], "dtype": "float32"}, {"name": "StatefulPartitionedCall/functional_1/tf_op_layer_GatherV2_1/GatherV2_1/axis", "shape": [], "dtype": "int32"}, {"name": "StatefulPartitionedCall/functional_1/tf_op_layer_ExpandDims/ExpandDims/dim", "shape": [], "dtype": "int32"}, {"name": "StatefulPartitionedCall/functional_1/tf_op_layer_concat_2/concat_2/axis", "shape": [], "dtype": "int32"}, {"name": "StatefulPartitionedCall/functional_1/conv1/Conv2D_weights", "shape": [7, 7, 3, 5], "dtype": "float32"}, {"name": "StatefulPartitionedCall/functional_1/conv1/Conv2D_bn_offset", "shape": [5], "dtype": "float32"}, {"name": "StatefulPartitionedCall/functional_1/stg2_blk7__conv3/Conv2D_weights", "shape": [1, 1, 10, 40], "dtype": "float32"}, {"name": "StatefulPartitionedCall/functional_1/stg1_blk0__conv1/Conv2D_weights", "shape": [1, 1, 5, 5], "dtype": "float32"}, {"name": "StatefulPartitionedCall/functional_1/stg1_blk0__conv1/Conv2D_bn_offset", "shape": [5], "dtype": "float32"}, {"name": "StatefulPartitionedCall/functional_1/stg2_blk7__conv3/Conv2D_bn_offset", "shape": [40], "dtype": "float32"}, {"name": "StatefulPartitionedCall/functional_1/stg1_blk0__conv4/Conv2D_weights", "shape": [1, 1, 5, 20], "dtype": "float32"}, {"name": "StatefulPartitionedCall/functional_1/stg1_blk0__conv4/Conv2D_bn_offset", "shape": [20], "dtype": "float32"}, {"name": "StatefulPartitionedCall/functional_1/stg1_blk0__conv2/Conv2D_weights", "shape": [3, 3, 5, 5], "dtype": "float32"}, {"name": "StatefulPartitionedCall/functional_1/stg1_blk0__conv2/Conv2D_bn_offset", "shape": [5], "dtype": "float32"}, {"name": "StatefulPartitionedCall/functional_1/stg1_blk0__conv3/Conv2D_weights", "shape": [1, 1, 5, 20], "dtype": "float32"}, {"name": "StatefulPartitionedCall/functional_1/conv6/Conv2D_weights", "shape": [3, 3, 40, 40], "dtype": "float32"}, {"name": "StatefulPartitionedCall/functional_1/stg1_blk0__conv3/Conv2D_bn_offset", "shape": [20], "dtype": "float32"}, {"name": "StatefulPartitionedCall/functional_1/stg1_blk1__conv1/Conv2D_weights", "shape": [1, 1, 20, 5], "dtype": "float32"}, {"name": "StatefulPartitionedCall/functional_1/stg1_blk1__conv1/Conv2D_bn_offset", "shape": [5], "dtype": "float32"}, {"name": "StatefulPartitionedCall/functional_1/conv6/Conv2D_bn_offset", "shape": [40], "dtype": "float32"}, {"name": "StatefulPartitionedCall/functional_1/stg1_blk1__conv2/Conv2D_weights", "shape": [3, 3, 5, 5], "dtype": "float32"}, {"name": "StatefulPartitionedCall/functional_1/stg1_blk1__conv2/Conv2D_bn_offset", "shape": [5], "dtype": "float32"}, {"name": "StatefulPartitionedCall/functional_1/stg1_blk1__conv3/Conv2D_weights", "shape": [1, 1, 5, 20], "dtype": "float32"}, {"name": "StatefulPartitionedCall/functional_1/stg1_blk1__conv3/Conv2D_bn_offset", "shape": [20], "dtype": "float32"}, {"name": "StatefulPartitionedCall/functional_1/stg2_blk0__conv1/Conv2D_weights", "shape": [1, 1, 20, 10], "dtype": "float32"}, {"name": "StatefulPartitionedCall/functional_1/stg2_blk0__conv1/Conv2D_bn_offset", "shape": [10], "dtype": "float32"}, {"name": "StatefulPartitionedCall/functional_1/stg2_blk0__conv4/Conv2D_weights", "shape": [1, 1, 20, 40], "dtype": "float32"}, {"name": "StatefulPartitionedCall/functional_1/stg2_blk0__conv4/Conv2D_bn_offset", "shape": [40], "dtype": "float32"}, {"name": "StatefulPartitionedCall/functional_1/stg2_blk0__conv2/Conv2D_weights", "shape": [3, 3, 10, 10], "dtype": "float32"}, {"name": "StatefulPartitionedCall/functional_1/stg2_blk0__conv2/Conv2D_bn_offset", "shape": [10], "dtype": "float32"}, {"name": "StatefulPartitionedCall/functional_1/stg2_blk0__conv3/Conv2D_weights", "shape": [1, 1, 10, 40], "dtype": "float32"}, {"name": "StatefulPartitionedCall/functional_1/stg2_blk0__conv3/Conv2D_bn_offset", "shape": [40], "dtype": "float32"}, {"name": "StatefulPartitionedCall/functional_1/stg2_blk1__conv1/Conv2D_weights", "shape": [1, 1, 40, 10], "dtype": "float32"}, {"name": "StatefulPartitionedCall/functional_1/stg2_blk1__conv1/Conv2D_bn_offset", "shape": [10], "dtype": "float32"}, {"name": "StatefulPartitionedCall/functional_1/stg2_blk1__conv2/Conv2D_weights", "shape": [3, 3, 10, 10], "dtype": "float32"}, {"name": "StatefulPartitionedCall/functional_1/stg2_blk1__conv2/Conv2D_bn_offset", "shape": [10], "dtype": "float32"}, {"name": "StatefulPartitionedCall/functional_1/stg2_blk1__conv3/Conv2D_weights", "shape": [1, 1, 10, 40], "dtype": "float32"}, {"name": "StatefulPartitionedCall/functional_1/stg2_blk1__conv3/Conv2D_bn_offset", "shape": [40], "dtype": "float32"}, {"name": "StatefulPartitionedCall/functional_1/stg2_blk2__conv1/Conv2D_weights", "shape": [1, 1, 40, 10], "dtype": "float32"}, {"name": "StatefulPartitionedCall/functional_1/stg2_blk2__conv1/Conv2D_bn_offset", "shape": [10], "dtype": "float32"}, {"name": "StatefulPartitionedCall/functional_1/stg2_blk2__conv2/Conv2D_weights", "shape": [3, 3, 10, 10], "dtype": "float32"}, {"name": "StatefulPartitionedCall/functional_1/stg2_blk2__conv2/Conv2D_bn_offset", "shape": [10], "dtype": "float32"}, {"name": "StatefulPartitionedCall/functional_1/stg2_blk2__conv3/Conv2D_weights", "shape": [1, 1, 10, 40], "dtype": "float32"}, {"name": "StatefulPartitionedCall/functional_1/stg2_blk2__conv3/Conv2D_bn_offset", "shape": [40], "dtype": "float32"}, {"name": "StatefulPartitionedCall/functional_1/stg2_blk3__conv1/Conv2D_weights", "shape": [1, 1, 40, 10], "dtype": "float32"}, {"name": "StatefulPartitionedCall/functional_1/stg2_blk3__conv1/Conv2D_bn_offset", "shape": [10], "dtype": "float32"}, {"name": "StatefulPartitionedCall/functional_1/stg2_blk3__conv2/Conv2D_weights", "shape": [3, 3, 10, 10], "dtype": "float32"}, {"name": "StatefulPartitionedCall/functional_1/stg2_blk3__conv2/Conv2D_bn_offset", "shape": [10], "dtype": "float32"}, {"name": "StatefulPartitionedCall/functional_1/stg2_blk3__conv3/Conv2D_weights", "shape": [1, 1, 10, 40], "dtype": "float32"}, {"name": "StatefulPartitionedCall/functional_1/stg2_blk3__conv3/Conv2D_bn_offset", "shape": [40], "dtype": "float32"}, {"name": "StatefulPartitionedCall/functional_1/stg2_blk4__conv1/Conv2D_weights", "shape": [1, 1, 40, 10], "dtype": "float32"}, {"name": "StatefulPartitionedCall/functional_1/stg2_blk4__conv1/Conv2D_bn_offset", "shape": [10], "dtype": "float32"}, {"name": "StatefulPartitionedCall/functional_1/stg2_blk4__conv2/Conv2D_weights", "shape": [3, 3, 10, 10], "dtype": "float32"}, {"name": "StatefulPartitionedCall/functional_1/stg2_blk4__conv2/Conv2D_bn_offset", "shape": [10], "dtype": "float32"}, {"name": "StatefulPartitionedCall/functional_1/stg2_blk4__conv3/Conv2D_weights", "shape": [1, 1, 10, 40], "dtype": "float32"}, {"name": "StatefulPartitionedCall/functional_1/stg2_blk4__conv3/Conv2D_bn_offset", "shape": [40], "dtype": "float32"}, {"name": "StatefulPartitionedCall/functional_1/stg2_blk5__conv1/Conv2D_weights", "shape": [1, 1, 40, 10], "dtype": "float32"}, {"name": "StatefulPartitionedCall/functional_1/stg2_blk5__conv1/Conv2D_bn_offset", "shape": [10], "dtype": "float32"}, {"name": "StatefulPartitionedCall/functional_1/stg2_blk5__conv2/Conv2D_weights", "shape": [3, 3, 10, 10], "dtype": "float32"}, {"name": "StatefulPartitionedCall/functional_1/stg2_blk5__conv2/Conv2D_bn_offset", "shape": [10], "dtype": "float32"}, {"name": "StatefulPartitionedCall/functional_1/stg2_blk5__conv3/Conv2D_weights", "shape": [1, 1, 10, 40], "dtype": "float32"}, {"name": "StatefulPartitionedCall/functional_1/stg2_blk5__conv3/Conv2D_bn_offset", "shape": [40], "dtype": "float32"}, {"name": "StatefulPartitionedCall/functional_1/stg2_blk6__conv1/Conv2D_weights", "shape": [1, 1, 40, 10], "dtype": "float32"}, {"name": "StatefulPartitionedCall/functional_1/stg2_blk6__conv1/Conv2D_bn_offset", "shape": [10], "dtype": "float32"}, {"name": "StatefulPartitionedCall/functional_1/stg2_blk6__conv2/Conv2D_weights", "shape": [3, 3, 10, 10], "dtype": "float32"}, {"name": "StatefulPartitionedCall/functional_1/stg2_blk6__conv2/Conv2D_bn_offset", "shape": [10], "dtype": "float32"}, {"name": "StatefulPartitionedCall/functional_1/stg2_blk6__conv3/Conv2D_weights", "shape": [1, 1, 10, 40], "dtype": "float32"}, {"name": "StatefulPartitionedCall/functional_1/stg2_blk6__conv3/Conv2D_bn_offset", "shape": [40], "dtype": "float32"}, {"name": "StatefulPartitionedCall/functional_1/stg2_blk7__conv1/Conv2D_weights", "shape": [1, 1, 40, 10], "dtype": "float32"}, {"name": "StatefulPartitionedCall/functional_1/stg2_blk7__conv1/Conv2D_bn_offset", "shape": [10], "dtype": "float32"}, {"name": "StatefulPartitionedCall/functional_1/stg2_blk7__conv2/Conv2D_weights", "shape": [3, 3, 10, 10], "dtype": "float32"}, {"name": "StatefulPartitionedCall/functional_1/stg2_blk7__conv2/Conv2D_bn_offset", "shape": [10], "dtype": "float32"}]}]}