{"format": "graph-model", "generatedBy": "2.2.0-dev20200219", "convertedBy": "TensorFlow.js Converter v2.7.0", "userDefinedMetadata": {"signature": {"inputs": {"input:0": {"name": "input:0", "dtype": "DT_INT32", "tensorShape": {"dim": [{"size": "-1"}, {"size": "112"}, {"size": "112"}, {"size": "1"}]}}}, "outputs": {"Identity_2:0": {"name": "Identity_2:0", "dtype": "DT_INT64", "tensorShape": {}}, "Identity_4:0": {"name": "Identity_4:0", "dtype": "DT_INT64", "tensorShape": {}}, "Identity_3:0": {"name": "Identity_3:0", "dtype": "DT_INT64", "tensorShape": {}}, "Identity:0": {"name": "Identity:0", "dtype": "DT_INT64", "tensorShape": {}}, "Identity_1:0": {"name": "Identity_1:0", "dtype": "DT_INT64", "tensorShape": {}}}}}, "modelTopology": {"node": [{"name": "StatefulPartitionedCall/model/tf_op_layer_strided_slice_1/strided_slice_1/begin", "op": "Const", "attr": {"dtype": {"type": "DT_INT32"}, "value": {"tensor": {"dtype": "DT_INT32", "tensorShape": {"dim": [{"size": "1"}]}}}}}, {"name": "StatefulPartitionedCall/model/tf_op_layer_strided_slice_1/strided_slice_1/end", "op": "Const", "attr": {"dtype": {"type": "DT_INT32"}, "value": {"tensor": {"dtype": "DT_INT32", "tensorShape": {"dim": [{"size": "1"}]}}}}}, {"name": "StatefulPartitionedCall/model/tf_op_layer_strided_slice_1/strided_slice_1/strides", "op": "Const", "attr": {"dtype": {"type": "DT_INT32"}, "value": {"tensor": {"dtype": "DT_INT32", "tensorShape": {"dim": [{"size": "1"}]}}}}}, {"name": "StatefulPartitionedCall/model/tf_op_layer_Reshape/Reshape/shape", "op": "Const", "attr": {"dtype": {"type": "DT_INT32"}, "value": {"tensor": {"dtype": "DT_INT32", "tensorShape": {"dim": [{"size": "1"}]}}}}}, {"name": "StatefulPartitionedCall/model/tf_op_layer_ArgMax/ArgMax/dimension", "op": "Const", "attr": {"value": {"tensor": {"dtype": "DT_INT32", "tensorShape": {}}}, "dtype": {"type": "DT_INT32"}}}, {"name": "StatefulPartitionedCall/model/tf_op_layer_strided_slice_2/strided_slice_2/begin", "op": "Const", "attr": {"value": {"tensor": {"dtype": "DT_INT32", "tensorShape": {"dim": [{"size": "1"}]}}}, "dtype": {"type": "DT_INT32"}}}, {"name": "StatefulPartitionedCall/model/tf_op_layer_strided_slice_2/strided_slice_2/end", "op": "Const", "attr": {"dtype": {"type": "DT_INT32"}, "value": {"tensor": {"dtype": "DT_INT32", "tensorShape": {"dim": [{"size": "1"}]}}}}}, {"name": "StatefulPartitionedCall/model/tf_op_layer_strided_slice_2/strided_slice_2/strides", "op": "Const", "attr": {"dtype": {"type": "DT_INT32"}, "value": {"tensor": {"dtype": "DT_INT32", "tensorShape": {"dim": [{"size": "1"}]}}}}}, {"name": "StatefulPartitionedCall/model/tf_op_layer_Reshape_1/Reshape_1/shape", "op": "Const", "attr": {"value": {"tensor": {"dtype": "DT_INT32", "tensorShape": {"dim": [{"size": "1"}]}}}, "dtype": {"type": "DT_INT32"}}}, {"name": "StatefulPartitionedCall/model/tf_op_layer_ArgMax_1/ArgMax_1/dimension", "op": "Const", "attr": {"dtype": {"type": "DT_INT32"}, "value": {"tensor": {"dtype": "DT_INT32", "tensorShape": {}}}}}, {"name": "StatefulPartitionedCall/model/tf_op_layer_strided_slice_3/strided_slice_3/begin", "op": "Const", "attr": {"dtype": {"type": "DT_INT32"}, "value": {"tensor": {"dtype": "DT_INT32", "tensorShape": {"dim": [{"size": "1"}]}}}}}, {"name": "StatefulPartitionedCall/model/tf_op_layer_strided_slice_3/strided_slice_3/end", "op": "Const", "attr": {"value": {"tensor": {"dtype": "DT_INT32", "tensorShape": {"dim": [{"size": "1"}]}}}, "dtype": {"type": "DT_INT32"}}}, {"name": "StatefulPartitionedCall/model/tf_op_layer_strided_slice_3/strided_slice_3/strides", "op": "Const", "attr": {"value": {"tensor": {"dtype": "DT_INT32", "tensorShape": {"dim": [{"size": "1"}]}}}, "dtype": {"type": "DT_INT32"}}}, {"name": "StatefulPartitionedCall/model/tf_op_layer_Reshape_2/Reshape_2/shape", "op": "Const", "attr": {"value": {"tensor": {"dtype": "DT_INT32", "tensorShape": {"dim": [{"size": "1"}]}}}, "dtype": {"type": "DT_INT32"}}}, {"name": "StatefulPartitionedCall/model/tf_op_layer_ArgMax_2/ArgMax_2/dimension", "op": "Const", "attr": {"value": {"tensor": {"dtype": "DT_INT32", "tensorShape": {}}}, "dtype": {"type": "DT_INT32"}}}, {"name": "StatefulPartitionedCall/model/tf_op_layer_strided_slice_4/strided_slice_4/begin", "op": "Const", "attr": {"dtype": {"type": "DT_INT32"}, "value": {"tensor": {"dtype": "DT_INT32", "tensorShape": {"dim": [{"size": "1"}]}}}}}, {"name": "StatefulPartitionedCall/model/tf_op_layer_strided_slice_4/strided_slice_4/end", "op": "Const", "attr": {"dtype": {"type": "DT_INT32"}, "value": {"tensor": {"dtype": "DT_INT32", "tensorShape": {"dim": [{"size": "1"}]}}}}}, {"name": "StatefulPartitionedCall/model/tf_op_layer_strided_slice_4/strided_slice_4/strides", "op": "Const", "attr": {"dtype": {"type": "DT_INT32"}, "value": {"tensor": {"dtype": "DT_INT32", "tensorShape": {"dim": [{"size": "1"}]}}}}}, {"name": "StatefulPartitionedCall/model/tf_op_layer_Reshape_3/Reshape_3/shape", "op": "Const", "attr": {"value": {"tensor": {"dtype": "DT_INT32", "tensorShape": {"dim": [{"size": "1"}]}}}, "dtype": {"type": "DT_INT32"}}}, {"name": "StatefulPartitionedCall/model/tf_op_layer_ArgMax_3/ArgMax_3/dimension", "op": "Const", "attr": {"dtype": {"type": "DT_INT32"}, "value": {"tensor": {"dtype": "DT_INT32", "tensorShape": {}}}}}, {"name": "StatefulPartitionedCall/model/tf_op_layer_Greater/Greater/y", "op": "Const", "attr": {"dtype": {"type": "DT_FLOAT"}, "value": {"tensor": {"dtype": "DT_FLOAT", "tensorShape": {}}}}}, {"name": "StatefulPartitionedCall/model/up_sampling2d/strided_slice/stack", "op": "Const", "attr": {"dtype": {"type": "DT_INT32"}, "value": {"tensor": {"dtype": "DT_INT32", "tensorShape": {"dim": [{"size": "1"}]}}}}}, {"name": "StatefulPartitionedCall/model/up_sampling2d/strided_slice/stack_1", "op": "Const", "attr": {"dtype": {"type": "DT_INT32"}, "value": {"tensor": {"dtype": "DT_INT32", "tensorShape": {"dim": [{"size": "1"}]}}}}}, {"name": "StatefulPartitionedCall/model/up_sampling2d/strided_slice/stack_2", "op": "Const", "attr": {"value": {"tensor": {"dtype": "DT_INT32", "tensorShape": {"dim": [{"size": "1"}]}}}, "dtype": {"type": "DT_INT32"}}}, {"name": "StatefulPartitionedCall/model/up_sampling2d/Const", "op": "Const", "attr": {"value": {"tensor": {"dtype": "DT_INT32", "tensorShape": {"dim": [{"size": "2"}]}}}, "dtype": {"type": "DT_INT32"}}}, {"name": "StatefulPartitionedCall/model/up_sampling2d_1/strided_slice/stack", "op": "Const", "attr": {"dtype": {"type": "DT_INT32"}, "value": {"tensor": {"dtype": "DT_INT32", "tensorShape": {"dim": [{"size": "1"}]}}}}}, {"name": "StatefulPartitionedCall/model/up_sampling2d_1/strided_slice/stack_1", "op": "Const", "attr": {"value": {"tensor": {"dtype": "DT_INT32", "tensorShape": {"dim": [{"size": "1"}]}}}, "dtype": {"type": "DT_INT32"}}}, {"name": "StatefulPartitionedCall/model/up_sampling2d_1/strided_slice/stack_2", "op": "Const", "attr": {"dtype": {"type": "DT_INT32"}, "value": {"tensor": {"dtype": "DT_INT32", "tensorShape": {"dim": [{"size": "1"}]}}}}}, {"name": "StatefulPartitionedCall/model/up_sampling2d_1/Const", "op": "Const", "attr": {"dtype": {"type": "DT_INT32"}, "value": {"tensor": {"dtype": "DT_INT32", "tensorShape": {"dim": [{"size": "2"}]}}}}}, {"name": "StatefulPartitionedCall/model/up_sampling2d_2/strided_slice/stack", "op": "Const", "attr": {"value": {"tensor": {"dtype": "DT_INT32", "tensorShape": {"dim": [{"size": "1"}]}}}, "dtype": {"type": "DT_INT32"}}}, {"name": "StatefulPartitionedCall/model/up_sampling2d_2/strided_slice/stack_1", "op": "Const", "attr": {"value": {"tensor": {"dtype": "DT_INT32", "tensorShape": {"dim": [{"size": "1"}]}}}, "dtype": {"type": "DT_INT32"}}}, {"name": "StatefulPartitionedCall/model/up_sampling2d_2/strided_slice/stack_2", "op": "Const", "attr": {"dtype": {"type": "DT_INT32"}, "value": {"tensor": {"dtype": "DT_INT32", "tensorShape": {"dim": [{"size": "1"}]}}}}}, {"name": "StatefulPartitionedCall/model/up_sampling2d_2/Const", "op": "Const", "attr": {"value": {"tensor": {"dtype": "DT_INT32", "tensorShape": {"dim": [{"size": "2"}]}}}, "dtype": {"type": "DT_INT32"}}}, {"name": "StatefulPartitionedCall/model/up_sampling2d_3/strided_slice/stack", "op": "Const", "attr": {"value": {"tensor": {"dtype": "DT_INT32", "tensorShape": {"dim": [{"size": "1"}]}}}, "dtype": {"type": "DT_INT32"}}}, {"name": "StatefulPartitionedCall/model/up_sampling2d_3/strided_slice/stack_1", "op": "Const", "attr": {"value": {"tensor": {"dtype": "DT_INT32", "tensorShape": {"dim": [{"size": "1"}]}}}, "dtype": {"type": "DT_INT32"}}}, {"name": "StatefulPartitionedCall/model/up_sampling2d_3/strided_slice/stack_2", "op": "Const", "attr": {"dtype": {"type": "DT_INT32"}, "value": {"tensor": {"dtype": "DT_INT32", "tensorShape": {"dim": [{"size": "1"}]}}}}}, {"name": "StatefulPartitionedCall/model/up_sampling2d_3/Const", "op": "Const", "attr": {"dtype": {"type": "DT_INT32"}, "value": {"tensor": {"dtype": "DT_INT32", "tensorShape": {"dim": [{"size": "2"}]}}}}}, {"name": "StatefulPartitionedCall/model/conv2/Conv2D/ReadVariableOp", "op": "Const", "attr": {"dtype": {"type": "DT_FLOAT"}, "value": {"tensor": {"dtype": "DT_FLOAT", "tensorShape": {"dim": [{"size": "3"}, {"size": "3"}, {"size": "16"}, {"size": "5"}]}}}}}, {"name": "StatefulPartitionedCall/model/conv2/BiasAdd/ReadVariableOp", "op": "Const", "attr": {"dtype": {"type": "DT_FLOAT"}, "value": {"tensor": {"dtype": "DT_FLOAT", "tensorShape": {"dim": [{"size": "5"}]}}}}}, {"name": "ConstantFolding/StatefulPartitionedCall/model/tf_op_layer_RealDiv/RealDiv_recip", "op": "Const", "attr": {"dtype": {"type": "DT_FLOAT"}, "value": {"tensor": {"dtype": "DT_FLOAT", "tensorShape": {}}}}}, {"name": "StatefulPartitionedCall/model/tf_op_layer_strided_slice/strided_slice/begin", "op": "Const", "attr": {"value": {"tensor": {"dtype": "DT_INT32", "tensorShape": {"dim": [{"size": "1"}]}}}, "dtype": {"type": "DT_INT32"}}}, {"name": "StatefulPartitionedCall/model/tf_op_layer_strided_slice/strided_slice/end", "op": "Const", "attr": {"dtype": {"type": "DT_INT32"}, "value": {"tensor": {"dtype": "DT_INT32", "tensorShape": {"dim": [{"size": "1"}]}}}}}, {"name": "StatefulPartitionedCall/model/tf_op_layer_strided_slice/strided_slice/strides", "op": "Const", "attr": {"value": {"tensor": {"dtype": "DT_INT32", "tensorShape": {"dim": [{"size": "1"}]}}}, "dtype": {"type": "DT_INT32"}}}, {"name": "StatefulPartitionedCall/model/tf_op_layer_Mul/Mul/y", "op": "Const", "attr": {"dtype": {"type": "DT_FLOAT"}, "value": {"tensor": {"dtype": "DT_FLOAT", "tensorShape": {}}}}}, {"name": "StatefulPartitionedCall/model/tf_op_layer_Transpose/Transpose/perm", "op": "Const", "attr": {"dtype": {"type": "DT_INT32"}, "value": {"tensor": {"dtype": "DT_INT32", "tensorShape": {"dim": [{"size": "3"}]}}}}}, {"name": "StatefulPartitionedCall/model/tf_op_layer_strided_slice_5/strided_slice_5/begin", "op": "Const", "attr": {"dtype": {"type": "DT_INT32"}, "value": {"tensor": {"dtype": "DT_INT32", "tensorShape": {"dim": [{"size": "1"}]}}}}}, {"name": "StatefulPartitionedCall/model/tf_op_layer_strided_slice_5/strided_slice_5/end", "op": "Const", "attr": {"value": {"tensor": {"dtype": "DT_INT32", "tensorShape": {"dim": [{"size": "1"}]}}}, "dtype": {"type": "DT_INT32"}}}, {"name": "StatefulPartitionedCall/model/tf_op_layer_strided_slice_5/strided_slice_5/strides", "op": "Const", "attr": {"dtype": {"type": "DT_INT32"}, "value": {"tensor": {"dtype": "DT_INT32", "tensorShape": {"dim": [{"size": "1"}]}}}}}, {"name": "StatefulPartitionedCall/model/tf_op_layer_Reshape_4/Reshape_4/shape", "op": "Const", "attr": {"dtype": {"type": "DT_INT32"}, "value": {"tensor": {"dtype": "DT_INT32", "tensorShape": {"dim": [{"size": "1"}]}}}}}, {"name": "StatefulPartitionedCall/model/tf_op_layer_ArgMax_4/ArgMax_4/dimension", "op": "Const", "attr": {"dtype": {"type": "DT_INT32"}, "value": {"tensor": {"dtype": "DT_INT32", "tensorShape": {}}}}}, {"name": "input", "op": "Placeholder", "attr": {"dtype": {"type": "DT_INT32"}, "shape": {"shape": {"dim": [{"size": "-1"}, {"size": "112"}, {"size": "112"}, {"size": "1"}]}}}}, {"name": "StatefulPartitionedCall/model/conv1/Conv2D_weights", "op": "Const", "attr": {"value": {"tensor": {"dtype": "DT_FLOAT", "tensorShape": {"dim": [{"size": "3"}, {"size": "3"}, {"size": "1"}, {"size": "16"}]}}}, "dtype": {"type": "DT_FLOAT"}}}, {"name": "StatefulPartitionedCall/model/blk1_stgup3_conv/Conv2D_bn_offset", "op": "Const", "attr": {"dtype": {"type": "DT_FLOAT"}, "value": {"tensor": {"dtype": "DT_FLOAT", "tensorShape": {"dim": [{"size": "16"}]}}}}}, {"name": "StatefulPartitionedCall/model/conv1/Conv2D_bn_offset", "op": "Const", "attr": {"dtype": {"type": "DT_FLOAT"}, "value": {"tensor": {"dtype": "DT_FLOAT", "tensorShape": {"dim": [{"size": "16"}]}}}}}, {"name": "StatefulPartitionedCall/model/blk1_stg1__conv1/Conv2D_weights", "op": "Const", "attr": {"value": {"tensor": {"dtype": "DT_FLOAT", "tensorShape": {"dim": [{"size": "3"}, {"size": "3"}, {"size": "16"}, {"size": "16"}]}}}, "dtype": {"type": "DT_FLOAT"}}}, {"name": "StatefulPartitionedCall/model/blk1_stg1__conv1/Conv2D_bn_offset", "op": "Const", "attr": {"value": {"tensor": {"dtype": "DT_FLOAT", "tensorShape": {"dim": [{"size": "16"}]}}}, "dtype": {"type": "DT_FLOAT"}}}, {"name": "StatefulPartitionedCall/model/blk1_stg1__conv2/Conv2D_weights", "op": "Const", "attr": {"dtype": {"type": "DT_FLOAT"}, "value": {"tensor": {"dtype": "DT_FLOAT", "tensorShape": {"dim": [{"size": "3"}, {"size": "3"}, {"size": "16"}, {"size": "16"}]}}}}}, {"name": "StatefulPartitionedCall/model/blk1_stg1__conv2/Conv2D_bn_offset", "op": "Const", "attr": {"value": {"tensor": {"dtype": "DT_FLOAT", "tensorShape": {"dim": [{"size": "16"}]}}}, "dtype": {"type": "DT_FLOAT"}}}, {"name": "StatefulPartitionedCall/model/blk1_stg2__conv1/Conv2D_weights", "op": "Const", "attr": {"dtype": {"type": "DT_FLOAT"}, "value": {"tensor": {"dtype": "DT_FLOAT", "tensorShape": {"dim": [{"size": "3"}, {"size": "3"}, {"size": "16"}, {"size": "16"}]}}}}}, {"name": "StatefulPartitionedCall/model/blk1_stg2__conv1/Conv2D_bn_offset", "op": "Const", "attr": {"value": {"tensor": {"dtype": "DT_FLOAT", "tensorShape": {"dim": [{"size": "16"}]}}}, "dtype": {"type": "DT_FLOAT"}}}, {"name": "StatefulPartitionedCall/model/blk1_stgx1__conv1/Conv2D_weights", "op": "Const", "attr": {"dtype": {"type": "DT_FLOAT"}, "value": {"tensor": {"dtype": "DT_FLOAT", "tensorShape": {"dim": [{"size": "3"}, {"size": "3"}, {"size": "16"}, {"size": "16"}]}}}}}, {"name": "StatefulPartitionedCall/model/blk1_stgup2_conv/Conv2D_weights", "op": "Const", "attr": {"dtype": {"type": "DT_FLOAT"}, "value": {"tensor": {"dtype": "DT_FLOAT", "tensorShape": {"dim": [{"size": "3"}, {"size": "3"}, {"size": "16"}, {"size": "16"}]}}}}}, {"name": "StatefulPartitionedCall/model/blk1_stgx1__conv1/Conv2D_bn_offset", "op": "Const", "attr": {"value": {"tensor": {"dtype": "DT_FLOAT", "tensorShape": {"dim": [{"size": "16"}]}}}, "dtype": {"type": "DT_FLOAT"}}}, {"name": "StatefulPartitionedCall/model/blk1_stg2__conv2/Conv2D_weights", "op": "Const", "attr": {"value": {"tensor": {"dtype": "DT_FLOAT", "tensorShape": {"dim": [{"size": "3"}, {"size": "3"}, {"size": "16"}, {"size": "16"}]}}}, "dtype": {"type": "DT_FLOAT"}}}, {"name": "StatefulPartitionedCall/model/blk1_stgup2_conv/Conv2D_bn_offset", "op": "Const", "attr": {"dtype": {"type": "DT_FLOAT"}, "value": {"tensor": {"dtype": "DT_FLOAT", "tensorShape": {"dim": [{"size": "16"}]}}}}}, {"name": "StatefulPartitionedCall/model/blk1_stg2__conv2/Conv2D_bn_offset", "op": "Const", "attr": {"value": {"tensor": {"dtype": "DT_FLOAT", "tensorShape": {"dim": [{"size": "16"}]}}}, "dtype": {"type": "DT_FLOAT"}}}, {"name": "StatefulPartitionedCall/model/blk1_stgx1__conv2/Conv2D_weights", "op": "Const", "attr": {"value": {"tensor": {"dtype": "DT_FLOAT", "tensorShape": {"dim": [{"size": "3"}, {"size": "3"}, {"size": "16"}, {"size": "16"}]}}}, "dtype": {"type": "DT_FLOAT"}}}, {"name": "StatefulPartitionedCall/model/blk1_stgx1__conv2/Conv2D_bn_offset", "op": "Const", "attr": {"dtype": {"type": "DT_FLOAT"}, "value": {"tensor": {"dtype": "DT_FLOAT", "tensorShape": {"dim": [{"size": "16"}]}}}}}, {"name": "StatefulPartitionedCall/model/blk1_stg2__conv3/Conv2D_weights", "op": "Const", "attr": {"value": {"tensor": {"dtype": "DT_FLOAT", "tensorShape": {"dim": [{"size": "3"}, {"size": "3"}, {"size": "16"}, {"size": "16"}]}}}, "dtype": {"type": "DT_FLOAT"}}}, {"name": "StatefulPartitionedCall/model/blk1_stg2__conv3/Conv2D_bn_offset", "op": "Const", "attr": {"value": {"tensor": {"dtype": "DT_FLOAT", "tensorShape": {"dim": [{"size": "16"}]}}}, "dtype": {"type": "DT_FLOAT"}}}, {"name": "StatefulPartitionedCall/model/blk1_stgx1__conv3/Conv2D_weights", "op": "Const", "attr": {"dtype": {"type": "DT_FLOAT"}, "value": {"tensor": {"dtype": "DT_FLOAT", "tensorShape": {"dim": [{"size": "3"}, {"size": "3"}, {"size": "16"}, {"size": "16"}]}}}}}, {"name": "StatefulPartitionedCall/model/blk1_stgx1__conv3/Conv2D_bn_offset", "op": "Const", "attr": {"value": {"tensor": {"dtype": "DT_FLOAT", "tensorShape": {"dim": [{"size": "16"}]}}}, "dtype": {"type": "DT_FLOAT"}}}, {"name": "StatefulPartitionedCall/model/blk1_stg3__conv1/Conv2D_weights", "op": "Const", "attr": {"dtype": {"type": "DT_FLOAT"}, "value": {"tensor": {"dtype": "DT_FLOAT", "tensorShape": {"dim": [{"size": "3"}, {"size": "3"}, {"size": "16"}, {"size": "16"}]}}}}}, {"name": "StatefulPartitionedCall/model/blk1_stgup1_conv1/Conv2D_weights", "op": "Const", "attr": {"dtype": {"type": "DT_FLOAT"}, "value": {"tensor": {"dtype": "DT_FLOAT", "tensorShape": {"dim": [{"size": "3"}, {"size": "3"}, {"size": "16"}, {"size": "16"}]}}}}}, {"name": "StatefulPartitionedCall/model/blk1_stg3__conv1/Conv2D_bn_offset", "op": "Const", "attr": {"value": {"tensor": {"dtype": "DT_FLOAT", "tensorShape": {"dim": [{"size": "16"}]}}}, "dtype": {"type": "DT_FLOAT"}}}, {"name": "StatefulPartitionedCall/model/blk1_stgx2__conv1/Conv2D_weights", "op": "Const", "attr": {"value": {"tensor": {"dtype": "DT_FLOAT", "tensorShape": {"dim": [{"size": "3"}, {"size": "3"}, {"size": "16"}, {"size": "16"}]}}}, "dtype": {"type": "DT_FLOAT"}}}, {"name": "StatefulPartitionedCall/model/blk1_stgup1_conv1/Conv2D_bn_offset", "op": "Const", "attr": {"dtype": {"type": "DT_FLOAT"}, "value": {"tensor": {"dtype": "DT_FLOAT", "tensorShape": {"dim": [{"size": "16"}]}}}}}, {"name": "StatefulPartitionedCall/model/blk1_stgx2__conv1/Conv2D_bn_offset", "op": "Const", "attr": {"dtype": {"type": "DT_FLOAT"}, "value": {"tensor": {"dtype": "DT_FLOAT", "tensorShape": {"dim": [{"size": "16"}]}}}}}, {"name": "StatefulPartitionedCall/model/blk1_stg3__conv2/Conv2D_weights", "op": "Const", "attr": {"dtype": {"type": "DT_FLOAT"}, "value": {"tensor": {"dtype": "DT_FLOAT", "tensorShape": {"dim": [{"size": "3"}, {"size": "3"}, {"size": "16"}, {"size": "16"}]}}}}}, {"name": "StatefulPartitionedCall/model/blk1_stg3__conv2/Conv2D_bn_offset", "op": "Const", "attr": {"value": {"tensor": {"dtype": "DT_FLOAT", "tensorShape": {"dim": [{"size": "16"}]}}}, "dtype": {"type": "DT_FLOAT"}}}, {"name": "StatefulPartitionedCall/model/blk1_stgup1_conv2/Conv2D_weights", "op": "Const", "attr": {"value": {"tensor": {"dtype": "DT_FLOAT", "tensorShape": {"dim": [{"size": "3"}, {"size": "3"}, {"size": "16"}, {"size": "16"}]}}}, "dtype": {"type": "DT_FLOAT"}}}, {"name": "StatefulPartitionedCall/model/blk1_stgx2__conv2/Conv2D_weights", "op": "Const", "attr": {"dtype": {"type": "DT_FLOAT"}, "value": {"tensor": {"dtype": "DT_FLOAT", "tensorShape": {"dim": [{"size": "3"}, {"size": "3"}, {"size": "16"}, {"size": "16"}]}}}}}, {"name": "StatefulPartitionedCall/model/conv2_bn/FusedBatchNormV3/Scaled", "op": "Const", "attr": {"value": {"tensor": {"dtype": "DT_FLOAT", "tensorShape": {"dim": [{"size": "5"}]}}}, "dtype": {"type": "DT_FLOAT"}}}, {"name": "StatefulPartitionedCall/model/blk1_stgx2__conv2/Conv2D_bn_offset", "op": "Const", "attr": {"value": {"tensor": {"dtype": "DT_FLOAT", "tensorShape": {"dim": [{"size": "16"}]}}}, "dtype": {"type": "DT_FLOAT"}}}, {"name": "StatefulPartitionedCall/model/blk1_stgup1_conv2/Conv2D_bn_offset", "op": "Const", "attr": {"value": {"tensor": {"dtype": "DT_FLOAT", "tensorShape": {"dim": [{"size": "16"}]}}}, "dtype": {"type": "DT_FLOAT"}}}, {"name": "StatefulPartitionedCall/model/blk1_stg3__conv3/Conv2D_weights", "op": "Const", "attr": {"value": {"tensor": {"dtype": "DT_FLOAT", "tensorShape": {"dim": [{"size": "3"}, {"size": "3"}, {"size": "16"}, {"size": "16"}]}}}, "dtype": {"type": "DT_FLOAT"}}}, {"name": "StatefulPartitionedCall/model/blk1_stg3__conv3/Conv2D_bn_offset", "op": "Const", "attr": {"value": {"tensor": {"dtype": "DT_FLOAT", "tensorShape": {"dim": [{"size": "16"}]}}}, "dtype": {"type": "DT_FLOAT"}}}, {"name": "StatefulPartitionedCall/model/blk1_stgx2__conv3/Conv2D_weights", "op": "Const", "attr": {"dtype": {"type": "DT_FLOAT"}, "value": {"tensor": {"dtype": "DT_FLOAT", "tensorShape": {"dim": [{"size": "3"}, {"size": "3"}, {"size": "16"}, {"size": "16"}]}}}}}, {"name": "StatefulPartitionedCall/model/blk1_stgx2__conv3/Conv2D_bn_offset", "op": "Const", "attr": {"value": {"tensor": {"dtype": "DT_FLOAT", "tensorShape": {"dim": [{"size": "16"}]}}}, "dtype": {"type": "DT_FLOAT"}}}, {"name": "StatefulPartitionedCall/model/conv2_bn/FusedBatchNormV3/Offset", "op": "Const", "attr": {"value": {"tensor": {"dtype": "DT_FLOAT", "tensorShape": {"dim": [{"size": "5"}]}}}, "dtype": {"type": "DT_FLOAT"}}}, {"name": "StatefulPartitionedCall/model/blk1_stg4__conv1/Conv2D_weights", "op": "Const", "attr": {"value": {"tensor": {"dtype": "DT_FLOAT", "tensorShape": {"dim": [{"size": "3"}, {"size": "3"}, {"size": "16"}, {"size": "16"}]}}}, "dtype": {"type": "DT_FLOAT"}}}, {"name": "StatefulPartitionedCall/model/blk1_stg4__conv1/Conv2D_bn_offset", "op": "Const", "attr": {"dtype": {"type": "DT_FLOAT"}, "value": {"tensor": {"dtype": "DT_FLOAT", "tensorShape": {"dim": [{"size": "16"}]}}}}}, {"name": "StatefulPartitionedCall/model/blk1_stgx3__conv1/Conv2D_weights", "op": "Const", "attr": {"value": {"tensor": {"dtype": "DT_FLOAT", "tensorShape": {"dim": [{"size": "3"}, {"size": "3"}, {"size": "16"}, {"size": "16"}]}}}, "dtype": {"type": "DT_FLOAT"}}}, {"name": "StatefulPartitionedCall/model/blk1_stgx3__conv1/Conv2D_bn_offset", "op": "Const", "attr": {"dtype": {"type": "DT_FLOAT"}, "value": {"tensor": {"dtype": "DT_FLOAT", "tensorShape": {"dim": [{"size": "16"}]}}}}}, {"name": "StatefulPartitionedCall/model/blk1_stg4__conv2/Conv2D_weights", "op": "Const", "attr": {"dtype": {"type": "DT_FLOAT"}, "value": {"tensor": {"dtype": "DT_FLOAT", "tensorShape": {"dim": [{"size": "3"}, {"size": "3"}, {"size": "16"}, {"size": "16"}]}}}}}, {"name": "StatefulPartitionedCall/model/blk1_stg4__conv2/Conv2D_bn_offset", "op": "Const", "attr": {"value": {"tensor": {"dtype": "DT_FLOAT", "tensorShape": {"dim": [{"size": "16"}]}}}, "dtype": {"type": "DT_FLOAT"}}}, {"name": "StatefulPartitionedCall/model/blk1_stgx3__conv2/Conv2D_weights", "op": "Const", "attr": {"value": {"tensor": {"dtype": "DT_FLOAT", "tensorShape": {"dim": [{"size": "3"}, {"size": "3"}, {"size": "16"}, {"size": "16"}]}}}, "dtype": {"type": "DT_FLOAT"}}}, {"name": "StatefulPartitionedCall/model/blk1_stgx3__conv2/Conv2D_bn_offset", "op": "Const", "attr": {"dtype": {"type": "DT_FLOAT"}, "value": {"tensor": {"dtype": "DT_FLOAT", "tensorShape": {"dim": [{"size": "16"}]}}}}}, {"name": "StatefulPartitionedCall/model/blk1_stg4__conv3/Conv2D_weights", "op": "Const", "attr": {"value": {"tensor": {"dtype": "DT_FLOAT", "tensorShape": {"dim": [{"size": "3"}, {"size": "3"}, {"size": "16"}, {"size": "16"}]}}}, "dtype": {"type": "DT_FLOAT"}}}, {"name": "StatefulPartitionedCall/model/blk1_stg4__conv3/Conv2D_bn_offset", "op": "Const", "attr": {"dtype": {"type": "DT_FLOAT"}, "value": {"tensor": {"dtype": "DT_FLOAT", "tensorShape": {"dim": [{"size": "16"}]}}}}}, {"name": "StatefulPartitionedCall/model/blk1_stgx3__conv3/Conv2D_weights", "op": "Const", "attr": {"value": {"tensor": {"dtype": "DT_FLOAT", "tensorShape": {"dim": [{"size": "3"}, {"size": "3"}, {"size": "16"}, {"size": "16"}]}}}, "dtype": {"type": "DT_FLOAT"}}}, {"name": "StatefulPartitionedCall/model/blk1_stgx3__conv3/Conv2D_bn_offset", "op": "Const", "attr": {"value": {"tensor": {"dtype": "DT_FLOAT", "tensorShape": {"dim": [{"size": "16"}]}}}, "dtype": {"type": "DT_FLOAT"}}}, {"name": "StatefulPartitionedCall/model/blk1_stg5__conv1/Conv2D_weights", "op": "Const", "attr": {"value": {"tensor": {"dtype": "DT_FLOAT", "tensorShape": {"dim": [{"size": "3"}, {"size": "3"}, {"size": "16"}, {"size": "16"}]}}}, "dtype": {"type": "DT_FLOAT"}}}, {"name": "StatefulPartitionedCall/model/blk1_stg5__conv1/Conv2D_bn_offset", "op": "Const", "attr": {"dtype": {"type": "DT_FLOAT"}, "value": {"tensor": {"dtype": "DT_FLOAT", "tensorShape": {"dim": [{"size": "16"}]}}}}}, {"name": "StatefulPartitionedCall/model/blk1_stgx4__conv1/Conv2D_weights", "op": "Const", "attr": {"value": {"tensor": {"dtype": "DT_FLOAT", "tensorShape": {"dim": [{"size": "3"}, {"size": "3"}, {"size": "16"}, {"size": "16"}]}}}, "dtype": {"type": "DT_FLOAT"}}}, {"name": "StatefulPartitionedCall/model/blk1_stgx4__conv1/Conv2D_bn_offset", "op": "Const", "attr": {"dtype": {"type": "DT_FLOAT"}, "value": {"tensor": {"dtype": "DT_FLOAT", "tensorShape": {"dim": [{"size": "16"}]}}}}}, {"name": "StatefulPartitionedCall/model/blk1_stg5__conv2/Conv2D_weights", "op": "Const", "attr": {"dtype": {"type": "DT_FLOAT"}, "value": {"tensor": {"dtype": "DT_FLOAT", "tensorShape": {"dim": [{"size": "3"}, {"size": "3"}, {"size": "16"}, {"size": "16"}]}}}}}, {"name": "StatefulPartitionedCall/model/blk1_stg5__conv2/Conv2D_bn_offset", "op": "Const", "attr": {"value": {"tensor": {"dtype": "DT_FLOAT", "tensorShape": {"dim": [{"size": "16"}]}}}, "dtype": {"type": "DT_FLOAT"}}}, {"name": "StatefulPartitionedCall/model/blk1_stgx4__conv2/Conv2D_weights", "op": "Const", "attr": {"dtype": {"type": "DT_FLOAT"}, "value": {"tensor": {"dtype": "DT_FLOAT", "tensorShape": {"dim": [{"size": "3"}, {"size": "3"}, {"size": "16"}, {"size": "16"}]}}}}}, {"name": "StatefulPartitionedCall/model/blk1_stgx4__conv2/Conv2D_bn_offset", "op": "Const", "attr": {"dtype": {"type": "DT_FLOAT"}, "value": {"tensor": {"dtype": "DT_FLOAT", "tensorShape": {"dim": [{"size": "16"}]}}}}}, {"name": "StatefulPartitionedCall/model/blk1_stg5__conv3/Conv2D_weights", "op": "Const", "attr": {"value": {"tensor": {"dtype": "DT_FLOAT", "tensorShape": {"dim": [{"size": "3"}, {"size": "3"}, {"size": "16"}, {"size": "16"}]}}}, "dtype": {"type": "DT_FLOAT"}}}, {"name": "StatefulPartitionedCall/model/blk1_stg5__conv3/Conv2D_bn_offset", "op": "Const", "attr": {"dtype": {"type": "DT_FLOAT"}, "value": {"tensor": {"dtype": "DT_FLOAT", "tensorShape": {"dim": [{"size": "16"}]}}}}}, {"name": "StatefulPartitionedCall/model/blk1_stgx4__conv3/Conv2D_weights", "op": "Const", "attr": {"dtype": {"type": "DT_FLOAT"}, "value": {"tensor": {"dtype": "DT_FLOAT", "tensorShape": {"dim": [{"size": "3"}, {"size": "3"}, {"size": "16"}, {"size": "16"}]}}}}}, {"name": "StatefulPartitionedCall/model/blk1_stgx4__conv3/Conv2D_bn_offset", "op": "Const", "attr": {"dtype": {"type": "DT_FLOAT"}, "value": {"tensor": {"dtype": "DT_FLOAT", "tensorShape": {"dim": [{"size": "16"}]}}}}}, {"name": "StatefulPartitionedCall/model/blk1_stgup4_conv/Conv2D_weights", "op": "Const", "attr": {"dtype": {"type": "DT_FLOAT"}, "value": {"tensor": {"dtype": "DT_FLOAT", "tensorShape": {"dim": [{"size": "3"}, {"size": "3"}, {"size": "16"}, {"size": "16"}]}}}}}, {"name": "StatefulPartitionedCall/model/blk1_stgup4_conv/Conv2D_bn_offset", "op": "Const", "attr": {"dtype": {"type": "DT_FLOAT"}, "value": {"tensor": {"dtype": "DT_FLOAT", "tensorShape": {"dim": [{"size": "16"}]}}}}}, {"name": "StatefulPartitionedCall/model/blk1_stgup3_conv/Conv2D_weights", "op": "Const", "attr": {"value": {"tensor": {"dtype": "DT_FLOAT", "tensorShape": {"dim": [{"size": "3"}, {"size": "3"}, {"size": "16"}, {"size": "16"}]}}}, "dtype": {"type": "DT_FLOAT"}}}, {"name": "StatefulPartitionedCall/model/tf_op_layer_Cast/Cast", "op": "Cast", "input": ["input"], "attr": {"_cloned": {"b": true}, "SrcT": {"type": "DT_INT32"}, "Truncate": {"b": false}, "DstT": {"type": "DT_FLOAT"}}}, {"name": "StatefulPartitionedCall/model/tf_op_layer_RealDiv/RealDiv", "op": "Mul", "input": ["StatefulPartitionedCall/model/tf_op_layer_Cast/Cast", "ConstantFolding/StatefulPartitionedCall/model/tf_op_layer_RealDiv/RealDiv_recip"], "attr": {"_cloned": {"b": true}, "T": {"type": "DT_FLOAT"}}}, {"name": "StatefulPartitionedCall/model/activation/Relu", "op": "_FusedConv2D", "input": ["StatefulPartitionedCall/model/tf_op_layer_Cast/Cast", "StatefulPartitionedCall/model/conv1/Conv2D_weights", "StatefulPartitionedCall/model/conv1/Conv2D_bn_offset"], "device": "/device:CPU:0", "attr": {"fused_ops": {"list": {"s": ["Qmlhc0FkZA==", "UmVsdQ=="]}}, "T": {"type": "DT_FLOAT"}, "padding": {"s": "U0FNRQ=="}, "num_args": {"i": "1"}, "use_cudnn_on_gpu": {"b": true}, "epsilon": {"f": 0.0}, "dilations": {"list": {"i": ["1", "1", "1", "1"]}}, "strides": {"list": {"i": ["1", "1", "1", "1"]}}, "data_format": {"s": "TkhXQw=="}, "explicit_paddings": {"list": {}}}}, {"name": "StatefulPartitionedCall/model/activation_1/Relu", "op": "_FusedConv2D", "input": ["StatefulPartitionedCall/model/activation/Relu", "StatefulPartitionedCall/model/blk1_stg1__conv1/Conv2D_weights", "StatefulPartitionedCall/model/blk1_stg1__conv1/Conv2D_bn_offset"], "device": "/device:CPU:0", "attr": {"dilations": {"list": {"i": ["1", "1", "1", "1"]}}, "padding": {"s": "U0FNRQ=="}, "explicit_paddings": {"list": {}}, "fused_ops": {"list": {"s": ["Qmlhc0FkZA==", "UmVsdQ=="]}}, "T": {"type": "DT_FLOAT"}, "strides": {"list": {"i": ["1", "1", "1", "1"]}}, "epsilon": {"f": 0.0}, "data_format": {"s": "TkhXQw=="}, "num_args": {"i": "1"}, "use_cudnn_on_gpu": {"b": true}}}, {"name": "StatefulPartitionedCall/model/activation_2/Relu", "op": "_FusedConv2D", "input": ["StatefulPartitionedCall/model/activation_1/Relu", "StatefulPartitionedCall/model/blk1_stg1__conv2/Conv2D_weights", "StatefulPartitionedCall/model/blk1_stg1__conv2/Conv2D_bn_offset"], "device": "/device:CPU:0", "attr": {"dilations": {"list": {"i": ["1", "1", "1", "1"]}}, "strides": {"list": {"i": ["1", "1", "1", "1"]}}, "num_args": {"i": "1"}, "fused_ops": {"list": {"s": ["Qmlhc0FkZA==", "UmVsdQ=="]}}, "explicit_paddings": {"list": {}}, "padding": {"s": "U0FNRQ=="}, "data_format": {"s": "TkhXQw=="}, "epsilon": {"f": 0.0}, "T": {"type": "DT_FLOAT"}, "use_cudnn_on_gpu": {"b": true}}}, {"name": "StatefulPartitionedCall/model/activation_6/Relu", "op": "_FusedConv2D", "input": ["StatefulPartitionedCall/model/activation_2/Relu", "StatefulPartitionedCall/model/blk1_stg2__conv1/Conv2D_weights", "StatefulPartitionedCall/model/blk1_stg2__conv1/Conv2D_bn_offset"], "device": "/device:CPU:0", "attr": {"data_format": {"s": "TkhXQw=="}, "strides": {"list": {"i": ["1", "2", "2", "1"]}}, "padding": {"s": "U0FNRQ=="}, "dilations": {"list": {"i": ["1", "1", "1", "1"]}}, "T": {"type": "DT_FLOAT"}, "num_args": {"i": "1"}, "explicit_paddings": {"list": {}}, "epsilon": {"f": 0.0}, "use_cudnn_on_gpu": {"b": true}, "fused_ops": {"list": {"s": ["Qmlhc0FkZA==", "UmVsdQ=="]}}}}, {"name": "StatefulPartitionedCall/model/activation_3/Relu", "op": "_FusedConv2D", "input": ["StatefulPartitionedCall/model/activation_2/Relu", "StatefulPartitionedCall/model/blk1_stgx1__conv1/Conv2D_weights", "StatefulPartitionedCall/model/blk1_stgx1__conv1/Conv2D_bn_offset"], "device": "/device:CPU:0", "attr": {"fused_ops": {"list": {"s": ["Qmlhc0FkZA==", "UmVsdQ=="]}}, "T": {"type": "DT_FLOAT"}, "padding": {"s": "U0FNRQ=="}, "strides": {"list": {"i": ["1", "1", "1", "1"]}}, "num_args": {"i": "1"}, "explicit_paddings": {"list": {}}, "use_cudnn_on_gpu": {"b": true}, "epsilon": {"f": 0.0}, "data_format": {"s": "TkhXQw=="}, "dilations": {"list": {"i": ["1", "1", "1", "1"]}}}}, {"name": "StatefulPartitionedCall/model/activation_7/Relu", "op": "_FusedConv2D", "input": ["StatefulPartitionedCall/model/activation_6/Relu", "StatefulPartitionedCall/model/blk1_stg2__conv2/Conv2D_weights", "StatefulPartitionedCall/model/blk1_stg2__conv2/Conv2D_bn_offset"], "device": "/device:CPU:0", "attr": {"data_format": {"s": "TkhXQw=="}, "use_cudnn_on_gpu": {"b": true}, "T": {"type": "DT_FLOAT"}, "strides": {"list": {"i": ["1", "1", "1", "1"]}}, "fused_ops": {"list": {"s": ["Qmlhc0FkZA==", "UmVsdQ=="]}}, "dilations": {"list": {"i": ["1", "1", "1", "1"]}}, "padding": {"s": "U0FNRQ=="}, "explicit_paddings": {"list": {}}, "epsilon": {"f": 0.0}, "num_args": {"i": "1"}}}, {"name": "StatefulPartitionedCall/model/activation_4/Relu", "op": "_FusedConv2D", "input": ["StatefulPartitionedCall/model/activation_3/Relu", "StatefulPartitionedCall/model/blk1_stgx1__conv2/Conv2D_weights", "StatefulPartitionedCall/model/blk1_stgx1__conv2/Conv2D_bn_offset"], "device": "/device:CPU:0", "attr": {"use_cudnn_on_gpu": {"b": true}, "padding": {"s": "U0FNRQ=="}, "fused_ops": {"list": {"s": ["Qmlhc0FkZA==", "UmVsdQ=="]}}, "strides": {"list": {"i": ["1", "1", "1", "1"]}}, "dilations": {"list": {"i": ["1", "1", "1", "1"]}}, "explicit_paddings": {"list": {}}, "epsilon": {"f": 0.0}, "T": {"type": "DT_FLOAT"}, "num_args": {"i": "1"}, "data_format": {"s": "TkhXQw=="}}}, {"name": "StatefulPartitionedCall/model/activation_8/Relu", "op": "_FusedConv2D", "input": ["StatefulPartitionedCall/model/activation_7/Relu", "StatefulPartitionedCall/model/blk1_stg2__conv3/Conv2D_weights", "StatefulPartitionedCall/model/blk1_stg2__conv3/Conv2D_bn_offset"], "device": "/device:CPU:0", "attr": {"T": {"type": "DT_FLOAT"}, "fused_ops": {"list": {"s": ["Qmlhc0FkZA==", "UmVsdQ=="]}}, "use_cudnn_on_gpu": {"b": true}, "padding": {"s": "U0FNRQ=="}, "dilations": {"list": {"i": ["1", "1", "1", "1"]}}, "strides": {"list": {"i": ["1", "1", "1", "1"]}}, "num_args": {"i": "1"}, "explicit_paddings": {"list": {}}, "epsilon": {"f": 0.0}, "data_format": {"s": "TkhXQw=="}}}, {"name": "StatefulPartitionedCall/model/activation_5/Relu", "op": "_FusedConv2D", "input": ["StatefulPartitionedCall/model/activation_4/Relu", "StatefulPartitionedCall/model/blk1_stgx1__conv3/Conv2D_weights", "StatefulPartitionedCall/model/blk1_stgx1__conv3/Conv2D_bn_offset"], "device": "/device:CPU:0", "attr": {"padding": {"s": "U0FNRQ=="}, "use_cudnn_on_gpu": {"b": true}, "T": {"type": "DT_FLOAT"}, "strides": {"list": {"i": ["1", "1", "1", "1"]}}, "epsilon": {"f": 0.0}, "fused_ops": {"list": {"s": ["Qmlhc0FkZA==", "UmVsdQ=="]}}, "num_args": {"i": "1"}, "dilations": {"list": {"i": ["1", "1", "1", "1"]}}, "explicit_paddings": {"list": {}}, "data_format": {"s": "TkhXQw=="}}}, {"name": "StatefulPartitionedCall/model/activation_12/Relu", "op": "_FusedConv2D", "input": ["StatefulPartitionedCall/model/activation_8/Relu", "StatefulPartitionedCall/model/blk1_stg3__conv1/Conv2D_weights", "StatefulPartitionedCall/model/blk1_stg3__conv1/Conv2D_bn_offset"], "device": "/device:CPU:0", "attr": {"fused_ops": {"list": {"s": ["Qmlhc0FkZA==", "UmVsdQ=="]}}, "use_cudnn_on_gpu": {"b": true}, "epsilon": {"f": 0.0}, "padding": {"s": "U0FNRQ=="}, "T": {"type": "DT_FLOAT"}, "data_format": {"s": "TkhXQw=="}, "dilations": {"list": {"i": ["1", "1", "1", "1"]}}, "strides": {"list": {"i": ["1", "2", "2", "1"]}}, "num_args": {"i": "1"}, "explicit_paddings": {"list": {}}}}, {"name": "StatefulPartitionedCall/model/activation_9/Relu", "op": "_FusedConv2D", "input": ["StatefulPartitionedCall/model/activation_8/Relu", "StatefulPartitionedCall/model/blk1_stgx2__conv1/Conv2D_weights", "StatefulPartitionedCall/model/blk1_stgx2__conv1/Conv2D_bn_offset"], "device": "/device:CPU:0", "attr": {"explicit_paddings": {"list": {}}, "num_args": {"i": "1"}, "padding": {"s": "U0FNRQ=="}, "use_cudnn_on_gpu": {"b": true}, "fused_ops": {"list": {"s": ["Qmlhc0FkZA==", "UmVsdQ=="]}}, "dilations": {"list": {"i": ["1", "1", "1", "1"]}}, "epsilon": {"f": 0.0}, "strides": {"list": {"i": ["1", "1", "1", "1"]}}, "data_format": {"s": "TkhXQw=="}, "T": {"type": "DT_FLOAT"}}}, {"name": "StatefulPartitionedCall/model/activation_13/Relu", "op": "_FusedConv2D", "input": ["StatefulPartitionedCall/model/activation_12/Relu", "StatefulPartitionedCall/model/blk1_stg3__conv2/Conv2D_weights", "StatefulPartitionedCall/model/blk1_stg3__conv2/Conv2D_bn_offset"], "device": "/device:CPU:0", "attr": {"fused_ops": {"list": {"s": ["Qmlhc0FkZA==", "UmVsdQ=="]}}, "padding": {"s": "U0FNRQ=="}, "data_format": {"s": "TkhXQw=="}, "num_args": {"i": "1"}, "explicit_paddings": {"list": {}}, "strides": {"list": {"i": ["1", "1", "1", "1"]}}, "use_cudnn_on_gpu": {"b": true}, "epsilon": {"f": 0.0}, "dilations": {"list": {"i": ["1", "1", "1", "1"]}}, "T": {"type": "DT_FLOAT"}}}, {"name": "StatefulPartitionedCall/model/activation_10/Relu", "op": "_FusedConv2D", "input": ["StatefulPartitionedCall/model/activation_9/Relu", "StatefulPartitionedCall/model/blk1_stgx2__conv2/Conv2D_weights", "StatefulPartitionedCall/model/blk1_stgx2__conv2/Conv2D_bn_offset"], "device": "/device:CPU:0", "attr": {"num_args": {"i": "1"}, "strides": {"list": {"i": ["1", "1", "1", "1"]}}, "use_cudnn_on_gpu": {"b": true}, "epsilon": {"f": 0.0}, "padding": {"s": "U0FNRQ=="}, "fused_ops": {"list": {"s": ["Qmlhc0FkZA==", "UmVsdQ=="]}}, "dilations": {"list": {"i": ["1", "1", "1", "1"]}}, "T": {"type": "DT_FLOAT"}, "data_format": {"s": "TkhXQw=="}, "explicit_paddings": {"list": {}}}}, {"name": "StatefulPartitionedCall/model/activation_14/Relu", "op": "_FusedConv2D", "input": ["StatefulPartitionedCall/model/activation_13/Relu", "StatefulPartitionedCall/model/blk1_stg3__conv3/Conv2D_weights", "StatefulPartitionedCall/model/blk1_stg3__conv3/Conv2D_bn_offset"], "device": "/device:CPU:0", "attr": {"use_cudnn_on_gpu": {"b": true}, "data_format": {"s": "TkhXQw=="}, "fused_ops": {"list": {"s": ["Qmlhc0FkZA==", "UmVsdQ=="]}}, "epsilon": {"f": 0.0}, "num_args": {"i": "1"}, "T": {"type": "DT_FLOAT"}, "explicit_paddings": {"list": {}}, "padding": {"s": "U0FNRQ=="}, "dilations": {"list": {"i": ["1", "1", "1", "1"]}}, "strides": {"list": {"i": ["1", "1", "1", "1"]}}}}, {"name": "StatefulPartitionedCall/model/activation_11/Relu", "op": "_FusedConv2D", "input": ["StatefulPartitionedCall/model/activation_10/Relu", "StatefulPartitionedCall/model/blk1_stgx2__conv3/Conv2D_weights", "StatefulPartitionedCall/model/blk1_stgx2__conv3/Conv2D_bn_offset"], "device": "/device:CPU:0", "attr": {"explicit_paddings": {"list": {}}, "num_args": {"i": "1"}, "use_cudnn_on_gpu": {"b": true}, "T": {"type": "DT_FLOAT"}, "padding": {"s": "U0FNRQ=="}, "dilations": {"list": {"i": ["1", "1", "1", "1"]}}, "epsilon": {"f": 0.0}, "fused_ops": {"list": {"s": ["Qmlhc0FkZA==", "UmVsdQ=="]}}, "data_format": {"s": "TkhXQw=="}, "strides": {"list": {"i": ["1", "1", "1", "1"]}}}}, {"name": "StatefulPartitionedCall/model/activation_18/Relu", "op": "_FusedConv2D", "input": ["StatefulPartitionedCall/model/activation_14/Relu", "StatefulPartitionedCall/model/blk1_stg4__conv1/Conv2D_weights", "StatefulPartitionedCall/model/blk1_stg4__conv1/Conv2D_bn_offset"], "device": "/device:CPU:0", "attr": {"padding": {"s": "U0FNRQ=="}, "strides": {"list": {"i": ["1", "2", "2", "1"]}}, "epsilon": {"f": 0.0}, "data_format": {"s": "TkhXQw=="}, "num_args": {"i": "1"}, "dilations": {"list": {"i": ["1", "1", "1", "1"]}}, "fused_ops": {"list": {"s": ["Qmlhc0FkZA==", "UmVsdQ=="]}}, "use_cudnn_on_gpu": {"b": true}, "T": {"type": "DT_FLOAT"}, "explicit_paddings": {"list": {}}}}, {"name": "StatefulPartitionedCall/model/activation_15/Relu", "op": "_FusedConv2D", "input": ["StatefulPartitionedCall/model/activation_14/Relu", "StatefulPartitionedCall/model/blk1_stgx3__conv1/Conv2D_weights", "StatefulPartitionedCall/model/blk1_stgx3__conv1/Conv2D_bn_offset"], "device": "/device:CPU:0", "attr": {"num_args": {"i": "1"}, "epsilon": {"f": 0.0}, "padding": {"s": "U0FNRQ=="}, "fused_ops": {"list": {"s": ["Qmlhc0FkZA==", "UmVsdQ=="]}}, "T": {"type": "DT_FLOAT"}, "explicit_paddings": {"list": {}}, "dilations": {"list": {"i": ["1", "1", "1", "1"]}}, "data_format": {"s": "TkhXQw=="}, "strides": {"list": {"i": ["1", "1", "1", "1"]}}, "use_cudnn_on_gpu": {"b": true}}}, {"name": "StatefulPartitionedCall/model/activation_19/Relu", "op": "_FusedConv2D", "input": ["StatefulPartitionedCall/model/activation_18/Relu", "StatefulPartitionedCall/model/blk1_stg4__conv2/Conv2D_weights", "StatefulPartitionedCall/model/blk1_stg4__conv2/Conv2D_bn_offset"], "device": "/device:CPU:0", "attr": {"fused_ops": {"list": {"s": ["Qmlhc0FkZA==", "UmVsdQ=="]}}, "num_args": {"i": "1"}, "dilations": {"list": {"i": ["1", "1", "1", "1"]}}, "T": {"type": "DT_FLOAT"}, "epsilon": {"f": 0.0}, "padding": {"s": "U0FNRQ=="}, "strides": {"list": {"i": ["1", "1", "1", "1"]}}, "data_format": {"s": "TkhXQw=="}, "use_cudnn_on_gpu": {"b": true}, "explicit_paddings": {"list": {}}}}, {"name": "StatefulPartitionedCall/model/activation_16/Relu", "op": "_FusedConv2D", "input": ["StatefulPartitionedCall/model/activation_15/Relu", "StatefulPartitionedCall/model/blk1_stgx3__conv2/Conv2D_weights", "StatefulPartitionedCall/model/blk1_stgx3__conv2/Conv2D_bn_offset"], "device": "/device:CPU:0", "attr": {"T": {"type": "DT_FLOAT"}, "data_format": {"s": "TkhXQw=="}, "dilations": {"list": {"i": ["1", "1", "1", "1"]}}, "explicit_paddings": {"list": {}}, "use_cudnn_on_gpu": {"b": true}, "fused_ops": {"list": {"s": ["Qmlhc0FkZA==", "UmVsdQ=="]}}, "num_args": {"i": "1"}, "strides": {"list": {"i": ["1", "1", "1", "1"]}}, "epsilon": {"f": 0.0}, "padding": {"s": "U0FNRQ=="}}}, {"name": "StatefulPartitionedCall/model/activation_20/Relu", "op": "_FusedConv2D", "input": ["StatefulPartitionedCall/model/activation_19/Relu", "StatefulPartitionedCall/model/blk1_stg4__conv3/Conv2D_weights", "StatefulPartitionedCall/model/blk1_stg4__conv3/Conv2D_bn_offset"], "device": "/device:CPU:0", "attr": {"explicit_paddings": {"list": {}}, "epsilon": {"f": 0.0}, "num_args": {"i": "1"}, "use_cudnn_on_gpu": {"b": true}, "dilations": {"list": {"i": ["1", "1", "1", "1"]}}, "T": {"type": "DT_FLOAT"}, "strides": {"list": {"i": ["1", "1", "1", "1"]}}, "padding": {"s": "U0FNRQ=="}, "data_format": {"s": "TkhXQw=="}, "fused_ops": {"list": {"s": ["Qmlhc0FkZA==", "UmVsdQ=="]}}}}, {"name": "StatefulPartitionedCall/model/activation_17/Relu", "op": "_FusedConv2D", "input": ["StatefulPartitionedCall/model/activation_16/Relu", "StatefulPartitionedCall/model/blk1_stgx3__conv3/Conv2D_weights", "StatefulPartitionedCall/model/blk1_stgx3__conv3/Conv2D_bn_offset"], "device": "/device:CPU:0", "attr": {"epsilon": {"f": 0.0}, "num_args": {"i": "1"}, "fused_ops": {"list": {"s": ["Qmlhc0FkZA==", "UmVsdQ=="]}}, "T": {"type": "DT_FLOAT"}, "explicit_paddings": {"list": {}}, "strides": {"list": {"i": ["1", "1", "1", "1"]}}, "data_format": {"s": "TkhXQw=="}, "dilations": {"list": {"i": ["1", "1", "1", "1"]}}, "padding": {"s": "U0FNRQ=="}, "use_cudnn_on_gpu": {"b": true}}}, {"name": "StatefulPartitionedCall/model/activation_24/Relu", "op": "_FusedConv2D", "input": ["StatefulPartitionedCall/model/activation_20/Relu", "StatefulPartitionedCall/model/blk1_stg5__conv1/Conv2D_weights", "StatefulPartitionedCall/model/blk1_stg5__conv1/Conv2D_bn_offset"], "device": "/device:CPU:0", "attr": {"T": {"type": "DT_FLOAT"}, "strides": {"list": {"i": ["1", "2", "2", "1"]}}, "data_format": {"s": "TkhXQw=="}, "num_args": {"i": "1"}, "fused_ops": {"list": {"s": ["Qmlhc0FkZA==", "UmVsdQ=="]}}, "dilations": {"list": {"i": ["1", "1", "1", "1"]}}, "padding": {"s": "U0FNRQ=="}, "explicit_paddings": {"list": {}}, "use_cudnn_on_gpu": {"b": true}, "epsilon": {"f": 0.0}}}, {"name": "StatefulPartitionedCall/model/activation_21/Relu", "op": "_FusedConv2D", "input": ["StatefulPartitionedCall/model/activation_20/Relu", "StatefulPartitionedCall/model/blk1_stgx4__conv1/Conv2D_weights", "StatefulPartitionedCall/model/blk1_stgx4__conv1/Conv2D_bn_offset"], "device": "/device:CPU:0", "attr": {"epsilon": {"f": 0.0}, "dilations": {"list": {"i": ["1", "1", "1", "1"]}}, "padding": {"s": "U0FNRQ=="}, "use_cudnn_on_gpu": {"b": true}, "num_args": {"i": "1"}, "data_format": {"s": "TkhXQw=="}, "T": {"type": "DT_FLOAT"}, "explicit_paddings": {"list": {}}, "fused_ops": {"list": {"s": ["Qmlhc0FkZA==", "UmVsdQ=="]}}, "strides": {"list": {"i": ["1", "1", "1", "1"]}}}}, {"name": "StatefulPartitionedCall/model/activation_25/Relu", "op": "_FusedConv2D", "input": ["StatefulPartitionedCall/model/activation_24/Relu", "StatefulPartitionedCall/model/blk1_stg5__conv2/Conv2D_weights", "StatefulPartitionedCall/model/blk1_stg5__conv2/Conv2D_bn_offset"], "device": "/device:CPU:0", "attr": {"strides": {"list": {"i": ["1", "1", "1", "1"]}}, "explicit_paddings": {"list": {}}, "dilations": {"list": {"i": ["1", "1", "1", "1"]}}, "epsilon": {"f": 0.0}, "num_args": {"i": "1"}, "padding": {"s": "U0FNRQ=="}, "T": {"type": "DT_FLOAT"}, "use_cudnn_on_gpu": {"b": true}, "fused_ops": {"list": {"s": ["Qmlhc0FkZA==", "UmVsdQ=="]}}, "data_format": {"s": "TkhXQw=="}}}, {"name": "StatefulPartitionedCall/model/activation_22/Relu", "op": "_FusedConv2D", "input": ["StatefulPartitionedCall/model/activation_21/Relu", "StatefulPartitionedCall/model/blk1_stgx4__conv2/Conv2D_weights", "StatefulPartitionedCall/model/blk1_stgx4__conv2/Conv2D_bn_offset"], "device": "/device:CPU:0", "attr": {"padding": {"s": "U0FNRQ=="}, "dilations": {"list": {"i": ["1", "1", "1", "1"]}}, "data_format": {"s": "TkhXQw=="}, "explicit_paddings": {"list": {}}, "epsilon": {"f": 0.0}, "T": {"type": "DT_FLOAT"}, "fused_ops": {"list": {"s": ["Qmlhc0FkZA==", "UmVsdQ=="]}}, "use_cudnn_on_gpu": {"b": true}, "num_args": {"i": "1"}, "strides": {"list": {"i": ["1", "1", "1", "1"]}}}}, {"name": "StatefulPartitionedCall/model/activation_26/Relu", "op": "_FusedConv2D", "input": ["StatefulPartitionedCall/model/activation_25/Relu", "StatefulPartitionedCall/model/blk1_stg5__conv3/Conv2D_weights", "StatefulPartitionedCall/model/blk1_stg5__conv3/Conv2D_bn_offset"], "device": "/device:CPU:0", "attr": {"T": {"type": "DT_FLOAT"}, "fused_ops": {"list": {"s": ["Qmlhc0FkZA==", "UmVsdQ=="]}}, "strides": {"list": {"i": ["1", "1", "1", "1"]}}, "use_cudnn_on_gpu": {"b": true}, "epsilon": {"f": 0.0}, "explicit_paddings": {"list": {}}, "num_args": {"i": "1"}, "dilations": {"list": {"i": ["1", "1", "1", "1"]}}, "padding": {"s": "U0FNRQ=="}, "data_format": {"s": "TkhXQw=="}}}, {"name": "StatefulPartitionedCall/model/activation_23/Relu", "op": "_FusedConv2D", "input": ["StatefulPartitionedCall/model/activation_22/Relu", "StatefulPartitionedCall/model/blk1_stgx4__conv3/Conv2D_weights", "StatefulPartitionedCall/model/blk1_stgx4__conv3/Conv2D_bn_offset"], "device": "/device:CPU:0", "attr": {"padding": {"s": "U0FNRQ=="}, "dilations": {"list": {"i": ["1", "1", "1", "1"]}}, "explicit_paddings": {"list": {}}, "use_cudnn_on_gpu": {"b": true}, "data_format": {"s": "TkhXQw=="}, "strides": {"list": {"i": ["1", "1", "1", "1"]}}, "num_args": {"i": "1"}, "fused_ops": {"list": {"s": ["Qmlhc0FkZA==", "UmVsdQ=="]}}, "T": {"type": "DT_FLOAT"}, "epsilon": {"f": 0.0}}}, {"name": "StatefulPartitionedCall/model/up_sampling2d/Shape", "op": "Shape", "input": ["StatefulPartitionedCall/model/activation_26/Relu"], "attr": {"out_type": {"type": "DT_INT32"}, "T": {"type": "DT_FLOAT"}}}, {"name": "StatefulPartitionedCall/model/up_sampling2d/strided_slice", "op": "StridedSlice", "input": ["StatefulPartitionedCall/model/up_sampling2d/Shape", "StatefulPartitionedCall/model/up_sampling2d/strided_slice/stack", "StatefulPartitionedCall/model/up_sampling2d/strided_slice/stack_1", "StatefulPartitionedCall/model/up_sampling2d/strided_slice/stack_2"], "attr": {"Index": {"type": "DT_INT32"}, "shrink_axis_mask": {"i": "0"}, "T": {"type": "DT_INT32"}, "begin_mask": {"i": "0"}, "end_mask": {"i": "0"}, "new_axis_mask": {"i": "0"}, "ellipsis_mask": {"i": "0"}}}, {"name": "StatefulPartitionedCall/model/up_sampling2d/mul", "op": "Mul", "input": ["StatefulPartitionedCall/model/up_sampling2d/strided_slice", "StatefulPartitionedCall/model/up_sampling2d/Const"], "attr": {"T": {"type": "DT_INT32"}}}, {"name": "StatefulPartitionedCall/model/up_sampling2d/resize/ResizeNearestNeighbor", "op": "ResizeNearestNeighbor", "input": ["StatefulPartitionedCall/model/activation_26/Relu", "StatefulPartitionedCall/model/up_sampling2d/mul"], "attr": {"align_corners": {"b": false}, "T": {"type": "DT_FLOAT"}, "half_pixel_centers": {"b": true}}}, {"name": "StatefulPartitionedCall/model/add/add", "op": "AddV2", "input": ["StatefulPartitionedCall/model/up_sampling2d/resize/ResizeNearestNeighbor", "StatefulPartitionedCall/model/activation_23/Relu"], "attr": {"T": {"type": "DT_FLOAT"}}}, {"name": "StatefulPartitionedCall/model/activation_27/Relu", "op": "_FusedConv2D", "input": ["StatefulPartitionedCall/model/add/add", "StatefulPartitionedCall/model/blk1_stgup4_conv/Conv2D_weights", "StatefulPartitionedCall/model/blk1_stgup4_conv/Conv2D_bn_offset"], "device": "/device:CPU:0", "attr": {"num_args": {"i": "1"}, "epsilon": {"f": 0.0}, "use_cudnn_on_gpu": {"b": true}, "padding": {"s": "U0FNRQ=="}, "T": {"type": "DT_FLOAT"}, "fused_ops": {"list": {"s": ["Qmlhc0FkZA==", "UmVsdQ=="]}}, "data_format": {"s": "TkhXQw=="}, "dilations": {"list": {"i": ["1", "1", "1", "1"]}}, "strides": {"list": {"i": ["1", "1", "1", "1"]}}, "explicit_paddings": {"list": {}}}}, {"name": "StatefulPartitionedCall/model/up_sampling2d_1/Shape", "op": "Shape", "input": ["StatefulPartitionedCall/model/activation_27/Relu"], "attr": {"out_type": {"type": "DT_INT32"}, "T": {"type": "DT_FLOAT"}}}, {"name": "StatefulPartitionedCall/model/up_sampling2d_1/strided_slice", "op": "StridedSlice", "input": ["StatefulPartitionedCall/model/up_sampling2d_1/Shape", "StatefulPartitionedCall/model/up_sampling2d_1/strided_slice/stack", "StatefulPartitionedCall/model/up_sampling2d_1/strided_slice/stack_1", "StatefulPartitionedCall/model/up_sampling2d_1/strided_slice/stack_2"], "attr": {"begin_mask": {"i": "0"}, "Index": {"type": "DT_INT32"}, "end_mask": {"i": "0"}, "ellipsis_mask": {"i": "0"}, "shrink_axis_mask": {"i": "0"}, "new_axis_mask": {"i": "0"}, "T": {"type": "DT_INT32"}}}, {"name": "StatefulPartitionedCall/model/up_sampling2d_1/mul", "op": "Mul", "input": ["StatefulPartitionedCall/model/up_sampling2d_1/strided_slice", "StatefulPartitionedCall/model/up_sampling2d_1/Const"], "attr": {"T": {"type": "DT_INT32"}}}, {"name": "StatefulPartitionedCall/model/up_sampling2d_1/resize/ResizeNearestNeighbor", "op": "ResizeNearestNeighbor", "input": ["StatefulPartitionedCall/model/activation_27/Relu", "StatefulPartitionedCall/model/up_sampling2d_1/mul"], "attr": {"T": {"type": "DT_FLOAT"}, "half_pixel_centers": {"b": true}, "align_corners": {"b": false}}}, {"name": "StatefulPartitionedCall/model/add_1/add", "op": "AddV2", "input": ["StatefulPartitionedCall/model/up_sampling2d_1/resize/ResizeNearestNeighbor", "StatefulPartitionedCall/model/activation_17/Relu"], "attr": {"T": {"type": "DT_FLOAT"}}}, {"name": "StatefulPartitionedCall/model/activation_28/Relu", "op": "_FusedConv2D", "input": ["StatefulPartitionedCall/model/add_1/add", "StatefulPartitionedCall/model/blk1_stgup3_conv/Conv2D_weights", "StatefulPartitionedCall/model/blk1_stgup3_conv/Conv2D_bn_offset"], "device": "/device:CPU:0", "attr": {"data_format": {"s": "TkhXQw=="}, "padding": {"s": "U0FNRQ=="}, "use_cudnn_on_gpu": {"b": true}, "dilations": {"list": {"i": ["1", "1", "1", "1"]}}, "strides": {"list": {"i": ["1", "1", "1", "1"]}}, "explicit_paddings": {"list": {}}, "fused_ops": {"list": {"s": ["Qmlhc0FkZA==", "UmVsdQ=="]}}, "T": {"type": "DT_FLOAT"}, "num_args": {"i": "1"}, "epsilon": {"f": 0.0}}}, {"name": "StatefulPartitionedCall/model/up_sampling2d_2/Shape", "op": "Shape", "input": ["StatefulPartitionedCall/model/activation_28/Relu"], "attr": {"out_type": {"type": "DT_INT32"}, "T": {"type": "DT_FLOAT"}}}, {"name": "StatefulPartitionedCall/model/up_sampling2d_2/strided_slice", "op": "StridedSlice", "input": ["StatefulPartitionedCall/model/up_sampling2d_2/Shape", "StatefulPartitionedCall/model/up_sampling2d_2/strided_slice/stack", "StatefulPartitionedCall/model/up_sampling2d_2/strided_slice/stack_1", "StatefulPartitionedCall/model/up_sampling2d_2/strided_slice/stack_2"], "attr": {"shrink_axis_mask": {"i": "0"}, "ellipsis_mask": {"i": "0"}, "T": {"type": "DT_INT32"}, "begin_mask": {"i": "0"}, "new_axis_mask": {"i": "0"}, "Index": {"type": "DT_INT32"}, "end_mask": {"i": "0"}}}, {"name": "StatefulPartitionedCall/model/up_sampling2d_2/mul", "op": "Mul", "input": ["StatefulPartitionedCall/model/up_sampling2d_2/strided_slice", "StatefulPartitionedCall/model/up_sampling2d_2/Const"], "attr": {"T": {"type": "DT_INT32"}}}, {"name": "StatefulPartitionedCall/model/up_sampling2d_2/resize/ResizeNearestNeighbor", "op": "ResizeNearestNeighbor", "input": ["StatefulPartitionedCall/model/activation_28/Relu", "StatefulPartitionedCall/model/up_sampling2d_2/mul"], "attr": {"T": {"type": "DT_FLOAT"}, "align_corners": {"b": false}, "half_pixel_centers": {"b": true}}}, {"name": "StatefulPartitionedCall/model/add_2/add", "op": "AddV2", "input": ["StatefulPartitionedCall/model/up_sampling2d_2/resize/ResizeNearestNeighbor", "StatefulPartitionedCall/model/activation_11/Relu"], "attr": {"T": {"type": "DT_FLOAT"}}}, {"name": "StatefulPartitionedCall/model/activation_29/Relu", "op": "_FusedConv2D", "input": ["StatefulPartitionedCall/model/add_2/add", "StatefulPartitionedCall/model/blk1_stgup2_conv/Conv2D_weights", "StatefulPartitionedCall/model/blk1_stgup2_conv/Conv2D_bn_offset"], "device": "/device:CPU:0", "attr": {"fused_ops": {"list": {"s": ["Qmlhc0FkZA==", "UmVsdQ=="]}}, "strides": {"list": {"i": ["1", "1", "1", "1"]}}, "T": {"type": "DT_FLOAT"}, "explicit_paddings": {"list": {}}, "dilations": {"list": {"i": ["1", "1", "1", "1"]}}, "data_format": {"s": "TkhXQw=="}, "num_args": {"i": "1"}, "padding": {"s": "U0FNRQ=="}, "use_cudnn_on_gpu": {"b": true}, "epsilon": {"f": 0.0}}}, {"name": "StatefulPartitionedCall/model/up_sampling2d_3/Shape", "op": "Shape", "input": ["StatefulPartitionedCall/model/activation_29/Relu"], "attr": {"out_type": {"type": "DT_INT32"}, "T": {"type": "DT_FLOAT"}}}, {"name": "StatefulPartitionedCall/model/up_sampling2d_3/strided_slice", "op": "StridedSlice", "input": ["StatefulPartitionedCall/model/up_sampling2d_3/Shape", "StatefulPartitionedCall/model/up_sampling2d_3/strided_slice/stack", "StatefulPartitionedCall/model/up_sampling2d_3/strided_slice/stack_1", "StatefulPartitionedCall/model/up_sampling2d_3/strided_slice/stack_2"], "attr": {"end_mask": {"i": "0"}, "ellipsis_mask": {"i": "0"}, "begin_mask": {"i": "0"}, "T": {"type": "DT_INT32"}, "new_axis_mask": {"i": "0"}, "shrink_axis_mask": {"i": "0"}, "Index": {"type": "DT_INT32"}}}, {"name": "StatefulPartitionedCall/model/up_sampling2d_3/mul", "op": "Mul", "input": ["StatefulPartitionedCall/model/up_sampling2d_3/strided_slice", "StatefulPartitionedCall/model/up_sampling2d_3/Const"], "attr": {"T": {"type": "DT_INT32"}}}, {"name": "StatefulPartitionedCall/model/up_sampling2d_3/resize/ResizeNearestNeighbor", "op": "ResizeNearestNeighbor", "input": ["StatefulPartitionedCall/model/activation_29/Relu", "StatefulPartitionedCall/model/up_sampling2d_3/mul"], "attr": {"T": {"type": "DT_FLOAT"}, "align_corners": {"b": false}, "half_pixel_centers": {"b": true}}}, {"name": "StatefulPartitionedCall/model/add_3/add", "op": "AddV2", "input": ["StatefulPartitionedCall/model/up_sampling2d_3/resize/ResizeNearestNeighbor", "StatefulPartitionedCall/model/activation_5/Relu"], "attr": {"T": {"type": "DT_FLOAT"}}}, {"name": "StatefulPartitionedCall/model/activation_30/Relu", "op": "_FusedConv2D", "input": ["StatefulPartitionedCall/model/add_3/add", "StatefulPartitionedCall/model/blk1_stgup1_conv1/Conv2D_weights", "StatefulPartitionedCall/model/blk1_stgup1_conv1/Conv2D_bn_offset"], "device": "/device:CPU:0", "attr": {"strides": {"list": {"i": ["1", "1", "1", "1"]}}, "use_cudnn_on_gpu": {"b": true}, "explicit_paddings": {"list": {}}, "dilations": {"list": {"i": ["1", "1", "1", "1"]}}, "padding": {"s": "U0FNRQ=="}, "num_args": {"i": "1"}, "fused_ops": {"list": {"s": ["Qmlhc0FkZA==", "UmVsdQ=="]}}, "T": {"type": "DT_FLOAT"}, "data_format": {"s": "TkhXQw=="}, "epsilon": {"f": 0.0}}}, {"name": "StatefulPartitionedCall/model/activation_31/Relu", "op": "_FusedConv2D", "input": ["StatefulPartitionedCall/model/activation_30/Relu", "StatefulPartitionedCall/model/blk1_stgup1_conv2/Conv2D_weights", "StatefulPartitionedCall/model/blk1_stgup1_conv2/Conv2D_bn_offset"], "device": "/device:CPU:0", "attr": {"padding": {"s": "U0FNRQ=="}, "T": {"type": "DT_FLOAT"}, "use_cudnn_on_gpu": {"b": true}, "num_args": {"i": "1"}, "data_format": {"s": "TkhXQw=="}, "fused_ops": {"list": {"s": ["Qmlhc0FkZA==", "UmVsdQ=="]}}, "epsilon": {"f": 0.0}, "dilations": {"list": {"i": ["1", "1", "1", "1"]}}, "explicit_paddings": {"list": {}}, "strides": {"list": {"i": ["1", "1", "1", "1"]}}}}, {"name": "StatefulPartitionedCall/model/conv2/Relu", "op": "_FusedConv2D", "input": ["StatefulPartitionedCall/model/activation_31/Relu", "StatefulPartitionedCall/model/conv2/Conv2D/ReadVariableOp", "StatefulPartitionedCall/model/conv2/BiasAdd/ReadVariableOp"], "device": "/device:CPU:0", "attr": {"use_cudnn_on_gpu": {"b": true}, "num_args": {"i": "1"}, "explicit_paddings": {"list": {}}, "strides": {"list": {"i": ["1", "1", "1", "1"]}}, "data_format": {"s": "TkhXQw=="}, "fused_ops": {"list": {"s": ["Qmlhc0FkZA==", "UmVsdQ=="]}}, "T": {"type": "DT_FLOAT"}, "dilations": {"list": {"i": ["1", "1", "1", "1"]}}, "padding": {"s": "U0FNRQ=="}, "epsilon": {"f": 0.0}}}, {"name": "StatefulPartitionedCall/model/conv2_bn/FusedBatchNormV3/Mul", "op": "Mul", "input": ["StatefulPartitionedCall/model/conv2/Relu", "StatefulPartitionedCall/model/conv2_bn/FusedBatchNormV3/Scaled"], "attr": {"T": {"type": "DT_FLOAT"}}}, {"name": "StatefulPartitionedCall/model/conv2_bn/FusedBatchNormV3", "op": "Add", "input": ["StatefulPartitionedCall/model/conv2_bn/FusedBatchNormV3/Mul", "StatefulPartitionedCall/model/conv2_bn/FusedBatchNormV3/Offset"], "attr": {"T": {"type": "DT_FLOAT"}}}, {"name": "StatefulPartitionedCall/model/activation_32/Relu", "op": "Relu", "input": ["StatefulPartitionedCall/model/conv2_bn/FusedBatchNormV3"], "attr": {"T": {"type": "DT_FLOAT"}}}, {"name": "StatefulPartitionedCall/model/tf_op_layer_Sub/Sub", "op": "Sub", "input": ["StatefulPartitionedCall/model/activation_32/Relu", "StatefulPartitionedCall/model/tf_op_layer_RealDiv/RealDiv"], "attr": {"_cloned": {"b": true}, "T": {"type": "DT_FLOAT"}}}, {"name": "StatefulPartitionedCall/model/tf_op_layer_strided_slice/strided_slice", "op": "StridedSlice", "input": ["StatefulPartitionedCall/model/tf_op_layer_Sub/Sub", "StatefulPartitionedCall/model/tf_op_layer_strided_slice/strided_slice/begin", "StatefulPartitionedCall/model/tf_op_layer_strided_slice/strided_slice/end", "StatefulPartitionedCall/model/tf_op_layer_strided_slice/strided_slice/strides"], "attr": {"Index": {"type": "DT_INT32"}, "T": {"type": "DT_FLOAT"}, "new_axis_mask": {"i": "0"}, "ellipsis_mask": {"i": "0"}, "shrink_axis_mask": {"i": "1"}, "end_mask": {"i": "0"}, "_cloned": {"b": true}, "begin_mask": {"i": "0"}}}, {"name": "StatefulPartitionedCall/model/tf_op_layer_Greater/Greater", "op": "Greater", "input": ["StatefulPartitionedCall/model/tf_op_layer_strided_slice/strided_slice", "StatefulPartitionedCall/model/tf_op_layer_Greater/Greater/y"], "attr": {"T": {"type": "DT_FLOAT"}, "_cloned": {"b": true}}}, {"name": "StatefulPartitionedCall/model/tf_op_layer_Mul/Mul", "op": "Mul", "input": ["StatefulPartitionedCall/model/tf_op_layer_strided_slice/strided_slice", "StatefulPartitionedCall/model/tf_op_layer_Mul/Mul/y"], "attr": {"T": {"type": "DT_FLOAT"}, "_cloned": {"b": true}}}, {"name": "StatefulPartitionedCall/model/tf_op_layer_SelectV2/SelectV2", "op": "SelectV2", "input": ["StatefulPartitionedCall/model/tf_op_layer_Greater/Greater", "StatefulPartitionedCall/model/tf_op_layer_strided_slice/strided_slice", "StatefulPartitionedCall/model/tf_op_layer_Mul/Mul"], "attr": {"_cloned": {"b": true}, "T": {"type": "DT_FLOAT"}}}, {"name": "StatefulPartitionedCall/model/tf_op_layer_Transpose/Transpose", "op": "Transpose", "input": ["StatefulPartitionedCall/model/tf_op_layer_SelectV2/SelectV2", "StatefulPartitionedCall/model/tf_op_layer_Transpose/Transpose/perm"], "attr": {"T": {"type": "DT_FLOAT"}, "_cloned": {"b": true}, "Tperm": {"type": "DT_INT32"}}}, {"name": "StatefulPartitionedCall/model/tf_op_layer_strided_slice_1/strided_slice_1", "op": "StridedSlice", "input": ["StatefulPartitionedCall/model/tf_op_layer_Transpose/Transpose", "StatefulPartitionedCall/model/tf_op_layer_strided_slice_1/strided_slice_1/begin", "StatefulPartitionedCall/model/tf_op_layer_strided_slice_1/strided_slice_1/end", "StatefulPartitionedCall/model/tf_op_layer_strided_slice_1/strided_slice_1/strides"], "attr": {"begin_mask": {"i": "0"}, "T": {"type": "DT_FLOAT"}, "shrink_axis_mask": {"i": "1"}, "Index": {"type": "DT_INT32"}, "_cloned": {"b": true}, "end_mask": {"i": "0"}, "new_axis_mask": {"i": "0"}, "ellipsis_mask": {"i": "0"}}}, {"name": "StatefulPartitionedCall/model/tf_op_layer_strided_slice_2/strided_slice_2", "op": "StridedSlice", "input": ["StatefulPartitionedCall/model/tf_op_layer_Transpose/Transpose", "StatefulPartitionedCall/model/tf_op_layer_strided_slice_2/strided_slice_2/begin", "StatefulPartitionedCall/model/tf_op_layer_strided_slice_2/strided_slice_2/end", "StatefulPartitionedCall/model/tf_op_layer_strided_slice_2/strided_slice_2/strides"], "attr": {"end_mask": {"i": "0"}, "Index": {"type": "DT_INT32"}, "_cloned": {"b": true}, "shrink_axis_mask": {"i": "1"}, "T": {"type": "DT_FLOAT"}, "new_axis_mask": {"i": "0"}, "ellipsis_mask": {"i": "0"}, "begin_mask": {"i": "0"}}}, {"name": "StatefulPartitionedCall/model/tf_op_layer_strided_slice_3/strided_slice_3", "op": "StridedSlice", "input": ["StatefulPartitionedCall/model/tf_op_layer_Transpose/Transpose", "StatefulPartitionedCall/model/tf_op_layer_strided_slice_3/strided_slice_3/begin", "StatefulPartitionedCall/model/tf_op_layer_strided_slice_3/strided_slice_3/end", "StatefulPartitionedCall/model/tf_op_layer_strided_slice_3/strided_slice_3/strides"], "attr": {"ellipsis_mask": {"i": "0"}, "Index": {"type": "DT_INT32"}, "begin_mask": {"i": "0"}, "shrink_axis_mask": {"i": "1"}, "new_axis_mask": {"i": "0"}, "end_mask": {"i": "0"}, "T": {"type": "DT_FLOAT"}, "_cloned": {"b": true}}}, {"name": "StatefulPartitionedCall/model/tf_op_layer_strided_slice_4/strided_slice_4", "op": "StridedSlice", "input": ["StatefulPartitionedCall/model/tf_op_layer_Transpose/Transpose", "StatefulPartitionedCall/model/tf_op_layer_strided_slice_4/strided_slice_4/begin", "StatefulPartitionedCall/model/tf_op_layer_strided_slice_4/strided_slice_4/end", "StatefulPartitionedCall/model/tf_op_layer_strided_slice_4/strided_slice_4/strides"], "attr": {"Index": {"type": "DT_INT32"}, "shrink_axis_mask": {"i": "1"}, "_cloned": {"b": true}, "end_mask": {"i": "0"}, "new_axis_mask": {"i": "0"}, "ellipsis_mask": {"i": "0"}, "T": {"type": "DT_FLOAT"}, "begin_mask": {"i": "0"}}}, {"name": "StatefulPartitionedCall/model/tf_op_layer_strided_slice_5/strided_slice_5", "op": "StridedSlice", "input": ["StatefulPartitionedCall/model/tf_op_layer_Transpose/Transpose", "StatefulPartitionedCall/model/tf_op_layer_strided_slice_5/strided_slice_5/begin", "StatefulPartitionedCall/model/tf_op_layer_strided_slice_5/strided_slice_5/end", "StatefulPartitionedCall/model/tf_op_layer_strided_slice_5/strided_slice_5/strides"], "attr": {"begin_mask": {"i": "0"}, "Index": {"type": "DT_INT32"}, "ellipsis_mask": {"i": "0"}, "shrink_axis_mask": {"i": "1"}, "end_mask": {"i": "0"}, "new_axis_mask": {"i": "0"}, "_cloned": {"b": true}, "T": {"type": "DT_FLOAT"}}}, {"name": "StatefulPartitionedCall/model/tf_op_layer_Reshape/Reshape", "op": "Reshape", "input": ["StatefulPartitionedCall/model/tf_op_layer_strided_slice_1/strided_slice_1", "StatefulPartitionedCall/model/tf_op_layer_Reshape/Reshape/shape"], "attr": {"_cloned": {"b": true}, "T": {"type": "DT_FLOAT"}, "Tshape": {"type": "DT_INT32"}}}, {"name": "StatefulPartitionedCall/model/tf_op_layer_Reshape_1/Reshape_1", "op": "Reshape", "input": ["StatefulPartitionedCall/model/tf_op_layer_strided_slice_2/strided_slice_2", "StatefulPartitionedCall/model/tf_op_layer_Reshape_1/Reshape_1/shape"], "attr": {"_cloned": {"b": true}, "Tshape": {"type": "DT_INT32"}, "T": {"type": "DT_FLOAT"}}}, {"name": "StatefulPartitionedCall/model/tf_op_layer_Reshape_2/Reshape_2", "op": "Reshape", "input": ["StatefulPartitionedCall/model/tf_op_layer_strided_slice_3/strided_slice_3", "StatefulPartitionedCall/model/tf_op_layer_Reshape_2/Reshape_2/shape"], "attr": {"_cloned": {"b": true}, "T": {"type": "DT_FLOAT"}, "Tshape": {"type": "DT_INT32"}}}, {"name": "StatefulPartitionedCall/model/tf_op_layer_Reshape_3/Reshape_3", "op": "Reshape", "input": ["StatefulPartitionedCall/model/tf_op_layer_strided_slice_4/strided_slice_4", "StatefulPartitionedCall/model/tf_op_layer_Reshape_3/Reshape_3/shape"], "attr": {"T": {"type": "DT_FLOAT"}, "Tshape": {"type": "DT_INT32"}, "_cloned": {"b": true}}}, {"name": "StatefulPartitionedCall/model/tf_op_layer_Reshape_4/Reshape_4", "op": "Reshape", "input": ["StatefulPartitionedCall/model/tf_op_layer_strided_slice_5/strided_slice_5", "StatefulPartitionedCall/model/tf_op_layer_Reshape_4/Reshape_4/shape"], "attr": {"T": {"type": "DT_FLOAT"}, "_cloned": {"b": true}, "Tshape": {"type": "DT_INT32"}}}, {"name": "StatefulPartitionedCall/model/tf_op_layer_ArgMax/ArgMax", "op": "ArgMax", "input": ["StatefulPartitionedCall/model/tf_op_layer_Reshape/Reshape", "StatefulPartitionedCall/model/tf_op_layer_ArgMax/ArgMax/dimension"], "attr": {"Tidx": {"type": "DT_INT32"}, "output_type": {"type": "DT_INT64"}, "_cloned": {"b": true}, "T": {"type": "DT_FLOAT"}}}, {"name": "StatefulPartitionedCall/model/tf_op_layer_ArgMax_1/ArgMax_1", "op": "ArgMax", "input": ["StatefulPartitionedCall/model/tf_op_layer_Reshape_1/Reshape_1", "StatefulPartitionedCall/model/tf_op_layer_ArgMax_1/ArgMax_1/dimension"], "attr": {"T": {"type": "DT_FLOAT"}, "output_type": {"type": "DT_INT64"}, "_cloned": {"b": true}, "Tidx": {"type": "DT_INT32"}}}, {"name": "StatefulPartitionedCall/model/tf_op_layer_ArgMax_2/ArgMax_2", "op": "ArgMax", "input": ["StatefulPartitionedCall/model/tf_op_layer_Reshape_2/Reshape_2", "StatefulPartitionedCall/model/tf_op_layer_ArgMax_2/ArgMax_2/dimension"], "attr": {"Tidx": {"type": "DT_INT32"}, "T": {"type": "DT_FLOAT"}, "_cloned": {"b": true}, "output_type": {"type": "DT_INT64"}}}, {"name": "StatefulPartitionedCall/model/tf_op_layer_ArgMax_3/ArgMax_3", "op": "ArgMax", "input": ["StatefulPartitionedCall/model/tf_op_layer_Reshape_3/Reshape_3", "StatefulPartitionedCall/model/tf_op_layer_ArgMax_3/ArgMax_3/dimension"], "attr": {"T": {"type": "DT_FLOAT"}, "Tidx": {"type": "DT_INT32"}, "output_type": {"type": "DT_INT64"}, "_cloned": {"b": true}}}, {"name": "StatefulPartitionedCall/model/tf_op_layer_ArgMax_4/ArgMax_4", "op": "ArgMax", "input": ["StatefulPartitionedCall/model/tf_op_layer_Reshape_4/Reshape_4", "StatefulPartitionedCall/model/tf_op_layer_ArgMax_4/ArgMax_4/dimension"], "attr": {"_cloned": {"b": true}, "Tidx": {"type": "DT_INT32"}, "T": {"type": "DT_FLOAT"}, "output_type": {"type": "DT_INT64"}}}, {"name": "Identity", "op": "Identity", "input": ["StatefulPartitionedCall/model/tf_op_layer_ArgMax/ArgMax"], "attr": {"T": {"type": "DT_INT64"}}}, {"name": "Identity_1", "op": "Identity", "input": ["StatefulPartitionedCall/model/tf_op_layer_ArgMax_1/ArgMax_1"], "attr": {"T": {"type": "DT_INT64"}}}, {"name": "Identity_2", "op": "Identity", "input": ["StatefulPartitionedCall/model/tf_op_layer_ArgMax_2/ArgMax_2"], "attr": {"T": {"type": "DT_INT64"}}}, {"name": "Identity_3", "op": "Identity", "input": ["StatefulPartitionedCall/model/tf_op_layer_ArgMax_3/ArgMax_3"], "attr": {"T": {"type": "DT_INT64"}}}, {"name": "Identity_4", "op": "Identity", "input": ["StatefulPartitionedCall/model/tf_op_layer_ArgMax_4/ArgMax_4"], "attr": {"T": {"type": "DT_INT64"}}}], "library": {}, "versions": {"producer": 440}}, "weightsManifest": [{"paths": ["group1-shard1of1.bin"], "weights": [{"name": "StatefulPartitionedCall/model/tf_op_layer_strided_slice_1/strided_slice_1/begin", "shape": [1], "dtype": "int32"}, {"name": "StatefulPartitionedCall/model/tf_op_layer_strided_slice_1/strided_slice_1/end", "shape": [1], "dtype": "int32"}, {"name": "StatefulPartitionedCall/model/tf_op_layer_strided_slice_1/strided_slice_1/strides", "shape": [1], "dtype": "int32"}, {"name": "StatefulPartitionedCall/model/tf_op_layer_Reshape/Reshape/shape", "shape": [1], "dtype": "int32"}, {"name": "StatefulPartitionedCall/model/tf_op_layer_ArgMax/ArgMax/dimension", "shape": [], "dtype": "int32"}, {"name": "StatefulPartitionedCall/model/tf_op_layer_strided_slice_2/strided_slice_2/begin", "shape": [1], "dtype": "int32"}, {"name": "StatefulPartitionedCall/model/tf_op_layer_strided_slice_2/strided_slice_2/end", "shape": [1], "dtype": "int32"}, {"name": "StatefulPartitionedCall/model/tf_op_layer_strided_slice_2/strided_slice_2/strides", "shape": [1], "dtype": "int32"}, {"name": "StatefulPartitionedCall/model/tf_op_layer_Reshape_1/Reshape_1/shape", "shape": [1], "dtype": "int32"}, {"name": "StatefulPartitionedCall/model/tf_op_layer_ArgMax_1/ArgMax_1/dimension", "shape": [], "dtype": "int32"}, {"name": "StatefulPartitionedCall/model/tf_op_layer_strided_slice_3/strided_slice_3/begin", "shape": [1], "dtype": "int32"}, {"name": "StatefulPartitionedCall/model/tf_op_layer_strided_slice_3/strided_slice_3/end", "shape": [1], "dtype": "int32"}, {"name": "StatefulPartitionedCall/model/tf_op_layer_strided_slice_3/strided_slice_3/strides", "shape": [1], "dtype": "int32"}, {"name": "StatefulPartitionedCall/model/tf_op_layer_Reshape_2/Reshape_2/shape", "shape": [1], "dtype": "int32"}, {"name": "StatefulPartitionedCall/model/tf_op_layer_ArgMax_2/ArgMax_2/dimension", "shape": [], "dtype": "int32"}, {"name": "StatefulPartitionedCall/model/tf_op_layer_strided_slice_4/strided_slice_4/begin", "shape": [1], "dtype": "int32"}, {"name": "StatefulPartitionedCall/model/tf_op_layer_strided_slice_4/strided_slice_4/end", "shape": [1], "dtype": "int32"}, {"name": "StatefulPartitionedCall/model/tf_op_layer_strided_slice_4/strided_slice_4/strides", "shape": [1], "dtype": "int32"}, {"name": "StatefulPartitionedCall/model/tf_op_layer_Reshape_3/Reshape_3/shape", "shape": [1], "dtype": "int32"}, {"name": "StatefulPartitionedCall/model/tf_op_layer_ArgMax_3/ArgMax_3/dimension", "shape": [], "dtype": "int32"}, {"name": "StatefulPartitionedCall/model/tf_op_layer_Greater/Greater/y", "shape": [], "dtype": "float32"}, {"name": "StatefulPartitionedCall/model/up_sampling2d/strided_slice/stack", "shape": [1], "dtype": "int32"}, {"name": "StatefulPartitionedCall/model/up_sampling2d/strided_slice/stack_1", "shape": [1], "dtype": "int32"}, {"name": "StatefulPartitionedCall/model/up_sampling2d/strided_slice/stack_2", "shape": [1], "dtype": "int32"}, {"name": "StatefulPartitionedCall/model/up_sampling2d/Const", "shape": [2], "dtype": "int32"}, {"name": "StatefulPartitionedCall/model/up_sampling2d_1/strided_slice/stack", "shape": [1], "dtype": "int32"}, {"name": "StatefulPartitionedCall/model/up_sampling2d_1/strided_slice/stack_1", "shape": [1], "dtype": "int32"}, {"name": "StatefulPartitionedCall/model/up_sampling2d_1/strided_slice/stack_2", "shape": [1], "dtype": "int32"}, {"name": "StatefulPartitionedCall/model/up_sampling2d_1/Const", "shape": [2], "dtype": "int32"}, {"name": "StatefulPartitionedCall/model/up_sampling2d_2/strided_slice/stack", "shape": [1], "dtype": "int32"}, {"name": "StatefulPartitionedCall/model/up_sampling2d_2/strided_slice/stack_1", "shape": [1], "dtype": "int32"}, {"name": "StatefulPartitionedCall/model/up_sampling2d_2/strided_slice/stack_2", "shape": [1], "dtype": "int32"}, {"name": "StatefulPartitionedCall/model/up_sampling2d_2/Const", "shape": [2], "dtype": "int32"}, {"name": "StatefulPartitionedCall/model/up_sampling2d_3/strided_slice/stack", "shape": [1], "dtype": "int32"}, {"name": "StatefulPartitionedCall/model/up_sampling2d_3/strided_slice/stack_1", "shape": [1], "dtype": "int32"}, {"name": "StatefulPartitionedCall/model/up_sampling2d_3/strided_slice/stack_2", "shape": [1], "dtype": "int32"}, {"name": "StatefulPartitionedCall/model/up_sampling2d_3/Const", "shape": [2], "dtype": "int32"}, {"name": "StatefulPartitionedCall/model/conv2/Conv2D/ReadVariableOp", "shape": [3, 3, 16, 5], "dtype": "float32"}, {"name": "StatefulPartitionedCall/model/conv2/BiasAdd/ReadVariableOp", "shape": [5], "dtype": "float32"}, {"name": "ConstantFolding/StatefulPartitionedCall/model/tf_op_layer_RealDiv/RealDiv_recip", "shape": [], "dtype": "float32"}, {"name": "StatefulPartitionedCall/model/tf_op_layer_strided_slice/strided_slice/begin", "shape": [1], "dtype": "int32"}, {"name": "StatefulPartitionedCall/model/tf_op_layer_strided_slice/strided_slice/end", "shape": [1], "dtype": "int32"}, {"name": "StatefulPartitionedCall/model/tf_op_layer_strided_slice/strided_slice/strides", "shape": [1], "dtype": "int32"}, {"name": "StatefulPartitionedCall/model/tf_op_layer_Mul/Mul/y", "shape": [], "dtype": "float32"}, {"name": "StatefulPartitionedCall/model/tf_op_layer_Transpose/Transpose/perm", "shape": [3], "dtype": "int32"}, {"name": "StatefulPartitionedCall/model/tf_op_layer_strided_slice_5/strided_slice_5/begin", "shape": [1], "dtype": "int32"}, {"name": "StatefulPartitionedCall/model/tf_op_layer_strided_slice_5/strided_slice_5/end", "shape": [1], "dtype": "int32"}, {"name": "StatefulPartitionedCall/model/tf_op_layer_strided_slice_5/strided_slice_5/strides", "shape": [1], "dtype": "int32"}, {"name": "StatefulPartitionedCall/model/tf_op_layer_Reshape_4/Reshape_4/shape", "shape": [1], "dtype": "int32"}, {"name": "StatefulPartitionedCall/model/tf_op_layer_ArgMax_4/ArgMax_4/dimension", "shape": [], "dtype": "int32"}, {"name": "StatefulPartitionedCall/model/conv1/Conv2D_weights", "shape": [3, 3, 1, 16], "dtype": "float32"}, {"name": "StatefulPartitionedCall/model/blk1_stgup3_conv/Conv2D_bn_offset", "shape": [16], "dtype": "float32"}, {"name": "StatefulPartitionedCall/model/conv1/Conv2D_bn_offset", "shape": [16], "dtype": "float32"}, {"name": "StatefulPartitionedCall/model/blk1_stg1__conv1/Conv2D_weights", "shape": [3, 3, 16, 16], "dtype": "float32"}, {"name": "StatefulPartitionedCall/model/blk1_stg1__conv1/Conv2D_bn_offset", "shape": [16], "dtype": "float32"}, {"name": "StatefulPartitionedCall/model/blk1_stg1__conv2/Conv2D_weights", "shape": [3, 3, 16, 16], "dtype": "float32"}, {"name": "StatefulPartitionedCall/model/blk1_stg1__conv2/Conv2D_bn_offset", "shape": [16], "dtype": "float32"}, {"name": "StatefulPartitionedCall/model/blk1_stg2__conv1/Conv2D_weights", "shape": [3, 3, 16, 16], "dtype": "float32"}, {"name": "StatefulPartitionedCall/model/blk1_stg2__conv1/Conv2D_bn_offset", "shape": [16], "dtype": "float32"}, {"name": "StatefulPartitionedCall/model/blk1_stgx1__conv1/Conv2D_weights", "shape": [3, 3, 16, 16], "dtype": "float32"}, {"name": "StatefulPartitionedCall/model/blk1_stgup2_conv/Conv2D_weights", "shape": [3, 3, 16, 16], "dtype": "float32"}, {"name": "StatefulPartitionedCall/model/blk1_stgx1__conv1/Conv2D_bn_offset", "shape": [16], "dtype": "float32"}, {"name": "StatefulPartitionedCall/model/blk1_stg2__conv2/Conv2D_weights", "shape": [3, 3, 16, 16], "dtype": "float32"}, {"name": "StatefulPartitionedCall/model/blk1_stgup2_conv/Conv2D_bn_offset", "shape": [16], "dtype": "float32"}, {"name": "StatefulPartitionedCall/model/blk1_stg2__conv2/Conv2D_bn_offset", "shape": [16], "dtype": "float32"}, {"name": "StatefulPartitionedCall/model/blk1_stgx1__conv2/Conv2D_weights", "shape": [3, 3, 16, 16], "dtype": "float32"}, {"name": "StatefulPartitionedCall/model/blk1_stgx1__conv2/Conv2D_bn_offset", "shape": [16], "dtype": "float32"}, {"name": "StatefulPartitionedCall/model/blk1_stg2__conv3/Conv2D_weights", "shape": [3, 3, 16, 16], "dtype": "float32"}, {"name": "StatefulPartitionedCall/model/blk1_stg2__conv3/Conv2D_bn_offset", "shape": [16], "dtype": "float32"}, {"name": "StatefulPartitionedCall/model/blk1_stgx1__conv3/Conv2D_weights", "shape": [3, 3, 16, 16], "dtype": "float32"}, {"name": "StatefulPartitionedCall/model/blk1_stgx1__conv3/Conv2D_bn_offset", "shape": [16], "dtype": "float32"}, {"name": "StatefulPartitionedCall/model/blk1_stg3__conv1/Conv2D_weights", "shape": [3, 3, 16, 16], "dtype": "float32"}, {"name": "StatefulPartitionedCall/model/blk1_stgup1_conv1/Conv2D_weights", "shape": [3, 3, 16, 16], "dtype": "float32"}, {"name": "StatefulPartitionedCall/model/blk1_stg3__conv1/Conv2D_bn_offset", "shape": [16], "dtype": "float32"}, {"name": "StatefulPartitionedCall/model/blk1_stgx2__conv1/Conv2D_weights", "shape": [3, 3, 16, 16], "dtype": "float32"}, {"name": "StatefulPartitionedCall/model/blk1_stgup1_conv1/Conv2D_bn_offset", "shape": [16], "dtype": "float32"}, {"name": "StatefulPartitionedCall/model/blk1_stgx2__conv1/Conv2D_bn_offset", "shape": [16], "dtype": "float32"}, {"name": "StatefulPartitionedCall/model/blk1_stg3__conv2/Conv2D_weights", "shape": [3, 3, 16, 16], "dtype": "float32"}, {"name": "StatefulPartitionedCall/model/blk1_stg3__conv2/Conv2D_bn_offset", "shape": [16], "dtype": "float32"}, {"name": "StatefulPartitionedCall/model/blk1_stgup1_conv2/Conv2D_weights", "shape": [3, 3, 16, 16], "dtype": "float32"}, {"name": "StatefulPartitionedCall/model/blk1_stgx2__conv2/Conv2D_weights", "shape": [3, 3, 16, 16], "dtype": "float32"}, {"name": "StatefulPartitionedCall/model/conv2_bn/FusedBatchNormV3/Scaled", "shape": [5], "dtype": "float32"}, {"name": "StatefulPartitionedCall/model/blk1_stgx2__conv2/Conv2D_bn_offset", "shape": [16], "dtype": "float32"}, {"name": "StatefulPartitionedCall/model/blk1_stgup1_conv2/Conv2D_bn_offset", "shape": [16], "dtype": "float32"}, {"name": "StatefulPartitionedCall/model/blk1_stg3__conv3/Conv2D_weights", "shape": [3, 3, 16, 16], "dtype": "float32"}, {"name": "StatefulPartitionedCall/model/blk1_stg3__conv3/Conv2D_bn_offset", "shape": [16], "dtype": "float32"}, {"name": "StatefulPartitionedCall/model/blk1_stgx2__conv3/Conv2D_weights", "shape": [3, 3, 16, 16], "dtype": "float32"}, {"name": "StatefulPartitionedCall/model/blk1_stgx2__conv3/Conv2D_bn_offset", "shape": [16], "dtype": "float32"}, {"name": "StatefulPartitionedCall/model/conv2_bn/FusedBatchNormV3/Offset", "shape": [5], "dtype": "float32"}, {"name": "StatefulPartitionedCall/model/blk1_stg4__conv1/Conv2D_weights", "shape": [3, 3, 16, 16], "dtype": "float32"}, {"name": "StatefulPartitionedCall/model/blk1_stg4__conv1/Conv2D_bn_offset", "shape": [16], "dtype": "float32"}, {"name": "StatefulPartitionedCall/model/blk1_stgx3__conv1/Conv2D_weights", "shape": [3, 3, 16, 16], "dtype": "float32"}, {"name": "StatefulPartitionedCall/model/blk1_stgx3__conv1/Conv2D_bn_offset", "shape": [16], "dtype": "float32"}, {"name": "StatefulPartitionedCall/model/blk1_stg4__conv2/Conv2D_weights", "shape": [3, 3, 16, 16], "dtype": "float32"}, {"name": "StatefulPartitionedCall/model/blk1_stg4__conv2/Conv2D_bn_offset", "shape": [16], "dtype": "float32"}, {"name": "StatefulPartitionedCall/model/blk1_stgx3__conv2/Conv2D_weights", "shape": [3, 3, 16, 16], "dtype": "float32"}, {"name": "StatefulPartitionedCall/model/blk1_stgx3__conv2/Conv2D_bn_offset", "shape": [16], "dtype": "float32"}, {"name": "StatefulPartitionedCall/model/blk1_stg4__conv3/Conv2D_weights", "shape": [3, 3, 16, 16], "dtype": "float32"}, {"name": "StatefulPartitionedCall/model/blk1_stg4__conv3/Conv2D_bn_offset", "shape": [16], "dtype": "float32"}, {"name": "StatefulPartitionedCall/model/blk1_stgx3__conv3/Conv2D_weights", "shape": [3, 3, 16, 16], "dtype": "float32"}, {"name": "StatefulPartitionedCall/model/blk1_stgx3__conv3/Conv2D_bn_offset", "shape": [16], "dtype": "float32"}, {"name": "StatefulPartitionedCall/model/blk1_stg5__conv1/Conv2D_weights", "shape": [3, 3, 16, 16], "dtype": "float32"}, {"name": "StatefulPartitionedCall/model/blk1_stg5__conv1/Conv2D_bn_offset", "shape": [16], "dtype": "float32"}, {"name": "StatefulPartitionedCall/model/blk1_stgx4__conv1/Conv2D_weights", "shape": [3, 3, 16, 16], "dtype": "float32"}, {"name": "StatefulPartitionedCall/model/blk1_stgx4__conv1/Conv2D_bn_offset", "shape": [16], "dtype": "float32"}, {"name": "StatefulPartitionedCall/model/blk1_stg5__conv2/Conv2D_weights", "shape": [3, 3, 16, 16], "dtype": "float32"}, {"name": "StatefulPartitionedCall/model/blk1_stg5__conv2/Conv2D_bn_offset", "shape": [16], "dtype": "float32"}, {"name": "StatefulPartitionedCall/model/blk1_stgx4__conv2/Conv2D_weights", "shape": [3, 3, 16, 16], "dtype": "float32"}, {"name": "StatefulPartitionedCall/model/blk1_stgx4__conv2/Conv2D_bn_offset", "shape": [16], "dtype": "float32"}, {"name": "StatefulPartitionedCall/model/blk1_stg5__conv3/Conv2D_weights", "shape": [3, 3, 16, 16], "dtype": "float32"}, {"name": "StatefulPartitionedCall/model/blk1_stg5__conv3/Conv2D_bn_offset", "shape": [16], "dtype": "float32"}, {"name": "StatefulPartitionedCall/model/blk1_stgx4__conv3/Conv2D_weights", "shape": [3, 3, 16, 16], "dtype": "float32"}, {"name": "StatefulPartitionedCall/model/blk1_stgx4__conv3/Conv2D_bn_offset", "shape": [16], "dtype": "float32"}, {"name": "StatefulPartitionedCall/model/blk1_stgup4_conv/Conv2D_weights", "shape": [3, 3, 16, 16], "dtype": "float32"}, {"name": "StatefulPartitionedCall/model/blk1_stgup4_conv/Conv2D_bn_offset", "shape": [16], "dtype": "float32"}, {"name": "StatefulPartitionedCall/model/blk1_stgup3_conv/Conv2D_weights", "shape": [3, 3, 16, 16], "dtype": "float32"}]}]}